actor_weights.pth (torch_old, 489852 bytes, 5 tensors)

fc1.weight f4 [400, 3]
0	0xbd2fbd9e	-0.042905442
1	0x3e2dceee	0.16973469
2	0x3d7846ec	0.06061451
3	0xbe17fd77	-0.14842783
4	0x3c866f36	0.016410451
5	0xbb792ea1	-0.0038022178
6	0x3e058608	0.1303941
7	0x3cb37d74	0.021910407
8	0xbcb34597	-0.021883769
9	0xbd673ae1	-0.056452636
10	0x3ea903b4	0.33010638
11	0x3caed070	0.021339625
12	0xbe39e4b5	-0.18153651
13	0x3e125053	0.14288454
14	0x3cdd01c7	0.026978387
15	0xbc0a7105	-0.0084497975
16	0x3e6ec199	0.23316039
17	0x3ce2c498	0.027681634
18	0x3dfdf190	0.1239959
19	0xbc054fcd	-0.008136702
20	0xbdc7e368	-0.09760171
21	0xbc206d9c	-0.009791758
22	0x3daf6760	0.08564639
23	0x3d46fd51	0.048581425
24	0x3b6e383f	0.0036349443
25	0x3e3b83d0	0.18312001
26	0x3d105685	0.03523876
27	0x3c1f13eb	0.009709339
28	0x3d18303b	0.03715537
29	0x3dc479f8	0.09593576
30	0x3c2d3a24	0.010572944
31	0x3e5947a5	0.21218736
32	0x3d1fcee9	0.039015684
33	0xbe3ad4d9	-0.18245257
34	0x3de2c4c9	0.1107269
35	0x3c299043	0.010349336
36	0x3e11219d	0.14172979
37	0x3e10d428	0.14143431
38	0x3d5422e2	0.05179108
39	0x3d208fcf	0.039199647
40	0x3e7eeee8	0.24895823
41	0x3d66846d	0.056278635
42	0xbd2a5a6a	-0.04159013
43	0x3de05c63	0.10955121
44	0x3cc02e06	0.023459446
45	0xbe3183b6	-0.173354
46	0x3e09125a	0.13385907
47	0x3c90af1b	0.017661622
48	0xbd75586b	-0.059898775
49	0xbdbf9cdd	-0.09356091
50	0x3c78f4b6	0.015195062
51	0x3c97ee05	0.018546114
52	0xbd076d86	-0.033063434
53	0xba08c480	-0.0005217269
54	0x3e0bc25f	0.13648365
55	0x3e77ac99	0.24186935
56	0x3ca6ca01	0.020359995
57	0x3ba9a0f3	0.0051766573
58	0x3d893318	0.066991985
59	0x3dc56ff3	0.09640493
60	0x3e2e5388	0.17024052
61	0x3db52bbb	0.088462315
62	0x3d8f4bc8	0.06996876
63	0xbcd93c8d	-0.02651813
64	0xbd5160b8	-0.05111763
65	0x3c0f0921	0.008730204
66	0x3e21bdf7	0.15795122
67	0x3dc99157	0.098421745
68	0x3d689d13	0.056790423
69	0x3e2d7ff2	0.16943339
70	0x3c50b65d	0.012738791
71	0x3d8db188	0.06918627
72	0xbd840270	-0.064457774
73	0x3e93afc0	0.28845024
74	0x3d7986ab	0.060919445
75	0x3d9cda72	0.07658853
76	0x3e49caf7	0.19706331
77	0x3d4394f1	0.047749463
78	0x3defd95d	0.11711381
79	0x3ebe38d7	0.3715274
80	0x3d4f63b8	0.05063221
81	0xbda1d778	-0.079024255
82	0x3e86c1a7	0.2631962
83	0x3d7e6942	0.0621121
84	0xbd4682b7	-0.048464503
85	0x3ecb125f	0.39662454
86	0x3be9caf7	0.007134791
87	0x3e380b8f	0.17973159
88	0x3dc5de8e	0.096615896
89	0x3d76f301	0.06029034
90	0xbe81abfe	-0.25326532
91	0x3d645ba7	0.05575147
92	0x3c205b91	0.009787456
93	0xbe609089	-0.21930136
94	0xbe78bd0d	-0.24290867
95	0x3c90c23d	0.017670745
96	0x3e05f839	0.1308297
97	0x3a24be0f	0.00062844245
98	0x3d773258	0.060350746
99	0x3ce73e7c	0.028228037
100	0x3e0e5c45	0.13902386
101	0x3da81979	0.082079835
102	0x3d75a347	0.059970167
103	0xbd15121b	-0.03639422
104	0xb93c4dc3	-0.00017958046
105	0xbd3aca6d	-0.045603205
106	0x3e2da623	0.16957907
107	0x3d059723	0.03261484
108	0xbd932f1b	-0.07186719
109	0x3e868cba	0.2627924
110	0x3d5c6af0	0.05381292
111	0xbc4fbcfe	-0.012679337
112	0x3e09e842	0.13467506
113	0x3daa340c	0.083107084
114	0xbda11722	-0.0786574
115	0x3e1ec511	0.15504862
116	0x3be70ee0	0.007051334
117	0x3b861dc4	0.004092904
118	0x3e87c0f1	0.2651439
119	0x3d037723	0.03209604
120	0x3c58dd5d	0.013236371
121	0x3ea44d21	0.32090095
122	0x3d0b0fe6	0.03395071
123	0xbdb122af	-0.086491935
124	0x3e21223e	0.15735719
125	0x3ca65a12	0.02030662
126	0xbcbb8760	-0.0228917
127	0x3e0e2ccf	0.1388428
128	0x3d0c6f30	0.034285724
129	0xbd11d8c6	-0.035607122
130	0xbe431a63	-0.19053034
131	0x3e092f9a	0.13397065
132	0x3db44515	0.08802239
133	0x3e0b6225	0.13611658
134	0x3d6010e7	0.05470362
135	0xbe506e92	-0.20354679
136	0x3e192c00	0.14958191
137	0xbd4fdde5	-0.050748724
138	0xbdd09933	-0.101854704
139	0xbe25901a	-0.16168252
140	0x3b504f9d	0.0031785734
141	0xbe380771	-0.17971589
142	0x3b86ed46	0.0041176407
143	0x3bcbd8dc	0.00622092
144	0x3afc47f2	0.0019247516
145	0x3db2777b	0.08714195
146	0x3dadb1f2	0.08481206
147	0xbe39dfc5	-0.18151768
148	0x3d8b658c	0.06806478
149	0xbc6d9443	-0.01450068
150	0xbba1b0c9	-0.0049344045
151	0x3e3427c8	0.175933
152	0x3d0d3735	0.034476478
153	0x3e54760d	0.20748158
154	0x3b2d16de	0.0026411335
155	0x3a55fba7	0.00081628043
156	0x3d33e663	0.043920886
157	0x3e65ba99	0.22434463
158	0x3d4b6f2b	0.049666565
159	0xbd47be83	-0.04876567
160	0x3ea02a08	0.31282067
161	0x3cd1a5a4	0.025591679
162	0x3e22d5fa	0.15901938
163	0x3d0e684b	0.03476743
164	0x3d6af556	0.057362877
165	0x3dec4e7f	0.115384094
166	0x3d056385	0.032565612
167	0x3c7306e5	0.014833187
168	0x3c60a980	0.013712287
169	0x3dcef0a9	0.10104496
170	0x3db5b161	0.08871723
171	0xbe31361a	-0.17305794
172	0xbe04f6ac	-0.12984723
173	0x3b90fae4	0.0044244397
174	0x3d9ec1de	0.07751821
175	0x3e059f94	0.13049155
176	0x3d61a95d	0.055093158
177	0xbd66a216	-0.05630692
178	0x3ebcff02	0.36913306
179	0x3dadf51d	0.08494017
180	0xbdc0aede	-0.09408353
181	0xbe0d786f	-0.13815473
182	0x3cc1b211	0.023644479
183	0x3e3af829	0.18258728
184	0xbc1367cf	-0.008996918
185	0x3be57d39	0.007003453
186	0xbd39c50e	-0.04535394
187	0x3d019b62	0.031642325
188	0x3df20412	0.118171826
189	0x3c8d2210	0.017228156
190	0x3dbfa799	0.093581386
191	0x3db96884	0.09053138
192	0x3d29d162	0.04145945
193	0x3e472174	0.19446355
194	0x3d399af7	0.0453138
195	0x3b91a16d	0.0044442923
196	0x3e63a791	0.2223189
197	0x3d99bd9b	0.075068675
198	0x3d1b1b03	0.037867557
199	0xbe5e5381	-0.21711542
200	0xbc9d810d	-0.019226575
201	0xbcb89d29	-0.022535877
202	0x3e475c5c	0.19468826
203	0x3cfab294	0.03060273
204	0xbc756b42	-0.014979186
205	0x3e51ea1d	0.20499463
206	0x3d021b5f	0.031764384
207	0x3e08b581	0.13350488
208	0xbcbe2520	-0.023211062
209	0x3d46eaa8	0.04856363
210	0xbd5b23c1	-0.053500894
211	0x3d85ca99	0.06532783
212	0x3df17fe0	0.11791968
213	0x3e0af0fd	0.13568492
214	0xbdbd264d	-0.09235821
215	0xbda7084f	-0.081558816
216	0xbd90577a	-0.07047935
217	0xbe0a4f07	-0.13506709
218	0x3bdab573	0.0066744625
219	0xbd5a237d	-0.0532565
220	0x3da513ab	0.08060392
221	0x3deee389	0.11664493
222	0x3dd7b1e7	0.10531979
223	0x3e1b4a65	0.15165098
224	0x3dc969b3	0.09834614
225	0xbd4c5f7f	-0.04989576
226	0x3be889a2	0.0070964852
227	0x3d72d39f	0.05928385
228	0x3e215bdb	0.15757696
229	0x3dd2e310	0.10297215
230	0x3d7960a7	0.06088319
231	0xbe7bf08e	-0.24603483
232	0x3d5007f0	0.05078882
233	0x3c4a882f	0.01236157
234	0xbe5889d2	-0.21146324
235	0xbe1a7b69	-0.1508614
236	0x3bf4923f	0.007463723
237	0xbd735d4e	-0.059415154
238	0x3e922a7c	0.28548038
239	0x3d8e2d11	0.069421895
240	0xbda21d2c	-0.0791572
241	0x3e95ea17	0.2928016
242	0x3d60c3c6	0.054874204
243	0xbcc2f06c	-0.023796283
244	0x3e1a08e4	0.15042454
245	0x3d04ffd5	0.032470543
246	0xbd06be7a	-0.032896496
247	0x3e276470	0.16346908
248	0x3d532654	0.051550224
249	0xbdadef1c	-0.08492872
250	0x3e1e1c5d	0.15440507
251	0x3bc7a890	0.0060930923
252	0x3debbe1b	0.11510869
253	0xbe16aaea	-0.14713636
254	0xbd4bbbaa	-0.049739517
255	0xbd81f261	-0.06345058

fc1.bias f4 [400]
0	0x3dc7458f	0.09730064
1	0x3d76037c	0.060061917
2	0xbbaa6a02	-0.0052006254
3	0x3c1938d0	0.009351924
4	0x3c252ef2	0.010081993
5	0x3d3771b2	0.044786163
6	0xbdab155a	-0.08353682
7	0x3dd705f9	0.10499186
8	0x3d0fe305	0.035128612
9	0x3e069f8e	0.13146803
10	0x3d13bbd5	0.036067802
11	0xbe238ca5	-0.1597162
12	0xbd64d2bd	-0.05586504
13	0x3b6840b3	0.0035438954
14	0x3d64e2cf	0.055880364
15	0x3d750aa1	0.05982459
16	0xbcbf28dd	-0.023334915
17	0xbd28f7cf	-0.041251954
18	0x3dd3128e	0.103062734
19	0x3e13dc49	0.14439501
20	0xbdbb5896	-0.09147756
21	0x3dce2d61	0.10067249
22	0xbd8f979c	-0.07011339
23	0xbe051af1	-0.12998559
24	0x3ba68972	0.0050823027
25	0xbc448b07	-0.011996037
26	0xbe35ded7	-0.17760788
27	0x3ce9b35e	0.028527912
28	0xbd492afd	-0.049113262
29	0xbd8fe6a5	-0.07026414
30	0x3d379c41	0.04482675
31	0xbd1ab019	-0.037765596
32	0xbb3b797e	-0.002860635
33	0x3e1f7fee	0.15576145
34	0xbd919ecf	-0.071103685
35	0xbd18b930	-0.037285984
36	0x3c77f734	0.015134621
37	0x3dd38147	0.10327392
38	0x3dca269b	0.09870645
39	0x3ce7306a	0.028221328
40	0x3d1bf087	0.03807118
41	0x3ddbf461	0.10739971
42	0x3d35c5c4	0.044378057
43	0xbd84862f	-0.06470906
44	0xbcee1c26	-0.029066157
45	0xbe0e0f05	-0.13872917
46	0xbe3b66de	-0.1830096
47	0xbdd30a64	-0.10304716
48	0x3d93fd55	0.072260536
49	0x3df83eff	0.121213906
50	0x3d2d4490	0.042301714
51	0x3d42ed0b	0.047589343
52	0xbbb180a2	-0.0054169456
53	0x3b289c8c	0.0025728075
54	0xbdd11eb6	-0.10210936
55	0x3d02d5ae	0.031942062
56	0x3dbd7920	0.092516184
57	0x3c316634	0.01082759
58	0xbcbf9653	-0.02338711
59	0x3c176d85	0.00924242
60	0xbbd13899	-0.006384921
61	0x3c9e036a	0.019288737
62	0x3d8e916f	0.06961333
63	0x3dff2cc4	0.1245971
64	0xbbcf7f10	-0.0063322857
65	0x3caebd58	0.02133052
66	0xbba66387	-0.0050777826
67	0x3d63b943	0.0555966
68	0x3d5c3b4f	0.0537675
69	0xbdad20d4	-0.08453527
70	0x3d9afd44	0.07567838
71	0xbe00eafe	-0.12589642
72	0xbd683033	-0.05668659
73	0x3db5982a	0.088669136
74	0xbd5c884b	-0.053840917
75	0x3d8446bc	0.06458804
76	0xbd910a27	-0.070820145
77	0x3d26704a	0.04063443
78	0x3c8b1eb6	0.016982418
79	0x3c7dc838	0.01548963
80	0x3ccb0ef4	0.024787404
81	0x3d3f3738	0.04668352
82	0x3ccc75c7	0.024958504
83	0x3dd87e1c	0.105709285
84	0xbdbe2711	-0.09284795
85	0x3d3354f2	0.043782182
86	0xbcea97c9	-0.02863683
87	0xbcdc5736	-0.026897054
88	0xbcca2144	-0.024674065
89	0x3c405a36	0.011740258
90	0xbd9ff14f	-0.07809698
91	0xbdb5330e	-0.088476285
92	0x3c6fd11b	0.014637257
93	0x3de80ab5	0.11330167
94	0xbbcacfb8	-0.006189313
95	0x3d0201e8	0.0317401
96	0x3db034a4	0.086037904
97	0xbd2f5c87	-0.04281285
98	0xbde02987	-0.10945421
99	0xb8e4d4b8	-0.00010911509
100	0x3d16339e	0.03667032
101	0xbb6860cf	-0.0035458093
102	0x3bdf39a9	0.0068122935
103	0x3dd5d5b6	0.10441153
104	0x3dbe437a	0.09290214
105	0xbde6c823	-0.11268642
106	0xbd48890f	-0.048958834
107	0x3cfb8de2	0.030707303
108	0x3d524174	0.051331952
109	0x3db676e0	0.08909392
110	0x3daf1767	0.085493855
111	0x3c3f3f08	0.011672743
112	0x3e102691	0.14077212
113	0x3d263eec	0.04058735
114	0x3d9ea635	0.07746545
115	0xbcf3f875	-0.02978156
116	0x3d3a433f	0.045474287
117	0xbbeb7a6a	-0.0071862238
118	0x3e086f9b	0.13323824
119	0x3cbc473b	0.022983184
120	0x3d84f32c	0.06491694
121	0x3cd962a6	0.026536297
122	0x3d40e928	0.047097355
123	0x3e0aa66c	0.13540047
124	0x3dbbe452	0.09174408
125	0x3daac746	0.0833879
126	0xbe52945f	-0.20564412
127	0xbc91701c	-0.017753653
128	0x3c918b2a	0.017766554
129	0x3d2d84c4	0.042362943
130	0x3ce9a317	0.02852015
131	0x3dc00df7	0.093776636
132	0x3c820ef0	0.015876263
133	0xbd67be35	-0.05657788
134	0xbde0ab6c	-0.10970196
135	0x3d8424a3	0.064523004
136	0xbdf057a6	-0.117354676
137	0x3da1a50e	0.0789281
138	0xbdd3ee72	-0.10348214
139	0x3d1e1add	0.038599838
140	0xbc9ac8f9	-0.01889466
141	0x3d9db49c	0.07700464
142	0x3dda9113	0.10672202
143	0x3d72d974	0.05928941
144	0x3c1a7d29	0.009429255
145	0x3daeaa9b	0.08528634
146	0x3d7b1614	0.061300352
147	0xbd644ca2	-0.055737145
148	0x3dcda8ef	0.10041987
149	0x3dcf5103	0.10122874
150	0x3dbb36af	0.091412894
151	0x3d32c25a	0.04364238
152	0x3d2cf239	0.04222319
153	0xbd5f6b0f	-0.05454546
154	0x3d05be45	0.03265216
155	0xbd9587cc	-0.07301292
156	0x3dcb9f90	0.099425435
157	0x3d82048c	0.063485235
158	0xbd214c53	-0.03937943
159	0xbe07d4f8	-0.13264835
160	0x3d505916	0.05086621
161	0x3cbf087e	0.02331948
162	0xbe4fd591	-0.20296313
163	0x3d7432bd	0.0596187
164	0x3d728d76	0.05921694
165	0x3c2034d7	0.009778223
166	0x3e0c4d1c	0.1370129
167	0xbcd73099	-0.02626829
168	0x3c2b5978	0.010458343
169	0x3dd22beb	0.10262283
170	0x3c1e8147	0.009674377
171	0xbd0fc145	-0.035096426
172	0x3d72705d	0.05918919
173	0xbd0b95b8	-0.03407833
174	0xbdaf940b	-0.08573159
175	0x3d32642e	0.04355257
176	0xbb4a91a3	-0.003090956
177	0x3d0a82f5	0.033816297
178	0xbda78f5c	-0.081816405
179	0xbd9904b2	-0.07471599
180	0xbdd333a6	-0.103125855
181	0xbd42c02e	-0.047546558
182	0xbe44f635	-0.19234546
183	0xbcf8594c	-0.030316018
184	0x3e110097	0.14160381
185	0xbd837f5a	-0.06420775
186	0xbe1f3ea8	-0.15551245
187	0xbd850035	-0.0649418
188	0xbdd910e1	-0.105989225
189	0x3c48c9ff	0.012255191
190	0x3d7ce4ab	0.061741512
191	0x3c09fe1a	0.008422399
192	0x3db23c30	0.08702886
193	0x3d3a1f85	0.045440216
194	0x3d61ddba	0.055143096
195	0x3c1639a5	0.009169017
196	0xbda072e5	-0.078344144
197	0xbd1edf99	-0.038787458
198	0x3ca55935	0.020184139
199	0x3e25028b	0.16114251
200	0x3de3dc04	0.11125949
201	0x3de5e2b4	0.11224881
202	0xbddf7c0a	-0.109123304
203	0x3d1a9152	0.037736244
204	0x3d3c1f38	0.04592821
205	0x3d44d1dc	0.0480517
206	0x3d321f48	0.043486863
207	0xbe07e3b3	-0.13270454
208	0xbe150a43	-0.14554696
209	0xbcc8fd3c	-0.024534814
210	0xbd5cf092	-0.053940363
211	0x3d194812	0.037422247
212	0x3c3c3527	0.011487282
213	0xbdeea4bd	-0.11652515
214	0x3d0a208b	0.03372244
215	0x3dbfdc1d	0.09368155
216	0xbd6f4c9d	-0.058422673
217	0xbc27d996	-0.010244748
218	0x3cc25867	0.023723794
219	0x3c059946	0.008154219
220	0x3d0eb28c	0.034838244
221	0xbd0de46b	-0.034641664
222	0x3e1d8657	0.15383278
223	0x3c04eec0	0.008113563
224	0x3e071c03	0.1319428
225	0xbd747f13	-0.0596915
226	0x3de5caed	0.11220346
227	0x3c18dadd	0.009329525
228	0xbdbc7d5f	-0.092036
229	0xbd03fa8a	-0.032221355
230	0x3e0b9687	0.1363164
231	0xbd43b2d1	-0.047777954
232	0x3d12b44d	0.03581648
233	0x3cfd785e	0.030941185
234	0x3ca5875a	0.020206142
235	0xbdb7e02c	-0.08978304
236	0x3bc09fbf	0.005878418
237	0x3dc9a37f	0.098456375
238	0x3dce223e	0.10065125
239	0x3dde3b8c	0.108512014
240	0x3cc62315	0.02418665
241	0xbd8f1838	-0.06987041
242	0xbb684399	-0.0035440682
243	0xbc883798	-0.016628072
244	0x3e146a89	0.14493765
245	0xbd30c004	-0.04315187
246	0xbd0a12d4	-0.033709362
247	0x3dae086b	0.08497699
248	0xbd41b267	-0.04728928
249	0x3c47ad33	0.01218729
250	0xbcd5b310	-0.02608636
251	0x3dd9564d	0.10612164
252	0x3dd27000	0.102752686
253	0xbc3a4d00	-0.011370897
254	0xbd8deb66	-0.06929664
255	0x3dc2abbe	0.095054135

fc2.weight f4 [300, 400]
0	0x3d788207	0.06067088
1	0x3d8ffd88	0.07030779
2	0x3d9840bb	0.07434221
3	0x3dc689a2	0.0969422
4	0xbc2c7f1a	-0.01052835
5	0x3c38c8d3	0.011278349
6	0x3df415c9	0.11918218
7	0x3d830dcb	0.06399115
8	0xbd825822	-0.06364466
9	0x3cbe0383	0.023195034
10	0xbd79e1ed	-0.061006475
11	0x3e06f38c	0.13178843
12	0xbd9de71f	-0.077100985
13	0xbe362837	-0.17788778
14	0xbd1d87de	-0.03845965
15	0x3d123beb	0.035701673
16	0x3c33f4ac	0.010983627
17	0x3d416062	0.04721106
18	0x3d143707	0.03618529
19	0x3dc7aa27	0.09749251
20	0xbdc78ea4	-0.097440034
21	0x3d954c2e	0.07289921
22	0xbdedee35	-0.116177
23	0xbd961429	-0.07328064
24	0x3daca2c4	0.084294826
25	0xbd09d4bf	-0.033650156
26	0x3daf884e	0.0857092
27	0x3d67d244	0.05659701
28	0xbca8a0bd	-0.020584458
29	0xbe4512c5	-0.19245441
30	0x3d49adc3	0.049237978
31	0x3d8a1498	0.06742209
32	0x3d1de44e	0.038547806
33	0x3d69b993	0.057061743
34	0xbc0d1c5e	-0.00861272
35	0x3d51d6c8	0.051230222
36	0x3d3d7ccc	0.046261594
37	0x3d272437	0.04080602
38	0xbd2e86fb	-0.042609196
39	0xbd63e1c4	-0.05563523
40	0x3cfb4663	0.030673211
41	0x3d069002	0.03285218
42	0xbd2eb317	-0.042651262
43	0x3c0d0314	0.008606691
44	0xbcf85f0f	-0.030318765
45	0x3d8d9f2c	0.06915125
46	0x3e05738f	0.13032363
47	0x3d180dc2	0.037122495
48	0xbaa4f63e	-0.0012585593
49	0x3c548072	0.012970077
50	0xbddb1669	-0.10697634
51	0xbcfaacc7	-0.030599965
52	0xbdc1d38d	-0.09464178
53	0x3d9613d1	0.073279984
54	0xbe3b732f	-0.18305658
55	0x3d1ba4ad	0.037998844
56	0x3d358ac3	0.044321787
57	0xbcbb0a5c	-0.022832088
58	0xbd77b9cb	-0.06047992
59	0x3dbac36a	0.091193035
60	0xbd17cf25	-0.037062783
61	0x3d2c847c	0.042118534
62	0xbb9fdaef	-0.004878394
63	0x3d81e658	0.06342763
64	0xbd423c5a	-0.047420837
65	0xbe12e345	-0.14344509
66	0x3cf4b32a	0.029870588
67	0xbdd8daed	-0.10588632
68	0xbd24945b	-0.040180545
69	0xbdd8f2cb	-0.10593184
70	0x3d4b189b	0.049584012
71	0x3e0b00a4	0.13574463
72	0x3dc60ff2	0.0967101
73	0x3dde73d1	0.10861934
74	0x3cf7c5a7	0.030245615
75	0x3d808c96	0.06276815
76	0xbd5e84cc	-0.054325864
77	0x3d8479a7	0.06468516
78	0xbd47ff55	-0.048827488
79	0x3d627954	0.05529149
80	0xbc902910	-0.017597705
81	0xbd0794ab	-0.033100765
82	0x3c6929aa	0.014231125
83	0x3b249301	0.0025112035
84	0x3d91f1cf	0.071261995
85	0x3d2ee8bd	0.042702425
86	0xbdc7eb6b	-0.09761699
87	0x3b05a1a6	0.002039054
88	0x3af24078	0.0018482348
89	0xbcff3892	-0.031154905
90	0x3da4439a	0.080207065
91	0xbdce0b61	-0.10060764
92	0x3dfedfca	0.12445028
93	0x3da05387	0.078284316
94	0x3b257912	0.0025249165
95	0xbd939bb4	-0.072074324
96	0x3cf8536f	0.030313222
97	0x3dded8c0	0.108811855
98	0x3e32fc10	0.17478967
99	0x3bc15efd	0.005901216
100	0x3d118ace	0.035532765
101	0xbe58c7fc	-0.21170038
102	0x3db15179	0.08658118
103	0x3d71a692	0.058996744
104	0xbc532554	-0.012887318
105	0x3e174f0b	0.14776246
106	0x3cd97940	0.026547074
107	0x3cd7971d	0.026317174
108	0xbe38da99	-0.18052138
109	0x3c8fcedd	0.017554695
110	0x3d4e53ae	0.050372772
111	0xbd813fd1	-0.06311
112	0x3d322761	0.043494586
113	0xbd93c8ce	-0.07216035
114	0x3d7f5eba	0.062346198
115	0xbda8564d	-0.082195856
116	0xbd8b59c5	-0.068042316
117	0x3d46bd46	0.04852035
118	0x3dbdf1bf	0.09274625
119	0xbc39b6ee	-0.011335118
120	0x3c57d1d1	0.013172583
121	0x3db11c4f	0.086479776
122	0xbd9e0564	-0.07715872
123	0x3dd698ec	0.10478386
124	0x3d1ad7a6	0.037803315
125	0x3bc12b8f	0.005895085
126	0xbd853d97	-0.06505888
127	0xbd595fe6	-0.05306997
128	0x3d63798c	0.055535838
129	0xbdaa1aa7	-0.08305865
130	0xbd863f4d	-0.065550424
131	0x3be55083	0.006998123
132	0x3b1a1c41	0.0023515376
133	0x3d21cfd4	0.03950484
134	0x3da2ea84	0.079548866
135	0x3d3417be	0.043967955
136	0x3e0a6844	0.13516337
137	0x3cef9f3c	0.029250734
138	0x3e1e74f6	0.15474305
139	0x3d836e67	0.06417542
140	0x3cc54415	0.024080316
141	0x3d8c7dcb	0.068599306
142	0x3d3ff639	0.046865676
143	0x3dc22fe8	0.09481794
144	0x388daf50	6.7560584e-05
145	0x3c070169	0.008240082
146	0x3d8e7077	0.06955045
147	0x3d85faf4	0.06542006
148	0x3d9e52fd	0.077306725
149	0x3d85e127	0.06537085
150	0x3d5d5b07	0.05404189
151	0xbcde1fd8	-0.027114794
152	0xbcb2245f	-0.021745859
153	0x3a34717e	0.0006883367
154	0x3cde15b1	0.027109953
155	0x3d2aac6e	0.041668348
156	0xbd380015	-0.044921953
157	0x3cbd50db	0.023109844
158	0x3d93af41	0.072111614
159	0x3d603082	0.05473376
160	0xbdae5349	-0.08511979
161	0xbd90e6a9	-0.07075245
162	0xbe1c5297	-0.1526588
163	0xbdb8b3d9	-0.09018678
164	0x3d5aea0a	0.053445853
165	0x3ce63492	0.02810124
166	0x3de07e4b	0.109615885
167	0x3e26f759	0.16305293
168	0xbd350a7a	-0.044199444
169	0x3d1f029b	0.038820844
170	0xbd33a340	-0.04385686
171	0xbcbd0270	-0.023072451
172	0xbddc73e6	-0.107642934
173	0x3e3d53c3	0.18488984
174	0x3e16afe6	0.14715537
175	0x3cac5a70	0.021039218
176	0x3da92398	0.08258742
177	0x3c67e6c4	0.01415414
178	0xbdf2cf0e	-0.11855899
179	0x3dca4efb	0.098783456
180	0xbd183def	-0.03716844
181	0xbcfa025f	-0.030518709
182	0xbe5f73b4	-0.21821481
183	0xbd6ff2dd	-0.05858122
184	0x3d87937b	0.066199265
185	0xbd2983e8	-0.04138556
186	0x3dd17e26	0.10229139
187	0xbe0615f7	-0.13094316
188	0xbcc1181f	-0.023571072
189	0x3cf2ae9b	0.029624274
190	0x3dc2000d	0.09472666
191	0x3cb3d6b0	0.021952957
192	0x3c2d0538	0.010560326
193	0xbc730d9f	-0.0148347905
194	0x3d0b91d5	0.034074623
195	0xbd18e74b	-0.037329953
196	0x3d856998	0.06514281
197	0xbd0c0c9e	-0.03419172
198	0xbc91f112	-0.017815147
199	0x3dc45a62	0.09587552
200	0xbd376018	-0.044769377
201	0xbbb6b5ca	-0.00557587
202	0xbd25662a	-0.040380634
203	0xbd7cfc93	-0.06176431
204	0x3cd0355b	0.025416067
205	0x3cb8f84c	0.022579335
206	0x3b5d46bf	0.0033764092
207	0x3dcdebfc	0.10054776
208	0x3e27ca3a	0.16385737
209	0x3d98bf35	0.07458345
210	0x3a11632c	0.0005546089
211	0x3c65df00	0.014030218
212	0x3bbfb07d	0.0058498965
213	0x3d2eff20	0.042723775
214	0xbdb63b78	-0.088980615
215	0x3cf04c3b	0.029333225
216	0xbc5713c2	-0.013127269
217	0xbca5e01c	-0.020248465
218	0x3df162a0	0.11786389
219	0xbd69808e	-0.057007365
220	0xbcf0bb88	-0.029386297
221	0xbd1fd502	-0.0390215
222	0x3cbdf818	0.02318959
223	0xbe0c45bf	-0.13698481
224	0x3d6c39c1	0.057672266
225	0xbd94f8f6	-0.07274048
226	0x3e014ecd	0.12627716
227	0x3ce59945	0.028027186
228	0x3aa8fed5	0.0012893329
229	0x3be83300	0.007086158
230	0x3db7cb02	0.089742675
231	0x3d8ed671	0.06974495
232	0xbd954062	-0.07287671
233	0xbddbdbeb	-0.107353054
234	0xbcde87b4	-0.027164318
235	0x3e0985e0	0.13429976
236	0xbd4bf035	-0.049789626
237	0x3cc1ca98	0.023656175
238	0x3d93b828	0.072128594
239	0x3ddd3cfe	0.10802649
240	0xbc78e6e8	-0.015191771
241	0x3dac4eed	0.084134914
242	0xbda545d9	-0.08069963
243	0x3c3ee993	0.011652368
244	0x3d2eec9d	0.04270612
245	0xbcbd16cd	-0.023082161
246	0xbcb5b721	-0.02218205
247	0x3d61d584	0.055135265
248	0x3d9c2e37	0.07626002
249	0x3da9f49c	0.08298609
250	0xbc1b2542	-0.009469332
251	0xbb716229	-0.003683219
252	0x3d0c5a03	0.03426553
253	0x3e60a3db	0.21937506
254	0x3e53500d	0.20636006
255	0x3db6292d	0.088945724

fc2.bias f4 [300]
0	0x3cc440a9	0.023956614
1	0x3d2d3d88	0.04229501
2	0x3c6d4f06	0.014484173
3	0x3dd810ce	0.1055008
4	0x3c400521	0.011719973
5	0x3abcdf2b	0.0014409771
6	0x3d8af265	0.06784514
7	0xbb5c6127	-0.0033627243
8	0xbdb754ad	-0.089516975
9	0x3d7587ce	0.059943967
10	0x3cd7b6c1	0.026332261
11	0xbdbbd9db	-0.09172412
12	0x3d5d069d	0.053961385
13	0x3d376774	0.044776395
14	0xbb0ffb75	-0.0021969948
15	0x3b716b42	0.0036837612
16	0xbcabac6a	-0.020956237
17	0x3e06f422	0.13179067
18	0xbd437e10	-0.047727644
19	0x3d3b0385	0.045657653
20	0x3cd31238	0.025765523
21	0x3d2bf1f1	0.04197878
22	0x3d574dc9	0.052564416
23	0xbcad54de	-0.021158632
24	0x3d55273c	0.05203937
25	0x3d3b6a1c	0.04575549
26	0x3c0ca5b9	0.008584433
27	0x3d861db6	0.06548636
28	0xbbe4075a	-0.006958884
29	0xbd42319f	-0.047410604
30	0xbdb6ff7a	-0.08935447
31	0x39f1a9a9	0.0004609351
32	0x3d156de8	0.036481768
33	0x3e2dadab	0.1696078
34	0x3ca04cfd	0.01956796
35	0x3c985e60	0.018599689
36	0x3d5d587f	0.054039475
37	0x3cc98983	0.024601704
38	0xbc32136c	-0.010868888
39	0xbbaa974b	-0.005206024
40	0x3de1123e	0.109898075
41	0x3d8399aa	0.064257935
42	0x3d5394e5	0.05165567
43	0xbc8d042e	-0.017213907
44	0xbda62e11	-0.08114255
45	0x3dc28ab5	0.094991125
46	0x3e138df2	0.14409617
47	0xbdd41ffa	-0.103576615
48	0x3d9520bc	0.07281634
49	0x3d11dc43	0.03561045
50	0x3d8613fb	0.0654678
51	0xbcf93299	-0.030419635
52	0x3d49687a	0.049171902
53	0x3e163bd2	0.14671257
54	0xbda48242	-0.08032657
55	0x3dc53f6c	0.096312374
56	0x3d661376	0.056170903
57	0x3dd261e5	0.10272578
58	0x3d9585c6	0.07300906
59	0x3d6cb2a2	0.057787545
60	0x3d7b9ef4	0.061430886
61	0x3bfb4241	0.00766781
62	0x3d00b573	0.031423043
63	0xbd13d991	-0.03609616
64	0x3c5fb313	0.013653534
65	0xbc6fdcb7	-0.014640025
66	0xbd81bd40	-0.06334925
67	0x3e2d43ad	0.16920348
68	0xbd3b944f	-0.045795735
69	0xbd02614e	-0.03183108
70	0x3c3f494a	0.011675188
71	0x3c324d46	0.010882681
72	0xbc549021	-0.012973816
73	0x3d56bb19	0.052424524
74	0xbd96eeb1	-0.073697455
75	0x3c93a8dd	0.018024856
76	0x3d34390a	0.04399971
77	0x3e21358c	0.15743083
78	0xbcc91784	-0.024547346
79	0xbd2ef3e3	-0.042713057
80	0x3d4f7935	0.0506527
81	0x3e0f216f	0.13977598
82	0x3d0d5a33	0.03450985
83	0x3e1626b8	0.14663208
84	0x3e417eb2	0.18895987
85	0x3d9d1653	0.07670274
86	0x3d41887c	0.047249302
87	0x3d1404a9	0.036137257
88	0x3d7ec462	0.062199004
89	0xbdd511d2	-0.104037896
90	0xbd6c909e	-0.057755105
91	0xbbdb7d29	-0.00669827
92	0x3c2c7bbe	0.010527549
93	0x3db3ce09	0.087795325
94	0x3dc59d61	0.09649158
95	0x3db688a9	0.089127846
96	0x3d98ac05	0.07454685
97	0x3d5eceda	0.054396488
98	0x3ddf3d3b	0.10900351
99	0x3dbaafdc	0.09115574
100	0x3d48388d	0.048882056
101	0xbc839174	-0.016060568
102	0x3de5a9fc	0.112140626
103	0xbd65e36b	-0.056125086
104	0xbbf7b6ba	-0.0075596245
105	0x3dcd00cf	0.1000992
106	0x3d5c2782	0.053748615
107	0x3d21f104	0.03953649
108	0xbd46b293	-0.048510145
109	0xbd1a8a43	-0.037729513
110	0xbd2b8dba	-0.041883208
111	0xbd333f31	-0.043761436
112	0x3e0df5c1	0.13863279
113	0xbca68e1b	-0.020331433
114	0xbd2d4fb4	-0.04231234
115	0x3deac26a	0.11462863
116	0x3c8d4447	0.017244471
117	0xbd7f786f	-0.062370714
118	0x3dbbe16d	0.09173856
119	0xbca78b37	-0.020452125
120	0xbcd2415e	-0.025665935
121	0xbd2e8dcb	-0.042615693
122	0xbb722e09	-0.0036953709
123	0x3d676709	0.056494746
124	0xbd163f2d	-0.036681343
125	0x3e05e5b3	0.13075905
126	0x3d6cb0e1	0.057785872
127	0x3c84b1a0	0.01619798
128	0xba8ba403	-0.0010653738
129	0x3d08d2a2	0.033404
130	0xbc30549d	-0.010762361
131	0x3e341c0f	0.17588829
132	0x3c88b2e8	0.016686872
133	0x3c6a8ca2	0.014315756
134	0xbd2d45f9	-0.04230306
135	0x3e1eba30	0.15500712
136	0x3bcce53c	0.006252913
137	0x3e3fc406	0.18727121
138	0xbd461ca6	-0.048367165
139	0x3d926df2	0.07149877
140	0xbb5124cf	-0.0031912809
141	0x3e2ecfef	0.17071508
142	0x3d3bbe63	0.045835864
143	0x3dfb261a	0.12263127
144	0xbd7ca330	-0.061679065
145	0x3d869ce3	0.065728925
146	0x3d11f9d4	0.035638645
147	0xbc875fbc	-0.016525142
148	0x3cbbdd20	0.022932589
149	0x3d0f534b	0.034991544
150	0x3d6f4420	0.05841458
151	0xbd5af3a6	-0.053455018
152	0x3dfb018e	0.12256156
153	0x3d755237	0.05989286
154	0x3d98636f	0.074408405
155	0x3dadf22b	0.084934555
156	0x3d9051c1	0.07046843
157	0x3cd9b3fb	0.02657508
158	0xbce1fa66	-0.02758522
159	0xbb316d5b	-0.0027073238
160	0x3dd6fa8f	0.10497009
161	0x3deda3a5	0.11603478
162	0xbd771f63	-0.060332667
163	0xbc92f521	-0.017939152
164	0xbd42e106	-0.04757788
165	0x3da68270	0.08130348
166	0x3dddb85f	0.108261816
167	0x3cbcce19	0.023047494
168	0x3cfb55c1	0.03068054
169	0xbd6601a7	-0.05615392
170	0xbd7e82f7	-0.062136617
171	0xbd007ef6	-0.03137108
172	0xbd0b2808	-0.033973724
173	0x3cd2dad3	0.02573911
174	0xbda05e9e	-0.07830547
175	0x3e111bad	0.14170714
176	0x3dd09275	0.101841845
177	0x3ce9612a	0.028488714
178	0x3cca9a2f	0.024731724
179	0xbcc41807	-0.023937238
180	0xba1c3f88	-0.00059603946
181	0xbcc40e98	-0.02393274
182	0x3d7aa839	0.061195586
183	0xbd8242c5	-0.063603915
184	0x3dd59c98	0.104302585
185	0xbd6c8db7	-0.057752337
186	0x3df990aa	0.121857956
187	0x3d8cfa64	0.06883696
188	0x3e144337	0.14478765
189	0x3d809ed6	0.062802956
190	0x3d630039	0.055420134
191	0x3d5a0a61	0.053232554
192	0x3d37bc9d	0.04485761
193	0x3d742649	0.059606824
194	0xbc7679ec	-0.015043717
195	0xbce62d36	-0.02809773
196	0xbc6c31ee	-0.014416201
197	0x3d5d6fd0	0.05406171
198	0xbdb1efac	-0.08688292
199	0x3dac73fd	0.084205605
200	0x3c9a20f5	0.018814543
201	0xbc93f493	-0.018060958
202	0x3cb51784	0.02210594
203	0x3dff5371	0.12467087
204	0x3d991963	0.07475545
205	0x3dd31067	0.10305863
206	0x3dad5f29	0.08465416
207	0x3d1172a6	0.035509728
208	0x3e08d520	0.1336255
209	0xbd3e1f4b	-0.046416562
210	0x3d0bbbf7	0.034114804
211	0xbd91dc04	-0.07122043
212	0x3d9b1638	0.07572597
213	0xbc84f4bf	-0.016229985
214	0x3dfc52ee	0.12320505
215	0x3cfeafa0	0.031089604
216	0x3c3c24ac	0.011483353
217	0x3dee2f78	0.11630148
218	0x3e043bd0	0.12913442
219	0xbc4e9c44	-0.012610499
220	0x3d9c11a1	0.0762055
221	0x3d4425e5	0.0478877
222	0x3dfef6ee	0.12449442
223	0x3d40a900	0.04703617
224	0x3dd23ef6	0.10265915
225	0xbd2dafb6	-0.0424039
226	0x3d81b0cc	0.063325495
227	0xbd5bb948	-0.053643495
228	0x3d8fd00e	0.07022105
229	0x3e0f0bb9	0.13969316
230	0x3da484ea	0.08033164
231	0x3dc217df	0.09477209
232	0x3cb25c50	0.021772534
233	0xbbda4abb	-0.0066617406
234	0xbd13a175	-0.03604265
235	0x3db3c4b9	0.08777756
236	0x3d575d69	0.052579317
237	0xbd617503	-0.05504323
238	0x3de21b1d	0.11040328
239	0x3d3a0bfe	0.045421593
240	0x3d499eb2	0.04922361
241	0x3c93ce7a	0.018042792
242	0xbd26c8a1	-0.04071868
243	0x3d58f061	0.05296362
244	0x3cfca657	0.030841036
245	0x3dd3b10c	0.103365034
246	0x3d034abf	0.032053705
247	0x3d4fd04e	0.050735764
248	0xbd42e30c	-0.04757981
249	0x3e0aa135	0.13538058
250	0x3e04dd75	0.12975104
251	0x3a3ef186	0.00072839146
252	0x3d73d630	0.059530437
253	0x3dcfdaaf	0.101491325
254	0x3d1de951	0.038552586
255	0x3d1a5f27	0.0376884

fc3.weight f4 [1, 300]
0	0x3db7ff7d	0.089842774
1	0xbd9ed3ce	-0.07755242
2	0x3d6f7f84	0.058471218
3	0xbe2ff50d	-0.17183323
4	0x39f1362a	0.00046007457
5	0xbce83c34	-0.02834902
6	0xbd2d661f	-0.04233372
7	0xbacd283c	-0.001565225
8	0xbdea96f5	-0.11454574
9	0xbda38e4b	-0.079861246
10	0x3de63897	0.112412624
11	0xbeff730c	-0.4989246
12	0xbd53c3e5	-0.05170049
13	0x3d833e0c	0.06408319
14	0xbde136b3	-0.10996761
15	0x3d41dd74	0.047330335
16	0xbcdc4b18	-0.026891276
17	0xbee88081	-0.4541054
18	0xbb0231bb	-0.0019866067
19	0xbd8b7210	-0.06808865
20	0xbc90e105	-0.017685423
21	0x3d4cdb7a	0.050013997
22	0xbddc5cb4	-0.10759869
23	0x3e4f9277	0.20270716
24	0xbd38b1f3	-0.04509158
25	0x3dbba269	0.09161837
26	0xbda07a35	-0.07835809
27	0xbd8fc411	-0.070198186
28	0xbb52b74f	-0.0032152717
29	0xb9a059e0	-0.0003058454
30	0xbdb1a59e	-0.08674167
31	0xbb604d86	-0.0034225895
32	0x3d69528b	0.056963485
33	0x3dd125d0	0.1021229
34	0xbce25331	-0.02762756
35	0xbde2ffb8	-0.11083931
36	0x3d3af471	0.045643274
37	0xbdcd14ca	-0.10013731
38	0x3e90c7c2	0.28277403
39	0xbb21d314	-0.0024692463
40	0x3dbc407d	0.09191988
41	0xbe28a93f	-0.16470812
42	0xbcc64fbf	-0.024207948
43	0x3a7fd19e	0.00097587134
44	0xbd96150c	-0.07328233
45	0x3e08ab9e	0.13346717
46	0x3da87dff	0.08227157
47	0xbe0bac94	-0.13640052
48	0xbcec9029	-0.028877335
49	0xbc4a03aa	-0.012329975
50	0x3de36647	0.11103492
51	0xbb24e016	-0.002515798
52	0xbdc61455	-0.09671847
53	0x3dccfbbc	0.10008952
54	0xbdb88826	-0.09010343
55	0x3d9fcdf3	0.078029536
56	0xbd884c55	-0.06655184
57	0xbf93c546	-1.1544578
58	0x3de63b82	0.11241819
59	0x3d1cee4b	0.03831319
60	0x3d75c301	0.060000423
61	0xbc837bad	-0.016050184
62	0xbcd19ba8	-0.025586918
63	0xbac2e17d	-0.0014868226
64	0xbe090ba0	-0.13383341
65	0x3b81d0d9	0.003961664
66	0x3a95c816	0.0011427428
67	0x3dd62fff	0.10458373
68	0x3d0e6135	0.034760673
69	0x3f19b4cc	0.600415
70	0x3f89b61f	1.0758704
71	0xbda62a24	-0.081135064
72	0x3d1ad8a5	0.037804265
73	0x3e742773	0.23843174
74	0x3f00a7c8	0.50256014
75	0x3d0bbfc6	0.034118436
76	0x3d259b20	0.04043114
77	0xbf29bdb6	-0.663051
78	0x3dda70fd	0.10666082
79	0x3e3a8ba9	0.18217339
80	0x3dd281b6	0.10278647
81	0xbf275e41	-0.65378195
82	0xbd4081c7	-0.046998765
83	0xbf13c239	-0.57718235
84	0x3ecf2b5c	0.40462768
85	0xbec4fb1f	-0.3847284
86	0x3e035562	0.1282554
87	0xbcb8c904	-0.02255679
88	0x3d3903b9	0.045169566
89	0xbd802a33	-0.06258049
90	0x3b02218b	0.001985642
91	0x3d18eb47	0.037333753
92	0xbd3a60e7	-0.04550257
93	0x3e011d88	0.12608922
94	0x3f0e0854	0.5548146
95	0x3debf526	0.11521368
96	0xbdd2a2f4	-0.10284987
97	0x3d1f66b5	0.03891631
98	0xbecefd7b	-0.40427765
99	0x3d4b3def	0.04961961
100	0xbe0e9cdc	-0.13927025
101	0xbd67ec8d	-0.056622077
102	0x3e0b4fbb	0.13604634
103	0x3bba016e	0.00567644
104	0x3a9e3d32	0.0012072681
105	0x3dd14851	0.102188714
106	0x3d336273	0.04379506
107	0xbdaab26b	-0.08334812
108	0x3d8afe41	0.06786776
109	0x3a24ff8d	0.00062941835
110	0x3b9381a6	0.0045015393
111	0x3a8e675c	0.0010864544
112	0x3e04d2c6	0.12971029
113	0x3a484f15	0.00076411787
114	0xbd0bb039	-0.034103606
115	0x3e166ca6	0.14689884
116	0xbd64feb1	-0.055906955
117	0xba2096ea	-0.00061260036
118	0x3e93d0c5	0.28870216
119	0xb9ec97e4	-0.00045126595
120	0x3c708b0d	0.01468159
121	0xbb0f86bb	-0.0021900374
122	0x3e27b21c	0.16376537
123	0xbe223840	-0.1584177
124	0x3c9a6541	0.01884711
125	0x3ddd691f	0.10811066
126	0xbc8991ae	-0.016793098
127	0xba6414ad	-0.00087005907
128	0xbb480856	-0.0030522547
129	0xbd7eee06	-0.062238716
130	0xbcc7d8a4	-0.024395294
131	0xbf07504d	-0.52856904
132	0x3ed3bc6e	0.41354698
133	0xbd8a0116	-0.067384884
134	0x3b929120	0.0044728667
135	0xbf0da91d	-0.5533617
136	0xba9be251	-0.0011893009
137	0xbef00d65	-0.4688522
138	0x3a866a0a	0.0010254991
139	0x3e5586b7	0.20852171
140	0xbb9b2f22	-0.0047358433
141	0xbf01e332	-0.507373
142	0x3d3983a7	0.04529157
143	0x3deb79e3	0.114978574
144	0xbc49d94c	-0.012319874
145	0xbde0a1d0	-0.10968363
146	0x3dce4808	0.100723326
147	0xb9032cd6	-0.00012509836
148	0xbd1566ca	-0.03647498
149	0xbc1e6728	-0.009668149
150	0xbd36e58b	-0.044652503
151	0xba7a5a4b	-0.0009550198
152	0x3dc0c5ef	0.09412753
153	0x3d199fc2	0.037505873
154	0x3ef0cd2f	0.47031543
155	0xbdea0b2b	-0.11427911
156	0xbd873bba	-0.06603189
157	0xbe6d55cf	-0.23177265
158	0x3e8551ff	0.2603912
159	0xbcc92816	-0.024555247
160	0x3de22638	0.11042446
161	0xbf309d15	-0.6898969
162	0xbae47980	-0.0017431229
163	0xbc860962	-0.016361896
164	0x3abc8734	0.0014383555
165	0xbf716b1d	-0.94304067
166	0x3e234a1e	0.15946242
167	0x3f0dcb2c	0.5538814
168	0xbd7104e7	-0.058842566
169	0xb8f77b34	-0.00011800826
170	0xbd638339	-0.055545066
171	0x3ba4f93b	0.0050345934
172	0x3aaabe70	0.0013026726
173	0xbd2e1fc6	-0.04251077
174	0x3daf2106	0.085512206
175	0x3dd66f0e	0.10470401
176	0xbe477c7a	-0.19481078
177	0xbe38fd7c	-0.18065447
178	0x3d22c00a	0.039733924
179	0x3adc86d4	0.001682485
180	0xbe024407	-0.12721263
181	0x3c876ed8	0.016532347
182	0x3d4a5a06	0.04940226
183	0xbaa19303	-0.0012327138
184	0x3db5471d	0.088514544
185	0x3bbdfd40	0.005798012
186	0xbf7152d2	-0.94267
187	0xbd560914	-0.05225475
188	0xbf1c3364	-0.61015916
189	0x3d512b44	0.051066652
190	0xbcc3f08a	-0.023918409
191	0xbd1e2047	-0.038605
192	0xbe22ba24	-0.1589132
193	0x3d5a33ae	0.05327194
194	0xbd23ddda	-0.040006496
195	0x3aa37de7	0.0012473435
196	0x3d73bfd4	0.059509113
197	0x3d3bab0f	0.04581743
198	0xbdf64a3d	-0.120258786
199	0x3d3da8c6	0.046303533
200	0xbd4c2f76	-0.04984995
201	0x3ea02775	0.31280103
202	0x3cd5d2f4	0.026101567
203	0x3dc14fa2	0.09439017
204	0x3ddcb379	0.10776419
205	0x3f06ae9d	0.5261019
206	0x3daca008	0.08428961
207	0xbc4e77c1	-0.012601794
208	0x3dfd8a72	0.12379922
209	0xbdb8ea1c	-0.09029028
210	0xbd6b8e1b	-0.05750857
211	0xba6b4551	-0.00089748675
212	0x3d662a3f	0.056192633
213	0x3ae1689e	0.0017197316
214	0x3e0520eb	0.13000838
215	0x3e9312df	0.28725335
216	0xbdd0491d	-0.10170195
217	0x3dda1b24	0.10649708
218	0xbefa9807	-0.48944113
219	0x3f0bda74	0.5463021
220	0x3d38e121	0.045136575
221	0xbe37b997	-0.1794189
222	0x3dd38c74	0.10329524
223	0x3e4f0dee	0.20220158
224	0xbeab4d80	-0.33457565
225	0xbd84d556	-0.06486003
226	0x3cfd206d	0.03089925
227	0xbc57e0f4	-0.013176192
228	0x3dea94e0	0.11454177
229	0x3dff23e0	0.124580145
230	0x3de4ae64	0.11166075
231	0x3e0e673a	0.13906565
232	0xbd808e5f	-0.06277155
233	0x3f41a4a0	0.7564182
234	0x3c32c50f	0.01091124
235	0x3dc6b129	0.09701759
236	0xbd32bc6c	-0.043636724
237	0x3a8ee0a3	0.0010900687
238	0x3dc956f8	0.09831041
239	0xbd32c188	-0.043641597
240	0x3c5ed06d	0.013599497
241	0xbd558079	-0.052124474
242	0xbdd0f3e5	-0.10202769
243	0xbd0e9d91	-0.034818236
244	0xbca3cb75	-0.019994477
245	0x3dbaf904	0.09129527
246	0xbdd924db	-0.10602733
247	0x3e5a7b06	0.21335992
248	0xba4eb3b3	-0.00078850536
249	0xbf854d8e	-1.0414293
250	0x3df95d89	0.121760435
251	0xbd8b8d94	-0.06814113
252	0xbe860214	-0.2617346
253	0x3e08f814	0.13375884
254	0xbd4c7c2b	-0.049923103
255	0x3d1f4ac3	0.038889658
