critic_weights.pth (torch_old, 491029 bytes, 5 tensors)

fc1.weight f4 [400, 3]
000000 ee 24 24 be 8a 85 63 3d 63 13 f1 3c 18 7c 3f be
       -0.16029713 0.055547275 0.02942819 -0.18699682
000010 b2 49 8f be 1f 18 ea bc f3 48 01 b8 66 3c 88 38
       -0.27985913 -0.028575955 -3.0823936e-05 6.4962354e-05
000020 c5 8b 86 b9 60 2f 07 bf 37 51 5d 3e 95 cd 20 3e
       -0.00025662608 -0.52806664 0.21613012 0.15703423
000030 be 1f f5 be 4b 9e a5 3f cf 20 9e 3e c8 65 a5 be
       -0.4787578 1.2938932 0.30884406 -0.32304215
000040 3c 3c 00 bf bc a4 18 be 3f f2 8e be 5b ff 41 3e
       -0.5009191 -0.14906591 -0.27919194 0.18945067
000050 21 3a 3c 3d a1 3c 7b 3b c2 26 8d 3a b0 d6 be b9
       0.045953874 0.0038335698 0.0010768997 -0.0003639958
000060 3d 83 67 bf 66 c2 11 bd b1 4e 19 3e 1a 7d 0e bf
       -0.9043463 -0.035585783 0.14971425 -0.5565964
000070 40 8e 53 3f d1 50 54 3e 2c 8a a2 3b 61 ba dd 37
       0.8263893 0.20733954 0.004960319 2.6432042e-05
000080 7e 77 9b 39 ed 73 f7 be 12 c1 18 3f fd cd fe bc
       0.00029652932 -0.48330632 0.596696 -0.031104082
000090 23 44 30 bf fd 9c e2 be 8c 1b b1 bd 78 a3 5d 3c
       -0.6885397 -0.44260398 -0.08647832 0.0135277435
0000a0 d9 79 37 3d fa f3 ce 3b 3f 84 48 bb 42 2c 3d 3b
       0.044793937 0.0063157054 -0.0030596403 0.002886549
0000b0 d8 ce e9 3a f9 22 19 bf bd 23 88 3e b9 3f 29 3e
       0.0017838133 -0.5981899 0.26589766 0.16528215
0000c0 2e 8d b2 be e8 39 f8 3e 24 8b bf bd a7 07 20 35
       -0.34873337 0.4848168 -0.09352711 5.961578e-07
0000d0 18 c4 21 25 18 b5 69 32 e2 44 4f b5 90 c5 0f b6
       1.4030963e-16 1.3603561e-08 -7.7213747e-07 -2.1423657e-06
0000e0 52 54 15 38 71 25 e2 be ce 53 56 3f b4 19 ba 3b
       3.5602898e-05 -0.4416919 0.83721626 0.0056793336
0000f0 79 d0 8c be b9 da 03 3f f7 72 67 bd 34 36 c8 be
       -0.27502802 0.5150562 -0.056506123 -0.39103854
000100 66 cc 6f 3f 3c 3c f3 3d a2 9e d3 be 86 f1 0d bf
       0.9367126 0.11876723 -0.41331965 -0.5544666
000110 27 36 31 be 02 f5 e7 bd 6e 0b ea bf 9b 65 be be
       -0.17305814 -0.113260284 -1.8284738 -0.37186894
000120 f0 8f c5 be f6 ba 94 bd 90 0a a0 3d 77 a7 27 bf
       -0.38586378 -0.072622225 0.07814515 -0.65489906
000130 19 c5 05 3f ac bf 49 3e 98 81 ac 3c d2 be b2 bb
       0.5225387 0.19702023 0.021057889 -0.0054548765
000140 75 0b bd bb 80 26 e6 be 54 43 29 be 03 35 f0 3d
       -0.005769188 -0.44951248 -0.1652959 0.11728861
000150 24 4d ea bb ba 3f 5c 3b e7 d5 64 3b 2c e7 3f bc
       -0.007150309 0.003360732 0.0034917535 -0.0117128305
000160 2d 54 df bb 73 12 d6 ba 5d d4 2e 3a 80 a5 98 39
       -0.0068154545 -0.0016332403 0.0006669218 0.00029115006
000170 7c fc 54 ba 2c d7 9c 3b 0e 91 fd 3b a5 bb 1a bb
       -0.00081247813 0.0047863927 0.007738239 -0.002361038
000180 75 66 d8 b9 db 9b bd b6 4d d9 c1 b9 f0 07 6c be
       -0.00041275067 -5.650783e-06 -0.0003697373 -0.23049903
000190 9c 12 86 bc 65 c3 70 3c 46 f0 e4 be 5c 47 f0 bd
       -0.016366296 0.014695023 -0.44714564 -0.11732361
0001a0 b3 8c ac 3d 76 32 e1 38 b7 90 1a b9 e4 30 df 38
       0.08425274 0.00010738235 -0.00014740495 0.00010642575
0001b0 5d a9 7b 3a 73 22 83 3b 8f 57 df 3a d0 5f 9e be
       0.0009600127 0.0040019094 0.0017039644 -0.30932474
0001c0 7d 80 e5 be af 1a 2b bd 7a 33 d9 bb af 66 06 3c
       -0.4482459 -0.041773494 -0.006628451 0.008203193
0001d0 28 d3 75 b9 18 94 b3 be 21 23 4d bf 55 34 18 be
       -0.00023443683 -0.35073924 -0.8013173 -0.14863713
0001e0 52 06 b9 3e cc 43 25 3e ff 13 e1 3d 4f bb 87 3a
       0.36137635 0.16139144 0.10990142 0.0010355505
0001f0 c5 66 e9 b8 d4 23 0e bb 51 2f 23 bf ff cc 93 bf
       -0.00011129448 -0.0021688836 -0.63744074 -1.1546935
000200 44 a6 b2 3e 44 74 68 39 d4 bd b2 39 bf 01 35 ba
       0.34892476 0.00022168556 0.0003409224 -0.0006904862
000210 00 d2 9f bf 24 20 08 be ca e2 2c 3e a7 b4 74 bf
       -1.2485962 -0.1329351 0.16883388 -0.95588154
000220 ab a6 5c bd bb 67 48 bc 4e 50 de ba 88 c1 8d 35
       -0.053869884 -0.0122317625 -0.0016961189 1.0561644e-06
000230 96 fc b0 b9 87 1c 9f 39 59 4e ec b8 43 4b 03 39
       -0.00033757527 0.00030348098 -0.0001126795 0.0001252117
000240 75 22 3c ba cf 82 0f 3b a6 1f 10 3a 75 2b f6 bd
       -0.00071767654 0.0021898036 0.000549788 -0.120200075
000250 9f 33 67 bd 36 87 88 3b ef 29 25 3f 73 1c b4 3f
       -0.056445714 0.004166509 0.6451711 1.4071182
000260 dd cc b5 3e b1 b2 ee be da 88 d1 3e 18 b6 1e 3e
       0.3550786 -0.46620706 0.40924722 0.15499151
000270 65 d7 b6 b9 dd ce cc ba 2f 5d 18 3b 00 65 f3 bb
       -0.00034874227 -0.0015625615 0.00232489 -0.0074278116
000280 09 63 0f 3d 70 f1 c7 3c 81 47 a7 bf a3 7f 40 bd
       0.035006557 0.024407119 -1.3068696 -0.046996724
000290 f4 a3 66 bb 65 e8 92 3e 3e ab 9e bf 19 89 82 bd
       -0.0035192939 0.28692928 -1.2396009 -0.063738056
0002a0 27 14 ac 3b 59 dd ad 3f e7 12 a2 3e 11 a1 87 31
       0.005251426 1.3583175 0.31655046 3.9473282e-09
0002b0 8d f0 db b0 d4 af c4 b2 33 0f 88 3e 0a 2a 9a bf
       -1.6002716e-09 -2.289736e-08 0.26574096 -1.2044079
0002c0 19 71 6a be ae 6b b2 be 6c b3 b2 bf a2 f9 85 be
       -0.22894706 -0.34847778 -1.3961005 -0.26167017
0002d0 c1 32 1d bf 85 4e 37 bd d8 64 cc 3d b2 7a 83 be
       -0.6140557 -0.044752616 0.09980172 -0.25679547
0002e0 2a d8 59 3f ae 70 4b 3e c0 47 00 39 e5 e8 63 38
       0.85095465 0.19867203 0.0001223376 5.4337917e-05
0002f0 80 7b 8e b9 f7 d5 4d 3f 71 a6 7f bf a6 46 9d be
       -0.00027176365 0.8040461 -0.99863344 -0.30717963
000300 a9 43 28 bf 6e 0a c3 3e 3a 20 4a 3e 77 1d e5 be
       -0.6572824 0.38093895 0.19738856 -0.44749042
000310 6e 5d 85 3f 50 7c 91 bd d9 2f 67 be 3b 33 e7 be
       1.0419137 -0.07103789 -0.22576846 -0.45156273
000320 0f 1f e7 bd 96 6f 31 bf f8 69 24 3f c0 bb 60 3e
       -0.11285221 -0.6931089 0.64224195 0.21946621
000330 5d f5 0b bf d1 3e 8d 3e 11 35 24 3e 8b 93 e0 3e
       -0.5467127 0.27586988 0.16035868 0.43862566
000340 c0 f4 b3 be 91 78 63 be cd 50 3a be df 39 29 bf
       -0.35147667 -0.22213961 -0.18194886 -0.6610393
000350 9d 5d 01 bd 19 18 c2 3a 08 07 9e ba d2 f3 27 ba
       -0.031583417 0.0014808207 -0.0012056539 -0.00064068765
000360 d0 cd 1d 3f 18 18 82 be 8d 75 a6 be e4 c0 90 be
       0.6164217 -0.25409007 -0.3251156 -0.28272164
000370 86 b1 47 bf 02 e1 1e be 47 7b 2b bc 7e e9 34 bd
       -0.78005254 -0.15515521 -0.010466403 -0.044167988
000380 6f 26 c7 bd f2 78 6d be 21 e9 0d bf bf b0 d3 bd
       -0.097241275 -0.23190668 -0.5543385 -0.10336446
000390 01 3b 16 be 19 51 06 bf a7 90 ba bd 11 b0 f5 be
       -0.14670946 -0.52467495 -0.091096215 -0.4798589
0003a0 13 ba 85 3f c4 bc 7e 3e cd 0f 2e bf 9c 91 53 3f
       1.044741 0.24876696 -0.6799286 0.8264406
0003b0 20 61 73 3e ae 7a 84 3b f4 da 81 b7 03 a6 b1 39
       0.23767519 0.004042945 -1.5479956e-05 0.0003388376
0003c0 ee 2b 0a bb 93 64 9c b9 09 64 04 3a 8c 96 0a 38
       -0.0021083313 -0.00029829572 0.0005050307 3.304197e-05
0003d0 c2 b2 f7 36 3d c9 49 38 98 28 e5 be 88 c6 a8 3e
       7.381984e-06 4.8109552e-05 -0.44757533 0.32963967
0003e0 fe d9 49 3c b7 54 63 3f 57 28 07 3f a0 e6 b2 3e
       0.01232004 0.8880114 0.5279593 0.34941578
0003f0 3c ac f1 37 d8 e0 40 3c 9c 23 2d 3a ca 96 a3 bd
       2.8809642e-05 0.011772357 0.00066047325 -0.07987745

fc1.bias f4 [400]
000000 08 d9 37 3e 7f c4 e4 3c 0c 5b 81 bb 00 47 1a 3f
       0.17953885 0.027925728 -0.003947621 0.6026459
000010 5b 3d a3 3e b3 23 b6 3e 90 b2 08 3f 35 85 f0 bb
       0.31882748 0.3557411 0.53397465 -0.0073400983
000020 2b a6 af 3e 31 84 e6 3e 52 48 b2 bb 08 6f 66 3d
       0.34306464 0.4502273 -0.00544075 0.05625823
000030 48 ba 42 be 2e 22 a1 bc 9b 3d 93 bc 15 07 15 3f
       -0.19016373 -0.019669618 -0.017973712 0.5821393
000040 13 c5 b6 3e 9d 20 1d b6 32 e5 6e b9 f2 60 e0 be
       0.3569723 -2.3413807e-06 -0.0002278283 -0.43823963
000050 a2 81 91 3e d1 d4 63 3e c3 24 ea 3e 47 5b 73 bd
       0.28419214 0.22249152 0.45731172 -0.05941322
000060 34 58 6a 3e 04 4f 19 3f 7c c4 37 bd 04 51 cb 3e
       0.2288521 0.59886193 -0.044865116 0.39710248
000070 92 0d 13 bd 5e 50 dd bc ad 17 f0 bb f7 01 34 bd
       -0.035901614 -0.027015861 -0.007327041 -0.043947186
000080 f7 87 5a bb eb cd 5d 3d 70 25 90 3e 0f f0 a6 b9
       -0.0033345202 0.054151457 0.28153563 -0.00031840845
000090 af e8 77 bc 44 2d 50 3d 0f 8e 35 bd 97 b9 df 3e
       -0.01513116 0.05082442 -0.04432493 0.4369628
0000a0 38 cb a8 3e 2e b3 8a bc 93 1f 86 bf 9f c4 ae bb
       0.32967544 -0.016931143 -1.0478386 -0.0053334977
0000b0 39 11 c9 3e 2e 26 7d 3e c0 1a d9 bb 13 26 b3 ba
       0.39270952 0.24721596 -0.0066255033 -0.0013667963
0000c0 39 e0 21 bc cd 92 9e bd 0d 32 08 bf 51 d0 e3 3c
       -0.009880119 -0.07742844 -0.5320137 0.027809294
0000d0 ea 93 d1 bc 88 21 2f bd bf 8e 95 3e df ab d7 be
       -0.025583226 -0.042756587 0.2921047 -0.42123315
0000e0 3e d8 04 be ad f7 8f b4 f6 67 e4 bd d5 bd 50 be
       -0.12973115 -2.6816033e-07 -0.111526415 -0.20384915
0000f0 47 2c bb 3e 64 69 20 3e bb 5f 21 bb 64 d4 2f bf
       0.36557218 0.15665203 -0.002462371 -0.6868346
000100 41 c1 31 3f 80 c0 d0 be bd 27 39 3e 09 7a 1e 3f
       0.6943551 -0.40771866 0.18081565 0.6190496
000110 87 73 12 3f f5 fe b0 be 80 54 8e 3e 2f be dd bb
       0.5720753 -0.34569517 0.27798843 -0.0067670564
000120 ae 64 a0 bf b9 35 d7 3e c7 ac 9e be 43 40 94 3e
       -1.2530725 0.42033175 -0.30991194 0.28955278
000130 99 20 5a 3e d9 56 b3 3e 50 20 11 3f ae 66 ca bb
       0.21301498 0.35027197 0.5668993 -0.006176791
000140 88 86 06 bc b3 f1 07 ba 92 24 43 be 2e cf 84 bf
       -0.008210786 -0.00051858573 -0.19056919 -1.0375726
000150 4b c6 05 bd 44 a3 82 be 85 68 b0 bb 06 44 9e 3e
       -0.03265981 -0.25515187 -0.0053835534 0.30911273
000160 79 8f e9 3e 53 2e 95 3e 73 77 ee 3e 54 28 65 3e
       0.45617273 0.29136905 0.46575508 0.22378665
000170 9d cb 34 bc e9 80 e7 bb 4c 66 57 bc 6e b4 b6 bc
       -0.011034873 -0.007064928 -0.013146948 -0.022302832
000180 18 9e 8a be 1e 64 c3 bc 74 c1 16 bf fb 47 7e bc
       -0.2707374 -0.02385145 -0.58888936 -0.015520091
000190 7c bf 20 bd 04 1f d4 3d 1f 8b 02 3d a7 60 33 3d
       -0.039245114 0.10357478 0.031870957 0.043793347
0001a0 b5 f2 57 b7 dc 13 1b bf 7e 14 60 bd 4a e5 aa bf
       -1.2871508e-05 -0.6057718 -0.054707043 -1.3351223
0001b0 25 80 bd 3e 8f e9 11 3e 34 93 1b 3f 49 98 b6 3e
       0.3701183 0.14249252 0.6077149 0.3566306
0001c0 40 7a 71 bd e7 55 81 3e cd 32 49 be d1 f7 12 bd
       -0.058954477 0.2526085 -0.19648285 -0.035880867
0001d0 7e bf 25 bc 74 95 2d bd 24 21 97 3e 70 03 76 bc
       -0.010116456 -0.042378858 0.29517472 -0.015015468
0001e0 e7 89 8e be aa af 04 be 73 a7 cc 3e 08 b9 10 bf
       -0.27839586 -0.12957636 0.39971504 -0.56532335
0001f0 56 61 d3 bc b6 5a 15 bc 9b b3 df be 93 79 3b bf
       -0.02580325 -0.009115865 -0.43691716 -0.7323238
000200 17 b3 a0 bc 33 e5 92 3f 2e 23 d9 ba 77 49 14 bc
       -0.019616647 1.1476196 -0.001656627 -0.0090507185
000210 40 92 a7 3e 42 5f bf bb 16 31 8b bc 4d 12 18 3e
       0.32728767 -0.005840213 -0.01699118 0.14850731
000220 b8 96 60 3e 7b 33 ac 3e 39 a4 0d be 42 37 31 ba
       0.21932495 0.33633026 -0.13832177 -0.0006760248
000230 2d 3a db 3d f4 db ad 3e 1f fa 6c 3e 23 f7 c3 3d
       0.107044555 0.33956873 0.23142289 0.09568622
000240 85 df 49 bf 05 8e 9d 3e df 99 da 3e f5 1b 96 3e
       -0.7885669 0.30772415 0.4269552 0.29318205
000250 23 a1 ec 3e 80 5f 0a 3e 7f 04 a1 bc df 69 be 3e
       0.46216688 0.13512993 -0.019655464 0.37190148
000260 1b c5 1e 3f 78 c6 c8 3e d7 11 a6 be 6c ea d3 3d
       0.6201951 0.3921392 -0.32435486 0.10347447
000270 ed 63 70 be 64 df 1b bf 4f 91 1d 3f 7b c3 97 bc
       -0.23475619 -0.6088774 0.6154985 -0.01852583
000280 21 71 df b9 de 76 2a bc ac 3d 05 3d 12 d0 32 bf
       -0.00042618162 -0.010404317 0.032529518 -0.6984874
000290 03 40 43 be b1 00 16 3f 28 ed e4 bd 91 74 ec bc
       -0.19067387 0.58594805 -0.111780465 -0.028864177
0002a0 35 d7 56 bd 0f 45 17 bb f0 b9 f4 bc 56 eb 30 bf
       -0.05245133 -0.0023081934 -0.029873818 -0.69109094
0002b0 fa 92 2d 3f de 21 ee be c7 8f 14 bb 86 a2 82 3e
       0.67802393 -0.46510214 -0.0022668706 0.2551462
0002c0 24 e4 e1 3e 3a 86 0e 3e 14 b8 81 bf b9 ca 7a bc
       0.4411937 0.13918391 -1.0134301 -0.015307122
0002d0 2e ed 7d bf 3c d4 98 bc c9 7f 90 ba 94 ec 14 bf
       -0.9919003 -0.018655889 -0.0011024411 -0.5817349
0002e0 c8 19 82 bc 5e 3e 59 b6 af 15 2b b9 1e 62 b1 3e
       -0.015881434 -3.2371822e-06 -0.00016315909 0.3464517
0002f0 01 97 1d 3f 33 3f a8 3e e7 d3 d5 be f3 db 96 bd
       0.6155854 0.32860717 -0.4176323 -0.07366171
000300 6f c3 80 bf 31 37 d7 bb ab dd 09 3e a2 bf d2 3d
       -1.0059642 -0.0065678586 0.13463466 0.10290457
000310 33 c3 8c bd 72 f6 f7 3e 33 61 32 bd d1 27 75 3e
       -0.06873169 0.4843021 -0.043549728 0.2394097
000320 08 65 b8 be ba 01 10 be 73 82 c3 be 90 67 fc 3e
       -0.3601458 -0.14063159 -0.38185462 0.49297762
000330 d6 39 34 be 09 31 fe 3e 01 6d aa 3e ca a7 d7 3e
       -0.17600188 0.49646786 0.33286288 0.421202
000340 1a 09 50 bd f5 fb 08 b8 2e 2d 90 bc 64 c5 b9 bc
       -0.05078993 -3.265958e-05 -0.017599668 -0.022677131
000350 82 b2 d1 bf 77 81 27 3e 65 91 f0 3e d8 c0 00 3f
       -1.6382601 0.1635798 0.46985927 0.50294256
000360 5e 6c b5 be 01 a5 88 3e ce f0 13 3f e8 b1 e2 bc
       -0.3543424 0.26688388 0.57789314 -0.027672723
000370 bd bc 08 bd 42 6f 22 3f d3 ae c5 bf c3 f2 4b 3e
       -0.03338312 0.63451016 -1.5443977 0.19916825
000380 3f 55 9f bf 27 ad 21 3e 8c c3 f4 bc 2c 68 07 bd
       -1.244789 0.15788709 -0.0298784 -0.03305833
000390 80 82 50 3d 6d 3b 54 3e 92 fd cf ba 01 73 9e be
       0.050905704 0.20725794 -0.0015868417 -0.30947116
0003a0 5b 9c 80 3e 5d 85 f4 3e e7 9d 2b be ff 0d 96 bc
       0.2511929 0.47757998 -0.16759454 -0.01831722
0003b0 7b 39 85 bb a4 35 1a 3f b3 15 41 bb cb b4 11 3f
       -0.00406569 0.602381 -0.0029462397 0.56916493
0003c0 2f 13 39 bf 02 fc a2 be 0b 33 6a be 37 cc ca 3d
       -0.72294897 -0.31832892 -0.22871034 0.09902232
0003d0 97 4a 56 bf 7c af e9 3e a1 ad de 3e 3f f3 d2 3e
       -0.83707565 0.45641696 0.43491843 0.41201207
0003e0 77 47 81 bb db 44 9b 3e ee d2 00 3f 4c 8a ed bc
       -0.003945287 0.3032597 0.50321853 -0.02899661
0003f0 29 44 76 b9 90 c6 4b bd c7 5d 0a 3e 7c a8 ee 3e
       -0.0002348578 -0.04974991 0.13512336 0.46612918

fc2.weight f4 [300, 401]
000000 e4 b7 4a 31 0b 8d 19 32 79 9e 53 35 0d e8 6f b0
       2.9499398e-09 8.937842e-09 7.8834233e-07 -8.727746e-10
000010 16 63 03 b0 8b 05 02 33 3a 76 08 b4 a8 b9 92 83
       -4.779833e-10 3.0273025e-08 -1.2708998e-07 -8.623733e-37
000020 f9 63 04 b0 7e 45 97 ae cc 00 00 80 19 d4 9d 32
       -4.816339e-10 -6.879029e-11 -2.86e-43 1.8373656e-08
000030 13 c6 82 b1 a9 27 e9 84 fe e2 7f 03 2d 11 6a b0
       -3.8060164e-09 -5.481446e-36 7.519834e-37 -8.515311e-10
000040 97 ab ad b2 f3 cf a4 b1 88 4c 98 ae 47 27 3d b1
       -2.021788e-08 -4.7966693e-09 -6.9257544e-11 -2.7525446e-09
000050 ca ee 47 b0 77 88 ab 15 e6 1c 11 b4 27 3a 9a b5
       -7.273512e-10 6.9281654e-26 -1.351469e-07 -1.1490819e-06
000060 23 42 09 a2 38 37 2c b1 b5 a2 bb 01 75 13 9d ac
       -1.8601975e-18 -2.5060682e-09 6.8926424e-38 -4.4643685e-12
000070 3a 14 c8 b1 51 12 79 33 44 fd 6f 38 c2 07 00 00
       -5.8230656e-09 5.799149e-08 5.7217912e-05 2.783e-42
000080 74 2e 07 34 ef 2d 97 b0 7c 25 85 a7 7b 7d 15 30
       1.2589754e-07 -1.0999751e-09 -3.6955556e-15 5.43842e-10
000090 ca 77 7a b7 09 f7 13 b2 05 f6 4d ad f9 d7 6b 2f
       -1.4929052e-05 -8.6126954e-09 -1.1707528e-11 2.1449854e-10
0000a0 18 9f 37 a0 5c d4 ad b0 9c 86 2b ae d8 36 cd 35
       -1.5553343e-19 -1.2647763e-09 -3.9000456e-11 1.5289652e-06
0000b0 42 44 2a b6 19 f9 75 b5 02 8f 8e a7 a6 8a 90 b4
       -2.5371705e-06 -9.1632097e-07 -3.9567967e-15 -2.692297e-07
0000c0 60 14 9d b0 66 e6 d4 30 b1 4b 4b 87 74 e6 8a a0
       -1.1429044e-09 1.5490513e-09 -1.5294266e-34 -2.353061e-19
0000d0 54 e9 07 32 92 05 a2 2f b1 4b 00 b7 fe 24 d7 85
       7.911087e-09 2.9471586e-10 -7.647018e-06 -2.0232092e-35
0000e0 3b c4 b2 a3 35 5a 42 b1 d5 0d a2 32 b9 7e 27 31
       -1.9381906e-17 -2.8281992e-09 1.8865572e-08 2.4373732e-09
0000f0 16 56 f2 b4 7b ac 0f a5 58 4e 78 b8 dd eb 95 32
       -4.5138648e-07 -1.2461712e-16 -5.920077e-05 1.7453141e-08
000100 94 6f 41 b2 c3 9e bf b2 a0 71 ef 32 16 c7 cd b1
       -1.12594485e-08 -2.2307523e-08 2.7874933e-08 -5.9889187e-09
000110 a7 8e a4 af d8 20 d5 32 3a b0 db b1 33 a8 a9 2f
       -2.9932787e-10 2.48114e-08 -6.3937735e-09 3.0860434e-10
000120 5b 07 cc b2 94 5f 63 33 a7 c0 64 31 23 8b c6 b2
       -2.375207e-08 5.2939484e-08 3.3287877e-09 -2.3113506e-08
000130 95 39 c5 32 8f 05 83 ae b0 ac 64 b1 19 00 00 00
       2.2960004e-08 -5.958178e-11 -3.3276528e-09 3.5e-44
000140 74 bf fb b1 ea c0 39 aa 27 dd 1d b1 f3 ee dc 03
       -7.326827e-09 -1.6498231e-13 -2.2972217e-09 1.2985298e-36
000150 7c 20 f1 b5 56 e9 54 88 be 00 00 00 c4 17 16 b3
       -1.7965353e-06 -6.4070714e-34 2.66e-43 -3.494621e-08
000160 52 e1 69 33 ee c5 eb b2 02 5a 3f b4 02 4e 32 b3
       5.4454468e-08 -2.7447609e-08 -1.7821006e-07 -4.1514802e-08
000170 29 e3 15 b1 18 6c df 29 1f 5e 4b 2b f0 0d 00 00
       -2.181148e-09 9.9219407e-14 7.2250707e-13 5e-42
000180 d5 5f 0f 06 8e 89 4f 2c d1 be c6 b2 0d d8 d5 2f
       2.6965717e-35 2.9492827e-12 -2.3137007e-08 3.8897988e-10
000190 d4 ae 1e 33 35 11 59 32 ff fa a5 30 bb f9 2b b2
       3.6946247e-08 1.2634975e-08 1.2076667e-09 -1.0010292e-08
0001a0 69 23 fb ab 66 57 2b b7 1d 24 24 b9 86 c5 86 b2
       -1.7844451e-12 -1.0212743e-05 -0.00015653712 -1.5689476e-08
0001b0 da fc 05 33 e5 00 f0 b1 64 9b a1 b0 a5 2d b2 ac
       3.1196443e-08 -6.985021e-09 -1.1758456e-09 -5.064132e-12
0001c0 49 86 e1 b8 63 be d2 a3 e2 b6 8b 33 f0 ae b0 32
       -0.000107538486 -2.2848878e-17 6.505958e-08 2.0568649e-08
0001d0 53 00 00 80 d8 84 2f 2c 29 13 96 b1 20 06 00 00
       -1.16e-43 2.4942739e-12 -4.367753e-09 2.197e-42
0001e0 b3 7f 1f a2 fa 0e 59 32 bb 37 a1 32 49 b6 6e 11
       -2.1616122e-18 1.2634468e-08 1.876821e-08 1.883106e-28
0001f0 be 01 a7 b1 41 c0 03 33 e7 32 3c 05 c1 41 5b 32
       -4.8605378e-09 3.067567e-08 8.849067e-36 1.27624284e-08
000200 09 d8 85 b5 b4 54 9d b6 69 e5 e8 32 62 60 1e b7
       -9.972147e-07 -4.6888254e-06 2.7112678e-08 -9.439975e-06
000210 dd 1d b7 ac cd 90 dc ab bb 4b 1c 37 f9 a8 40 32
       -5.2044883e-12 -1.567213e-12 9.315957e-06 1.1214291e-08
000220 91 58 93 31 76 6b 45 32 98 98 89 b1 18 1b 00 00
       4.288332e-09 1.1491343e-08 -4.0045727e-09 9.72e-42
000230 4f 6c ab 0a 4e 54 66 ae d2 1f 31 b5 e0 b7 0d 86
       1.6507442e-32 -5.2370823e-11 -6.5983943e-07 -2.6654243e-35
000240 33 c8 0f 06 98 8e 18 b2 34 d3 6c 33 22 85 9b 32
       2.7042394e-35 -8.8799865e-09 5.514012e-08 1.8104917e-08
000250 4f 44 3f 33 c4 c9 94 b0 3c 08 00 00 52 bd 8a 33
       4.453278e-08 -1.0825763e-09 2.954e-42 6.460563e-08
000260 7c b4 82 b1 14 0b 02 32 9d d2 81 32 8c e1 da a8
       -3.8040167e-09 7.569515e-09 1.5113352e-08 -2.4300677e-14
000270 51 00 71 31 58 ef c9 85 18 7e b6 b0 75 60 a3 01
       3.5070296e-09 -1.898987e-35 -1.3278081e-09 6.001515e-38
000280 cf a5 83 31 39 1a 00 b9 dc 32 0f 32 f8 b6 93 b7
       3.831452e-09 -0.000122168 8.33526e-09 -1.7608967e-05
000290 c0 ed ac b6 03 d1 04 b0 45 ee 9d b2 5d 02 53 2d
       -5.153677e-06 -4.8318344e-10 -1.8385558e-08 1.1994486e-11
0002a0 14 46 b1 b0 b8 5f 7e 00 7b 1d 44 b6 61 d5 e2 b6
       -1.2898362e-09 1.160561e-38 -2.9223436e-06 -6.7601654e-06
0002b0 9f ac 8f b2 dc 14 a1 31 6d 03 00 00 cb 25 26 b3
       -1.672589e-08 4.688088e-09 1.229e-42 -3.868426e-08
0002c0 a2 bc 14 b0 4a 9c e3 b4 a7 62 d6 ad 27 95 3e 80
       -5.411015e-10 -4.239576e-07 -2.4372794e-11 -5.747307e-39
0002d0 23 08 a4 84 69 1c 00 00 3e 00 00 00 d5 b6 08 88
       -3.8563687e-36 1.0192e-41 8.7e-44 -4.114093e-34
0002e0 c5 d7 ba b4 c9 c1 3d 27 3b 0e bb a8 b2 04 b6 a4
       -3.4802193e-07 2.633407e-15 -2.0767342e-14 -7.893787e-17
0002f0 a7 24 42 b1 53 1a 30 32 bb 83 ab 89 9b 16 96 2d
       -2.825155e-09 1.0250534e-08 -4.129063e-33 1.7063065e-11
000300 ee 9b f2 b1 6d 9d 71 b7 8c a7 2e 32 b1 86 76 32
       -7.060854e-09 -1.4401373e-05 1.0166229e-08 1.434971e-08
000310 ca 76 a9 2d 3a 38 a3 b5 c3 21 00 00 48 38 b9 32
       1.9265829e-11 -1.216081e-06 1.2111e-41 2.1562428e-08
000320 7c 97 2d 33 c0 34 b7 85 31 38 84 b2 12 3e e8 af
       4.0417476e-08 -1.7228615e-35 -1.5392375e-08 -4.2244658e-10
000330 06 d5 e1 30 4d 75 ad af fd 4e 30 b0 32 54 62 33
       1.643145e-09 -3.1551864e-10 -6.4140676e-10 5.26963e-08
000340 84 b3 bc 2d 89 6a b4 2d 1b 0a d8 aa 0b 32 3b 04
       2.1452846e-11 2.0510942e-11 -3.837632e-13 2.2004723e-36
000350 2f e9 e1 05 34 5f b4 10 77 fd 22 33 0a 1f 64 b1
       2.1244556e-35 7.1144165e-29 3.794909e-08 -3.319601e-09
000360 65 cc 08 0e 25 ed 40 b5 48 98 76 b6 53 40 35 2b
       1.6861707e-30 -7.1870664e-07 -3.6745496e-06 6.4393385e-13
000370 e6 9f 1c 39 05 5a 42 b1 aa 1e c9 32 98 59 d7 b1
       0.00014936886 -2.8281886e-09 2.3413424e-08 -6.267509e-09
000380 d7 50 79 a8 bf 36 e2 a8 78 a5 30 03 8d 0f 00 80
       -1.3839806e-14 -2.5114783e-14 5.19117e-37 -5.579e-42
000390 ca d3 11 32 af 13 ff a5 53 4d ab b5 30 a8 77 11
       8.488266e-09 -4.4248787e-16 -1.2762997e-06 1.9536691e-28
0003a0 fb 8e e7 b5 cd 59 04 b4 87 3a 82 31 e1 e4 fe ab
       -1.7252454e-06 -1.2326127e-07 3.7901517e-09 -1.8111312e-12
0003b0 c1 74 96 ae b6 ce 8a b0 e6 05 00 00 2a 7c 72 b1
       -6.84195e-11 -1.0099572e-09 2.116e-42 -3.5286214e-09
0003c0 94 9d af b0 62 01 d3 31 ef e6 95 b2 56 79 6d b0
       -1.2777712e-09 6.1410654e-09 -1.74509e-08 -8.6392526e-10
0003d0 f0 04 55 86 df ad 66 b5 d2 f6 45 b7 87 03 88 33
       -4.0064475e-35 -8.593469e-07 -1.1799582e-05 6.333635e-08
0003e0 0d 51 52 33 b5 8b 20 b3 bc b1 af ae 9c c7 4a 04
       4.896815e-08 -3.7379966e-08 -7.9896506e-11 2.3836642e-36
0003f0 52 11 00 80 d6 ff b8 b5 d8 88 fe b1 ca 78 2f ae
       -6.213e-42 -1.3783526e-06 -7.4079303e-09 -3.9897675e-11

fc2.bias f4 [300]
000000 cc 72 ad b6 44 da a6 bb 43 ca 06 b7 b2 d8 ea b8
       -5.169166e-06 -0.0050919373 -8.034115e-06 -0.00011198352
000010 a5 cd 54 b3 26 9c 9d b5 61 d6 ee b5 8f 6d bd 3d
       -4.954713e-08 -1.1742857e-06 -1.7794774e-06 0.09249412
000020 84 86 a8 3e 89 41 47 b8 b2 89 07 b2 af f2 db 3a
       0.32915127 -4.750633e-05 -7.8893425e-09 0.0016780699
000030 96 9c 7f b9 b7 52 73 ba 0f 4b a9 b6 3c 2d 2d b6
       -0.00024377028 -0.000928204 -5.0453305e-06 -2.5805339e-06
000040 d0 bc 33 b6 58 28 0c b3 99 43 8d b7 ff 22 fc b2
       -2.6782982e-06 -3.2632983e-08 -1.6839987e-05 -2.9352575e-08
000050 90 bc c0 b7 fb fe 1b b3 2b fc 9e b8 ed 79 ae b9
       -2.297599e-05 -3.6320653e-08 -7.580997e-05 -0.00033278708
000060 b6 09 02 b8 93 39 b8 3e 15 45 21 b6 bb de 38 b3
       -3.100346e-05 0.35981426 -2.403108e-06 -4.304341e-08
000070 bf 02 e0 ae 53 98 99 b9 13 1a 6b b7 fe d7 89 37
       -1.01868285e-10 -0.00029295924 -1.4013162e-05 1.6432252e-05
000080 1e 45 f2 b8 48 cb c5 b4 95 77 d0 ba ae b8 a4 b8
       -0.00011552333 -3.6842016e-07 -0.0015904779 -7.854529e-05
000090 7a 5b c4 be 40 fd 7d 3c e2 5c 4c af 03 f8 35 b7
       -0.3835104 0.015502274 -1.858669e-10 -1.0846185e-05
0000a0 a0 18 78 ba 20 1e c2 b7 75 13 72 b9 fb 80 0d bc
       -0.00094641186 -2.314063e-05 -0.00023086167 -0.008636708
0000b0 1b df 53 ba de ff a6 3b 6b 9a e0 b6 72 ca 29 b8
       -0.00080822565 0.0050964197 -6.693697e-06 -4.048128e-05
0000c0 6f 9d dc b6 01 f2 3e b7 aa 3a ac ba 69 93 eb bc
       -6.5748386e-06 -1.1381228e-05 -0.0013140042 -0.028756814
0000d0 79 95 05 b7 2b 0b 2d 3d 3e f1 cf ba 79 f4 a8 bb
       -7.96222e-06 0.04224698 -0.0015864742 -0.0051560965
0000e0 7b 20 61 b7 94 c2 ae b5 0a 93 78 b4 3c 50 46 b9
       -1.34186075e-05 -1.302064e-06 -2.3150292e-07 -0.00018912641
0000f0 e9 00 eb b1 12 0b 69 bb 5e e4 cc ba 65 0d 20 bb
       -6.8395036e-09 -0.0035559577 -0.0015632024 -0.0024422046
000100 a9 94 a5 3b 18 d6 a0 b4 90 3d fd ba 13 1e ff ba
       0.005053122 -2.9958096e-07 -0.0019320715 -0.0019463919
000110 43 54 6a b3 b5 bd 20 b9 97 7c 09 bb b8 26 97 34
       -5.4559006e-08 -0.0001532946 -0.0020978802 2.8154113e-07
000120 c0 7a e6 b4 ae 66 3d b3 db 51 6a 3b 70 6f 80 b6
       -4.293015e-07 -4.409838e-08 0.0035754356 -3.8276703e-06
000130 7a 64 22 bb a3 fb 0b ba c0 2a d1 b3 aa 27 ed b9
       -0.0024779127 -0.0005339926 -9.740097e-08 -0.00045233715
000140 0d 5a 45 b9 47 fc c6 3a 83 24 09 ba 84 f0 62 3e
       -0.0001882093 0.0015181386 -0.0005231576 0.22162062
000150 64 18 87 b9 37 0e d1 bc 2d 29 87 3d 3a c9 91 bc
       -0.0002576738 -0.025519473 0.065996505 -0.017796148
000160 ad f0 5b bb 9b 2b dd b8 e6 ff 95 b9 47 6d 87 b9
       -0.0033560202 -0.00010546223 -0.00028610154 -0.00025830625
000170 c8 b4 88 b8 36 ee b6 3e 95 1a 32 b9 1f 56 0e 3c
       -6.5186585e-05 0.35728616 -0.00016985305 0.008687525
000180 cd e2 1e bd 3e 50 14 b3 ca ad e9 bc cd f4 d8 b8
       -0.038790513 -3.4531915e-08 -0.028525252 -0.0001034528
000190 58 47 b3 3e fe 94 28 3d 9c a8 9f 3e 22 1b 86 b5
       0.35015368 0.041157715 0.31183326 -9.991675e-07
0001a0 06 ff c4 39 58 50 25 b7 aa 45 c5 b0 08 fd 0a b4
       0.0003757404 -9.853473e-06 -1.4353436e-09 -1.2944304e-07
0001b0 fd f8 d2 b9 52 50 bc ba ea 0d 33 ba bb 1d ba ba
       -0.00040239832 -0.0014367199 -0.00068303815 -0.0014199534
0001c0 49 2f a3 b4 d3 95 5e b8 46 d6 0f b8 1c ac d8 b4
       -3.039552e-07 -5.306846e-05 -3.4293415e-05 -4.035836e-07
0001d0 ac 33 e6 b4 c3 5a a9 bc 75 d2 21 ba 0a 6f 85 b8
       -4.2878435e-07 -0.020673161 -0.0006173023 -6.362617e-05
0001e0 0f 70 15 3f 1d e8 ec b6 1a a0 89 b5 2a e5 60 38
       0.5837411 -7.0603696e-06 -1.0253891e-06 5.3619187e-05
0001f0 c3 74 8b b7 44 3a 61 b8 75 ae 6d bb 09 56 3c bc
       -1.6624463e-05 -5.3698444e-05 -0.0036267315 -0.011495122
000200 4c 91 82 ba 6b 23 02 b9 cc 4e 98 bc bf 07 9c b2
       -0.0009961515 -0.0001241096 -0.01859226 -1.8164313e-08
000210 86 e2 d9 bc 66 ec c7 ba f0 9c 94 b6 fe dd 1c bb
       -0.026597273 -0.0015252947 -4.4290136e-06 -0.0023936029
000220 e0 8c 0e ba e1 48 bc ba c0 87 7c b8 e4 6f 41 bc
       -0.0005437862 -0.0014364981 -6.020791e-05 -0.011806462
000230 48 46 69 b8 e3 10 b9 b4 48 e8 da b6 82 c8 05 3e
       -5.5616983e-05 -3.4471222e-07 -6.5239474e-06 0.13064769
000240 e0 f5 b2 3e ca 8e 25 b1 e9 56 94 b9 9e ac 7f bc
       0.34953213 -2.4091826e-09 -0.00028293513 -0.01560512
000250 3e 02 bb bb 2e 48 44 bb 14 3e ae b2 f5 e9 85 ba
       -0.0057070544 -0.002995025 -2.0284496e-08 -0.0010216819
000260 a8 20 3a bb 54 54 36 b6 99 bb 0b b7 93 65 1c 39
       -0.0028400812 -2.7169199e-06 -8.328724e-06 0.00014915159
000270 27 cd af b8 04 3a 66 b8 08 6c b2 b8 c1 e5 6e bc
       -8.382863e-05 -5.4890304e-05 -8.507824e-05 -0.014581145
000280 28 9f 2a 3d 17 4b 30 b9 42 c3 a9 b6 50 c0 13 b1
       0.04165569 -0.00016812641 -5.0593235e-06 -2.1500632e-09
000290 4d 42 b7 ba db 31 9a b6 9f 4f 81 b8 5a 90 df aa
       -0.0013981551 -4.5953616e-06 -6.16603e-05 -3.9712922e-13
0002a0 ab b6 87 b7 b7 0e d1 b7 c3 3a c4 b9 10 18 a8 b3
       -1.6178315e-05 -2.4921594e-05 -0.00037427814 -7.8274866e-08
0002b0 42 c1 10 bc 9f 20 e9 b9 d4 c4 22 bb 66 8c 6a b9
       -0.008835139 -0.00044465528 -0.0024836557 -0.00022368281
0002c0 fe c1 31 b5 c7 00 29 bc 6d 62 bb bb 1c a1 5b b8
       -6.6219934e-07 -0.010315127 -0.0057185204 -5.2363714e-05
0002d0 33 5c a7 bc 4b 36 ea 39 70 3f 22 ba cf 9b f9 3e
       -0.020429706 0.0004467241 -0.00061892625 0.48751685
0002e0 8b 0e 7f bb 92 02 07 b7 90 b2 d1 b9 de 99 14 b9
       -0.003891858 -8.0472255e-06 -0.00039996626 -0.000141717
0002f0 b8 0c 1a b4 f2 85 b9 ba 37 a1 9d bc c1 0f 23 be
       -1.4346995e-07 -0.0014154299 -0.019241912 -0.15923978
000300 b5 81 58 b7 dc b1 6d b7 7e bd 09 ba b0 79 09 ba
       -1.2904803e-05 -1.4167712e-05 -0.0005254372 -0.0005244268
000310 ff 54 21 b8 06 de 3b 3b 47 87 80 bb 4a 2e b7 ba
       -3.846455e-05 0.0028666272 -0.0039223763 -0.0013975587
000320 6f 53 37 bb d9 65 ab b6 b8 6d 84 ba 5b 7e 65 3b
       -0.0027973314 -5.1080538e-06 -0.00101035 0.003501794
000330 73 4b bf b6 f8 6e e2 b7 01 b6 3d bc 29 fb 5f b9
       -5.701027e-06 -2.6992973e-05 -0.011579038 -0.00021360502
000340 f4 40 23 b6 7b 96 65 ba a1 c7 52 b9 e1 68 dc a8
       -2.43267e-06 -0.000875808 -0.00020101528 -2.447039e-14
000350 c7 bb 92 b8 8f 2c 84 b7 f4 6a 39 bd 95 2a 30 b8
       -6.996799e-05 -1.5756375e-05 -0.045268014 -4.2001328e-05
000360 58 a7 21 bb 1a 55 d4 bc 9f 57 9d b9 08 64 ab b7
       -0.0024666395 -0.025919486 -0.00030010656 -2.043137e-05
000370 db 5f 73 ba 8b de 83 b9 2c 37 0d ab bf 20 84 b9
       -0.0009283998 -0.00025152075 -5.016983e-13 -0.000252014
000380 3e 35 4e b8 ca ef ee b9 8d ac 30 b5 f8 e8 63 b6
       -4.9163813e-05 -0.00045573554 -6.5816204e-07 -3.3961242e-06
000390 fd 6d 9f b6 c3 af 99 b3 73 a9 aa ba 57 d7 3e ba
       -4.7513736e-06 -7.1565886e-08 -0.001302047 -0.0007280013
0003a0 64 1f 0c bc df ce 22 bc e6 58 00 b4 a7 6a f3 b8
       -0.008552406 -0.009937017 -1.195327e-07 -0.000116070085
0003b0 61 66 0f bb 9b 37 81 ba 88 39 9a b5 e8 fa 5d ba
       -0.002188109 -0.0009858491 -1.1490638e-06 -0.0008467869
0003c0 b1 2e 68 bb 2f 82 c9 b3 ff 2d 38 b8 26 76 01 b7
       -0.003542822 -9.383472e-08 -4.3911856e-05 -7.716508e-06
0003d0 a5 b0 a3 bb fa f6 28 b1 e5 6b 09 b6 45 57 f8 be
       -0.004995423 -2.4587608e-09 -2.0477394e-06 -0.4850408
0003e0 94 ac 92 b8 22 4e 74 3e 30 66 51 3d 7a a6 e6 ba
       -6.993968e-05 0.2385793 0.051122844 -0.0017597221
0003f0 49 c2 bb b9 c2 0f 0f bc 6d a0 56 b3 37 02 bf b4
       -0.00035812173 -0.008731784 -4.9971664e-08 -3.5578134e-07

fc3.weight f4 [1, 300]
000000 13 ff 6a 3a 14 99 aa 3b 94 0a b2 ba 1a 82 8c 35
       0.00089644006 0.0052062366 -0.0013583475 1.0468677e-06
000010 61 37 47 3a f8 76 a9 bb 5f 99 0a 36 d3 65 fe bf
       0.00075994997 -0.005171653 2.0652876e-06 -1.9874824
000020 85 c6 89 bf e1 82 e7 3a 52 27 8f 32 ed c3 9c bb
       -1.0763708 0.0017662906 1.6665272e-08 -0.0047840984
000030 5d 6f 10 3c 72 d9 ce bb bc 1a 72 bb 0c ab cc bb
       0.008815614 -0.0063125426 -0.0036942204 -0.0062459763
000040 ce 50 e9 38 43 b5 93 30 73 35 08 b7 74 de 76 bc
       0.00011125357 1.0747175e-09 -8.118676e-06 -0.015067685
000050 7b ae 0c 34 fc 0a 04 b4 a8 b2 90 bc 82 67 35 3b
       1.3101992e-07 -1.2297454e-07 -0.017663315 0.0027680104
000060 f3 86 86 b6 97 e6 75 bf 68 17 b0 ba 6e 7f 4a bc
       -4.0092214e-06 -0.9605498 -0.001343471 -0.012359483
000070 8a 56 22 3c 9a e2 05 b9 cc 9e 89 bb a3 1f e8 38
       0.009908328 -0.00012768284 -0.0041998383 0.00011068515
000080 e3 9f 80 35 e5 32 72 30 82 b5 8c 39 19 07 85 bb
       9.583276e-07 8.811141e-10 0.00026838115 -0.004059684
000090 03 9c 38 c0 72 a6 80 3f 38 f1 90 3c d9 b2 96 b3
       -2.8845222 1.0050795 0.017693147 -7.0174515e-08
0000a0 11 59 64 bc 80 a4 cb bb e5 ce 0c b7 01 63 53 3b
       -0.013937251 -0.0062146783 -8.392822e-06 0.0032255056
0000b0 68 45 6f bb 2f 7d d5 3b 1a 34 81 3c db 09 73 ba
       -0.0036509875 0.006515167 0.015771914 -0.0009271183
0000c0 8a 0a 91 b9 78 06 80 36 c6 e5 90 bc f1 1c 88 bc
       -0.00027664407 3.8154503e-06 -0.01768769 -0.016615363
0000d0 9b 7b cc 36 fe 91 16 bf b8 83 40 38 6d ec 85 3b
       6.0940633e-06 -0.58816516 4.589904e-05 0.004087022
0000e0 70 ad 35 bc a0 c0 48 ba c5 0a be 3b 49 69 38 36
       -0.011088714 -0.0007658098 0.0057996237 2.747942e-06
0000f0 71 b0 f2 3b 49 79 f6 bb b0 fa 0a bc d2 36 08 3b
       0.0074062874 -0.0075217825 -0.00848262 0.0020784629
000100 8f b8 cc 3b cd 68 a2 34 8e b3 23 3c d2 27 ae bc
       0.006247587 3.0251104e-07 0.00999154 -0.021259222
000110 20 30 57 b1 d4 e8 df bb 44 e2 3f 3b 3a f4 87 36
       -3.1313974e-09 -0.006833175 0.0029279152 4.0517452e-06
000120 d9 38 c0 37 74 5c 47 3b bb 84 46 3b af 13 a9 bc
       2.2914655e-05 0.0030420097 0.0030291516 -0.020639269
000130 7d 49 0e 3d b9 ef 9e b5 b6 67 ed 3b 81 45 ff ba
       0.034738053 -1.1841686e-06 0.0072450293 -0.001947567
000140 ff 9c dd ba 1a 7e cf 3c 19 af 6a 3c 06 09 4e 40
       -0.001690775 0.025328685 0.014323973 3.2193007
000150 a1 7a 50 3c ff 23 7b bc f3 1e 0e bf 07 c0 05 bd
       0.0127245495 -0.015328406 -0.55515975 -0.032653835
000160 1e 82 cf bb de 63 58 bb 88 55 c6 3b e0 e9 54 38
       -0.00633265 -0.003301851 0.0060526766 5.0762552e-05
000170 c6 e0 70 b4 4a 5b 7a c0 5f 6a 82 3c e5 43 54 3c
       -2.2433514e-07 -3.9118218 0.015919862 0.01295564
000180 bf a9 f3 bc 8d e3 ad 34 b0 b6 ab bb 5f b7 b9 bc
       -0.029744027 3.2389326e-07 -0.005240284 -0.022670446
000190 bc e9 72 bf 59 87 94 3f b5 a7 8d bf e2 65 8a bb
       -0.948879 1.1603805 -1.1066805 -0.004223571
0001a0 85 7c 02 b7 52 57 9b 37 b0 1c 18 b4 3d 3d d1 3c
       -7.777596e-06 1.8518102e-05 -1.416654e-07 0.025541896
0001b0 f3 73 9a 3b 0b d5 61 36 78 53 47 3b b9 74 bf ba
       0.0047135293 3.365162e-06 0.0030414741 -0.001460693
0001c0 7e 5a 71 38 e9 f4 9c 3a aa 17 eb b8 33 5a 4d 39
       5.7543155e-05 0.0011974844 -0.00011210081 0.00019583925
0001d0 46 63 23 39 01 f9 e5 bf 87 ec 89 38 6a d4 85 3b
       0.00015581874 -1.7966615 6.576726e-05 0.0040841596
0001e0 64 f5 e8 40 ac e3 93 b8 ed 19 10 b5 a4 1d 1a b9
       7.279955 -7.0519134e-05 -5.368191e-07 -0.00014697626
0001f0 0e 1d b5 3b a4 51 f4 b4 71 4a ac 3c fb 81 fe ba
       0.005527145 -4.5507943e-07 0.02103159 -0.0019417399
000200 fc 65 48 bc 41 10 f9 3b 98 16 07 3d b6 b6 bb ba
       -0.012231346 0.0076008146 0.03298053 -0.001432142
000210 11 69 91 3c 20 d1 b4 bb 92 bd 19 b9 6a f6 ae b9
       0.017750295 -0.0055180937 -0.00014661837 -0.0003337146
000220 33 46 19 3b 61 a3 06 38 bf 53 47 3c 53 e2 9f bb
       0.002338779 3.2100248e-05 0.012165963 -0.004879275
000230 3a 75 94 b9 e6 53 94 b4 0e df 86 bb f7 64 0d bf
       -0.000283161 -2.7628192e-07 -0.0041159457 -0.55232185
000240 d4 93 70 bf a1 de d8 33 3a 86 e5 ba 77 ea be bb
       -0.9397557 1.009878e-07 -0.0017511316 -0.00582629
000250 c6 fa c1 bb d5 a0 49 3c 53 d4 0b bd 9c ca 0e bc
       -0.005919787 0.012306412 -0.034138035 -0.008715298
000260 d9 20 1c bb ef 72 ef b5 73 c6 76 36 b6 87 1d b9
       -0.002382329 -1.7840338e-06 3.677237e-06 -0.00015023243
000270 27 5a 18 bc 2c 2a 9a bb 71 f4 a8 b8 6c 26 15 3d
       -0.009298838 -0.0047047343 -8.056395e-05 0.036413595
000280 76 99 c1 bf cd cb ce bc 09 9a 11 39 11 db b0 3b
       -1.5124958 -0.025243664 0.0001388566 0.0053972085
000290 fb d0 a4 bc 38 7a 3a bc 70 ef 8a b7 77 6d 42 b9
       -0.02011918 -0.011381678 -1.6562379e-05 -0.0001854206
0002a0 3d f7 a9 34 20 fd 07 39 b6 4a 9c 3a e7 d1 05 3b
       3.1658593e-07 0.000129689 0.0011924121 0.00204193
0002b0 9e 17 80 3b 66 af f5 38 f9 1f c4 bb 56 6e b4 3b
       0.0039090654 0.00011715181 -0.0059852568 0.005506317
0002c0 6b 76 8a b0 a8 21 6b bc 43 ff 26 3b 75 33 2a 35
       -1.0074478e-09 -0.014351286 0.0025481738 6.3404815e-07
0002d0 f1 3d 5b 3c 97 01 13 3a 7c db db b8 f8 2a e2 40
       0.013381467 0.0005607842 -0.00010483616 7.067745
0002e0 ab 4e b8 3b 05 39 be b9 c9 52 c1 b7 64 29 d0 ba
       0.0056246123 -0.00036282107 -2.3045943e-05 -0.0015881476
0002f0 e8 a1 84 3a 12 41 8f 39 7e 85 e8 3b 5f f7 29 c0
       0.0010119053 0.00027323567 0.0070959916 -2.6557233
000300 02 89 1e bb 05 c5 3d bb 48 e0 a8 3b 7b 0e 91 3c
       -0.002419055 -0.0028956544 0.0051536895 0.0177071
000310 b0 da 3b 3b f0 f9 75 bc 83 db 38 3b 0b 31 9d 3c
       0.0028664283 -0.015013203 0.002820701 0.019188425
000320 16 2d a5 3f 88 41 1d 3b e2 91 cb bb 60 49 31 3c
       1.2904384 0.0023995358 -0.006212459 0.010820717
000330 88 f6 8f 3b a8 b2 da 3b 25 80 d7 3b de 87 6f bc
       0.0043934025 0.0066741295 0.0065765553 -0.014619796
000340 53 70 03 3c 14 f8 33 37 c7 61 15 ba 1d 75 44 3c
       0.008022386 1.0726992e-05 -0.0005698469 0.011990813
000350 42 e9 84 3b bd fb a8 34 33 5f 40 3b 0c 3b a5 3c
       0.004056127 3.1475602e-07 0.0029353618 0.020169757
000360 c1 a3 9f 39 9a 17 0d bc ba 79 54 3c 7c 50 d1 3a
       0.0003044885 -0.008611584 0.012968475 0.0015969421
000370 db f4 07 bc 5c d0 a5 bc 15 87 0b ba f1 3d db 3c
       -0.008298124 -0.020240955 -0.0005322558 0.026762934
000380 cb 63 1e bb f8 f0 34 ba 53 20 6a 3c 93 cc ea 3c
       -0.0024168368 -0.0006902362 0.014289933 0.028662002
000390 e7 17 f2 bc d5 42 21 ba 9c bf 91 bb c8 64 25 3c
       -0.029552413 -0.00061516213 -0.0044478904 0.010094829
0003a0 5f 26 ae b8 8b c1 cb bf 88 8e 09 bb fe 0f 5c bb
       -8.304114e-05 -1.591844 -0.0020989496 -0.0033578868
0003b0 07 d6 42 3c 9f fe ef ba ba 84 75 3c 3e 33 09 ba
       0.011891848 -0.0018310136 0.014985258 -0.0005233771
0003c0 88 2f 47 3c d8 ba 02 b4 5b 43 bb 3b a1 5d d9 b7
       0.012157328 -1.2175167e-07 0.0057148165 -2.5912015e-05
0003d0 80 c8 43 bb 77 2f 07 b2 29 d5 70 bb a2 a2 61 c0
       -0.0029874146 -7.8688265e-09 -0.0036748147 -3.5255513
0003e0 d0 9d 33 3b 20 1d 6d c0 80 a9 07 bf a2 fb 31 3c
       0.0027407296 -3.7049026 -0.5299301 0.010863217
0003f0 ca 1e 93 3b 09 f9 61 3c 90 cc 79 34 ef a2 a5 bb
       0.0044897543 0.013792285 2.3264352e-07 -0.0050548236
