FetchPickAndPlace.pth (torch_old, 562156 bytes, 8 tensors)

fc1.weight f4 [256, 28]
000000 9f 8f f3 3c cc 06 e2 be 07 72 20 3d 29 d6 13 3c
       0.02973157 -0.4414581 0.039171245 0.009023228
000010 ea 04 72 3e ea 95 bf bc 8d c0 6c 3e 77 99 85 3f
       0.23634687 -0.023386914 0.23120327 1.0437459
000020 4b 28 83 be 30 65 08 be 5d 21 c2 bd 5f c3 11 bd
       -0.2561668 -0.1331985 -0.0947902 -0.03558671
000030 11 6f 96 bd 0c 42 42 bd ac 5b 7e 3d 67 d6 39 3e
       -0.07345403 -0.04742627 0.062099144 0.18148194
000040 c3 e4 a8 bc 71 d5 20 3d cb e6 ef bd c9 2e 35 bd
       -0.020616895 0.039266054 -0.11713942 -0.04423407
000050 b2 c7 da bb 94 a2 22 3e dc 00 4a 3d 97 79 9a bd
       -0.0066766376 0.15882331 0.049317226 -0.07542723
000060 9c f1 e6 3c de b7 f6 3d f6 1f c8 3e 02 76 76 bf
       0.02819138 0.12046789 0.39086884 -0.96273816
000070 b6 46 a3 be 1e 4b cc be 15 55 20 3e 0c cf 98 3e
       -0.31889886 -0.3990106 0.15657456 0.29845464
000080 6e 51 f0 be c5 b0 10 bf 6c cf a0 3e b4 47 87 be
       -0.46937126 -0.5651973 0.3140825 -0.26421893
000090 74 63 2a bf a2 ff 6f 3d b4 fb 1f 3d ea 0a cd bc
       -0.66558003 0.0585934 0.039058402 -0.025029618
0000a0 12 2f 1b be f6 8a 0f be 78 db ca bd b3 16 d2 bd
       -0.15154675 -0.14017853 -0.099051416 -0.10258236
0000b0 19 fa 18 be 3f a2 73 3c 35 da 90 3c 37 f5 1c 3d
       -0.14939155 0.014870225 0.017682174 0.038319793
0000c0 ad 36 0d be 67 c1 37 be 2c ce cc bc fc c1 c3 3c
       -0.13790388 -0.17944871 -0.025000654 0.02389621
0000d0 13 da ad bd a3 f8 2d 3e c8 06 1c 3e c6 53 0c bf
       -0.0848886 0.16989379 0.15236962 -0.5481533
0000e0 60 56 4a 3c 13 73 e0 be 3a bb 32 3d 99 69 03 be
       0.012349695 -0.43837795 0.043635584 -0.12833251
0000f0 d2 8f 2d 3e 54 09 92 3e 16 84 26 be 18 db 61 3f
       0.16949394 0.28522742 -0.16261324 0.88224936
000100 0a 06 8f 3e 76 5d 24 bd 43 c0 cf 3d 6e 1e c0 bc
       0.27934295 -0.040128194 0.10144093 -0.02345201
000110 ec 1f e2 bc 13 da 1e bd ce e1 2e bd 0b b2 87 3d
       -0.027603112 -0.03878219 -0.042695813 0.06625756
000120 f8 10 d2 3d 6b de f7 3c 89 bb 12 bd 78 6d f8 3c
       0.10257143 0.030257424 -0.03582338 0.030325636
000130 ea 6f 2a bb 92 20 97 3d 62 fa 7c 3d b5 83 9c bd
       -0.0026006647 0.07379259 0.06176222 -0.076423086
000140 b5 16 aa bd 75 d4 4b 3e 41 d6 cc 3e ce 6b b2 be
       -0.08305112 0.19905265 0.40007213 -0.34847873
000150 56 37 39 bd f5 14 a0 bd 73 f2 99 be f4 bb 2f be
       -0.045218788 -0.07816497 -0.30067787 -0.17161542
000160 8a a5 01 3e cc 1b ac be 22 6b bf bc 3a 46 88 3e
       0.12660804 -0.33614957 -0.023366515 0.2661608
000170 78 c8 d4 3e e8 be 85 3e 03 ba c0 3e a6 ec b8 bc
       0.41559196 0.26122212 0.37641916 -0.02257378
000180 3b f0 4f 3d b1 c5 15 3d 25 95 24 bc e8 c1 16 bd
       0.05076621 0.036565486 -0.010045324 -0.036806017
000190 70 4c e3 3d f3 4c 9d 3b 91 96 1b bc 34 26 94 3c
       0.11098564 0.004800433 -0.009496347 0.018084623
0001a0 3d 6e 0e be 9f 80 ae bd e1 ef f9 3d 5b 55 ec bc
       -0.1390924 -0.08520626 0.122039564 -0.028849294
0001b0 f2 32 df 3d f6 39 ea 3d 55 a3 f7 3c 55 60 1d be
       0.10898389 0.114368364 0.03022925 -0.15368779
0001c0 99 d5 2c 3d fd f3 c1 3c c2 9f 8b 3d e5 6b e1 be
       0.04219589 0.023675913 0.06817581 -0.4402763
0001d0 98 3f 0b bd 6a 86 e1 be 8e 19 9d be d9 f4 ca 3d
       -0.033996195 -0.44047862 -0.3068356 0.09909982
0001e0 09 b7 a5 be b9 04 0b be 5a 40 c9 bd cd 6f cb 3d
       -0.32366207 -0.1357602 -0.09826727 0.09933434
0001f0 b1 4f 27 bc a4 8f 26 bd 28 02 1d be 3c b6 1c 3d
       -0.010211871 -0.04066433 -0.15332854 0.03825973
000200 bb 9a 2d 3d 8b e5 f8 3a 68 d9 d6 ba 5b bb 6a bc
       0.04238389 0.0018989308 -0.0016391696 -0.014326896
000210 f3 01 3a be 76 30 dc 3b e2 c8 22 3c c7 c7 6d bc
       -0.18164806 0.006719644 0.0099355895 -0.014512963
000220 a8 89 f6 3c d1 25 04 3f 92 39 9a bd 59 d0 10 3f
       0.030094936 0.51620203 -0.07530512 0.56567913
000230 47 99 46 3e 74 1e a0 3d 28 41 29 3d e3 13 e9 3c
       0.19394408 0.078183085 0.041321903 0.028451866
000240 3e 1a 0c be 15 43 8f bf 51 37 73 3e 4b 71 f5 bd
       -0.13681886 -1.1192347 0.2375157 -0.119844995
000250 9c 3a 03 be 2f e3 33 bc d3 1c 89 3e 2a a4 2d be
       -0.12815326 -0.010979458 0.26779804 -0.16957155
000260 98 da 89 3d c2 2f dd bd b9 e1 16 be 9a da 9f bd
       0.067311466 -0.10800125 -0.14734544 -0.07805367
000270 12 77 4b 3d 9a b7 1d be e2 47 43 3e 53 c8 d8 3d
       0.0496741 -0.1540207 0.1907039 0.10585084
000280 ee cb b6 39 f5 68 07 bd 7f e5 c2 3d 09 3f 9a bd
       0.00034865685 -0.03305908 0.09516429 -0.07531554
000290 24 ea 79 3d c3 7b bf bc 4b ea 37 3d 33 15 9b 3d
       0.06101431 -0.023374444 0.044901174 0.07572403
0002a0 95 a3 15 be 98 aa 68 ba f5 79 29 3e a4 c5 0d be
       -0.14613183 -0.0008875518 0.16550429 -0.13844925
0002b0 a0 f7 dc 3e eb 76 8d 3e e2 27 af be 5a fa 8d 3e
       0.43157673 0.2762979 -0.34210116 0.27730066
0002c0 63 9a 86 3d 2a b1 12 ba 57 72 48 3d 7f 25 95 3c
       0.06572416 -0.00055958575 0.048937168 0.018206356
0002d0 4d ec d4 3b 4f 03 29 bc 55 c4 dd bd f7 c0 5f 3e
       0.006497896 -0.01031573 -0.10828463 0.21850954
0002e0 07 13 e5 3d a8 7e 8b 3d 73 02 08 bd 2c 19 02 3d
       0.1118527 0.06811267 -0.03320546 0.031762287
0002f0 6b f4 fb bd 29 87 6c 3e 11 9f f9 3d 8f df cb bc
       -0.123024784 0.23098435 0.12188543 -0.024886874
000300 7a 32 51 3d 22 03 8f 3e 23 c5 c7 be 10 4e f4 bf
       0.05107353 0.27932078 -0.3901759 -1.9086323
000310 ae 9c 8c be 9e 17 e0 bc 88 f7 89 bc 11 05 c0 be
       -0.27463287 -0.027355012 -0.016841665 -0.37503865
000320 19 b9 f2 bd 19 be 91 3e 99 06 eb be 08 18 40 be
       -0.11851711 0.28465346 -0.4590347 -0.18759167
000330 c4 fe aa bc d4 60 18 bc 0f 1d 3e bc 0e 2f 30 3d
       -0.020873435 -0.009300429 -0.011603608 0.043013625
000340 f8 9c 46 3d 5c 65 08 3d 8c d5 1a be e8 d3 ab bd
       0.04848954 0.03329979 -0.15120524 -0.08390027
000350 99 24 a4 3d c6 65 33 bd 74 43 50 bd 4e 07 83 ba
       0.08014793 -0.04379823 -0.05084558 -0.0009996684
000360 3c dc 56 be 60 04 aa bd 58 19 23 3e 95 c7 ac bb
       -0.2098245 -0.08301616 0.15927637 -0.0052728155
000370 b2 79 c5 bc 23 a9 30 3f 0b 44 06 3e 94 c6 02 bf
       -0.02410588 0.6900808 0.13111894 -0.51084256
000380 eb ed 19 be 45 7c 49 3e 0b b6 78 3e 14 11 4d bc
       -0.15032165 0.19676311 0.24288194 -0.012516279
000390 99 5d c0 3d af f5 34 bf 62 a0 dc bd 68 1e 92 3e
       0.09392852 -0.70687383 -0.10772778 0.28538823
0003a0 f0 7e 3e bf d3 18 70 3c 77 54 e9 3c d9 75 6b 3d
       -0.7441244 0.014654356 0.028482659 0.057485435
0003b0 46 05 b1 3e 43 68 ee 3b 47 3b 34 be f7 65 1c 3d
       0.34574336 0.0072756126 -0.17600738 0.03818318
0003c0 b7 61 8d be 16 f7 3d 3d d6 27 c1 b8 40 8d be bd
       -0.27613613 0.046378218 -9.210377e-05 -0.09304285
0003d0 b7 56 28 be 7c b2 83 3c 92 3e 45 be 0d e8 e7 bc
       -0.16439329 0.016076319 -0.1926215 -0.028308893
0003e0 6f 40 0d 3b a1 61 c0 bc 3f 0f b6 be 21 70 20 bf
       0.0021553298 -0.023484053 -0.35558507 -0.62671095
0003f0 e0 94 94 3e bb 44 e3 3e 99 fd b0 3c a1 69 e0 be
       0.29019833 0.44388375 0.0216053 -0.43830588

fc1.bias f4 [256]
000000 36 0b ba bf 4d f6 bb bf e2 b1 81 3d 48 b9 39 bf
       -1.4534671 -1.468454 0.063327566 -0.7254834
000010 93 d3 54 be 3c ed a6 bf bd bc 6f bf 52 06 a0 3e
       -0.20783834 -1.3041148 -0.93647367 0.31254822
000020 97 7f ad bf d9 4f 5b bf 42 31 c5 bf e8 de 18 be
       -1.3554562 -0.8566871 -1.5405657 -0.14928782
000030 6b 95 36 be ad 1f d9 be a0 6e be be 60 f6 7f 3d
       -0.17830436 -0.4240698 -0.37193775 0.06249082
000040 f7 03 61 bf c0 30 01 c0 87 ac 2b bf 25 c0 12 bf
       -0.87896675 -2.0186005 -0.6706013 -0.5732444
000050 f9 5f f2 be ed 3c 06 3f fa f4 7e bf c8 a7 4d be
       -0.47338846 0.52436715 -0.99592555 -0.20083535
000060 1a 43 b3 bf 79 53 c0 bf 06 e3 ac bf 73 8a 43 3d
       -1.4004853 -1.5025474 -1.3506782 0.047739457
000070 64 d7 8a be 99 62 4e 3c 49 a0 d7 3e be 0c a8 bf
       -0.27117455 0.01259675 0.42114475 -1.3128889
000080 9a 69 02 3f 42 ad 6e bf 52 fb 04 c0 c5 c9 6e bf
       0.50942385 -0.9323312 -2.0778394 -0.93276626
000090 0f b4 ca bf 5e 6b f6 be 6f ad 49 bf fb 86 6c be
       -1.58362 -0.4812879 -0.78780264 -0.23098366
0000a0 d6 1e 86 bf 7d 66 8f bf a6 53 16 bf e7 81 91 be
       -1.047816 -1.1203152 -0.5872139 -0.2841942
0000b0 bd 73 b8 bf b1 dd 5b bf 16 47 20 bf 00 2e 3e 3e
       -1.441032 -0.8588515 -0.6260847 0.18572235
0000c0 08 72 0e 3e 76 3e 7f bf b6 31 93 be b7 8e 1b bf
       0.13910687 -0.9970468 -0.28748864 -0.6076464
0000d0 c7 61 72 bf cf c7 83 bf bd 84 9c bf 8c 0e 15 bf
       -0.94680446 -1.0295352 -1.2228009 -0.5822532
0000e0 d5 93 94 bf 6c 29 70 bf 5a ac 92 bf 1b 2a 4b bf
       -1.1607615 -0.93813205 -1.1458848 -0.7936112
0000f0 37 92 73 be 7d 05 f0 bf d0 3b 40 bf da 75 9f bf
       -0.23786245 -1.8751675 -0.75091267 -1.245784
000100 b5 96 6d bf 2c d9 74 3d d5 97 aa bf f6 73 b8 be
       -0.92808086 0.059777424 -1.3327585 -0.3602597
000110 6d b5 ba 3d ec 07 57 bf 40 37 4d 3f 93 f3 10 bf
       0.091166355 -0.8399646 0.8016243 -0.56621665
000120 c8 61 fe be 0c 77 2a bf f5 04 73 bf 7d 20 6c bf
       -0.49683976 -0.665879 -0.9492944 -0.92237073
000130 1d fe 92 bf 6c 34 e7 be 15 58 46 bf 01 53 5e bf
       -1.1483799 -0.45157182 -0.7747815 -0.86845404
000140 57 83 60 bf 36 79 a6 bf 1e ec 21 bf 1b 1e 37 bf
       -0.8770041 -1.3005741 -0.6325091 -0.7153031
000150 57 70 80 bf 94 9a 15 3f 9b cf 17 bf 97 16 6f be
       -1.0034283 0.5843899 -0.59301156 -0.23348461
000160 13 ad a1 bf ad f4 98 3e fd ad 7b bf 00 93 e8 bf
       -1.2630943 0.29874173 -0.9831236 -1.8169861
000170 9b 7d 7d bf 18 ec a5 bf 3e 7b b3 be 9c 12 d9 be
       -0.99019784 -1.2962675 -0.35054964 -0.4239701
000180 f9 a5 12 bf 36 72 81 3f 85 87 03 3f f1 25 dd bf
       -0.57284504 1.011298 0.5137866 -1.7277204
000190 d1 9d 8a bf f0 fa 55 bf fb 4f 7a bf 39 29 93 bf
       -1.0829412 -0.83586025 -0.9777829 -1.1496955
0001a0 c2 5b de bf b3 4f 23 bf a4 48 ae be a0 20 52 bf
       -1.7371752 -0.63793486 -0.34039795 -0.8208103
0001b0 36 e0 79 bf a5 41 88 bf 06 f4 8c bf a8 8a 06 c0
       -0.97607744 -1.0645033 -1.101197 -2.102213
0001c0 26 c1 be bf 16 a8 9f bf f0 cd d7 be 1c 40 95 bf
       -1.4902694 -1.2473171 -0.42149305 -1.166019
0001d0 9b 48 94 bd 13 2b 58 bf 86 f3 fa be a6 99 71 bf
       -0.07240411 -0.84440726 -0.4901392 -0.94375074
0001e0 04 eb 5d 3d f4 15 8a bf 99 ed 82 bf dc 4e c0 be
       0.054179206 -1.078795 -1.0228759 -0.37560165
0001f0 5a c4 73 bf 2f 44 20 be a2 7a fb be 8b b9 57 bf
       -0.95221484 -0.1565101 -0.49117 -0.8426749
000200 1b 52 63 bf 26 de 53 bf 4b 31 1d bf af 90 1e 3f
       -0.8879716 -0.82760847 -0.6140334 0.6193952
000210 46 36 a4 3e c5 52 92 bf 4a 33 9f bf a9 9a c0 3e
       0.32072657 -1.1431509 -1.2437527 0.37617996
000220 3f ba 2b bf f8 4d f9 3e ac df 60 bf d9 1e 55 bf
       -0.67081064 0.48692298 -0.87841296 -0.83250195
000230 f6 e4 01 bf b1 d5 f7 be ae f2 04 3d ab b6 35 bf
       -0.5073999 -0.4840522 0.032458 -0.70981854
000240 7c 68 d3 be ef 7d 49 bf 1d 49 06 c0 1e ee 09 bf
       -0.41290653 -0.78707784 -2.0982125 -0.53878963
000250 38 04 83 bf f4 8f 54 bf 97 98 5a be 61 e1 64 bf
       -1.0235662 -0.83032155 -0.21347271 -0.894064
000260 21 19 99 bf b1 4f 53 bf 8f a4 6c bf 72 fe 89 bf
       -1.1960794 -0.82543474 -0.92438596 -1.0780776
000270 3d be 5c bf ce fc e7 be f3 a0 90 be f6 e8 87 bf
       -0.8622778 -0.45310062 -0.28247795 -1.0617969
000280 b7 13 a6 bf 15 4c d8 be 28 5d b9 be 5b 3e b3 3e
       -1.2974766 -0.42245546 -0.36203885 0.3500851
000290 08 ed 5a bf ee ab 0f bf 4a 14 27 bf 00 12 a4 bf
       -0.8551793 -0.5612172 -0.65265334 -1.2817993
0002a0 6f 0c 3c bf bb c6 2e 3f e9 23 66 bf ab f1 cf be
       -0.7345647 0.6827199 -0.89898545 -0.40614066
0002b0 49 de c2 bf 48 7e d6 bf 86 10 42 bf 46 29 a8 bf
       -1.5224086 -1.6757288 -0.7580646 -1.3137596
0002c0 7f 54 32 3e ea 5a 7a bf cf bd ec bd c1 0f 22 be
       0.17415045 -0.97794974 -0.115596406 -0.15826322
0002d0 37 74 3b bf c6 e0 04 bf 9f 1d dd 3e 55 e2 73 bf
       -0.73224205 -0.5190548 0.43186662 -0.9526723
0002e0 94 a2 b6 bf f8 e9 6c bf 9a 09 e1 bf df 8b 32 bf
       -1.4268365 -0.9254451 -1.7581055 -0.69744676
0002f0 69 6a f8 be 40 28 67 bf a1 37 60 bf f5 2a ef bf
       -0.48518685 -0.9029579 -0.8758488 -1.8684984
000300 73 6d f8 3e a5 cd af bf c5 f3 b9 be fd a6 9a bf
       0.48521003 -1.3734633 -0.36318794 -1.2082211
000310 35 c5 84 bf 38 88 6b bf 7e 05 09 3e 65 41 a0 bf
       -1.0372683 -0.9200473 0.13381001 -1.2519957
000320 dd 09 d1 bf d8 d1 aa bf 7a 97 b4 bf 3a 73 34 bf
       -1.6331135 -1.3345289 -1.4108727 -0.7048832
000330 52 81 61 bf a7 ec 1e bf 51 08 80 bf 71 c0 20 bf
       -0.8808795 -0.6207985 -1.0002538 -0.6279364
000340 b8 92 a7 bf 91 5e 36 bf 1e 16 f3 be 8a e7 06 bf
       -1.309165 -0.71238047 -0.47477812 -0.5269705
000350 2d 83 f4 be 06 27 d3 bf 6f 25 1a bf 40 85 fa be
       -0.4775633 -1.6496284 -0.6021337 -0.48929787
000360 38 dc ea be de b1 ea bf 0c 45 25 bf a8 35 bc bf
       -0.4587114 -1.8335531 -0.6455848 -1.4703875
000370 c9 f3 f7 3c 56 87 2d bf b3 7f 8b 3e cd e2 93 3f
       0.030267613 -0.6778463 0.27245864 1.1553589
000380 2a b2 10 bf 83 32 58 be b3 1d a2 3e 90 c2 f6 3c
       -0.56521857 -0.21113019 0.31663284 0.030122072
000390 31 d5 09 3f 2d c8 92 bf 4f a0 b1 be a9 6a a2 bf
       0.5384093 -1.1467339 -0.34692618 -1.26888
0003a0 ad 68 5d bf 43 b0 aa bf 5d b3 e0 bd 71 80 bb bf
       -0.8648785 -1.3335041 -0.10971711 -1.4648572
0003b0 b8 61 83 bf 6a 3d d9 bf fc 7b 3a be 21 a1 40 bf
       -1.0264196 -1.6971867 -0.18211359 -0.75245863
0003c0 77 77 91 bf 39 87 a9 bf 3d 24 0f bf 6b c9 55 bf
       -1.1364583 -1.3244392 -0.5591467 -0.83510464
0003d0 04 40 0f bf 1a d5 0b c0 ca 4d 38 3f 1b d6 7f bf
       -0.55957055 -2.1848817 0.71993697 -0.99936074
0003e0 e8 dd 68 bf 57 6f 2d 3f f4 6a a1 be ca 8f a2 bf
       -0.909636 0.67748016 -0.3152691 -1.2700131
0003f0 f9 c9 41 bf 32 b7 99 be c8 38 85 bf 88 df 83 bf
       -0.7569881 -0.3002258 -1.0407953 -1.0302591

fc2.weight f4 [256, 256]
000000 e6 14 6c bd f4 22 d2 bc 7a 01 36 bb 09 d3 72 bd
       -0.057637118 -0.025651433 -0.0027771876 -0.05928329
000010 c4 3d 1e bd c9 77 b0 bc cc 1f 80 bd 61 23 83 3c
       -0.038633123 -0.021541493 -0.06256065 0.01600808
000020 15 e3 c4 bd 5b 75 cc bd ca 20 b6 bc 45 ce f4 3c
       -0.09613625 -0.09983321 -0.022232432 0.029883513
000030 9a db 61 bd 0e 22 80 bd 87 79 fb 3c b3 43 c0 bd
       -0.05514107 -0.062564954 0.030697597 -0.093879126
000040 61 3b 48 bb e0 ae d1 bc d4 82 8e bd ab c4 3d bc
       -0.003055297 -0.025596082 -0.06958547 -0.011582534
000050 52 dd 73 3c fd c5 f3 bd aa fc ea bd ff e2 13 bd
       0.01488431 -0.11902998 -0.11473973 -0.036105152
000060 aa 4f d9 bb 75 c8 56 bd c9 62 97 bd b0 3a d5 bc
       -0.006631811 -0.052437264 -0.07391889 -0.026028961
000070 6d 9d 05 bd 19 8d 46 bd b2 7a 57 bd da b3 e7 bd
       -0.032620836 -0.048474405 -0.052607246 -0.11313601
000080 41 7e ab bd 05 c6 b4 bd 3a de 82 bc 9f 15 1a 3b
       -0.083736904 -0.08826832 -0.015975107 0.0023511422
000090 c7 6a 66 ba a7 b9 02 be fb 4e 0b bc 7a 53 c6 bd
       -0.0008789715 -0.12766133 -0.008502717 -0.09683891
0000a0 6c 73 3c 3d 2f cf ab ba 4f b0 9d bd 9f 10 40 bb
       0.046008512 -0.001310801 -0.07699644 -0.0029306782
0000b0 d9 ce 2a bd 74 18 9b bd d2 1f 00 bd 79 d4 32 bd
       -0.04170117 -0.075730234 -0.031280346 -0.04365966
0000c0 8f 2b 96 bd 79 38 a2 3c bc ab 0b be 94 c8 9b bd
       -0.07332527 0.019802319 -0.1363973 -0.076066166
0000d0 35 9a 85 3c 5e f5 54 bd 97 e5 9e bd a3 d3 88 3a
       0.016308883 -0.051991813 -0.077586345 0.0010439049
0000e0 0e b1 9d bd d9 1b 0b bd 1b 79 9c bc e5 f8 00 3d
       -0.07699786 -0.033962104 -0.019100716 0.031487364
0000f0 0f fe 36 be ee 98 51 bd e7 1f 3c 3d d3 71 a2 bc
       -0.17870353 -0.051171236 0.045928862 -0.019829666
000100 a2 4d 2b 3c f5 e6 a4 3c 40 51 12 3d a6 db 24 be
       0.010455521 0.02012966 0.035722017 -0.16099414
000110 3c 53 6b 3d 25 cc 17 3a f3 36 02 3c 6a e5 17 bd
       0.057452425 0.0005790613 0.007947671 -0.03708402
000120 a8 85 fe bd b3 11 a6 3b 23 9b b5 bd 2a ac f0 bb
       -0.12427837 0.005068028 -0.088674806 -0.0073447423
000130 7b 33 69 bd 95 0d 49 3d 8d 83 37 bd 0c 76 a0 bc
       -0.05693386 0.04908522 -0.04480319 -0.01958754
000140 a0 c5 59 bd 5e 7b 88 3d 3e 34 e7 bd ae a1 fc bc
       -0.053166986 0.066641554 -0.11289261 -0.030838814
000150 f8 6e be bd d1 d4 24 bb 39 09 c5 bd e0 cf 1d 3c
       -0.09298509 -0.0025151263 -0.096209 0.009632081
000160 cd bb 28 3c 5f 44 85 bd ce ce e8 bd da fd 6d bd
       0.010298681 -0.065071814 -0.1136757 -0.05810342
000170 93 e1 58 3d cd c0 f6 bd a1 d8 48 bc a0 74 83 bd
       0.0529495 -0.120484926 -0.01225868 -0.06418729
000180 5b 07 95 3c 20 9b 0b bb 6d c6 b5 bd 7b 40 c7 bd
       0.018191984 -0.0021302179 -0.08875737 -0.097290955
000190 15 13 3f 3c 4a 3f c9 bc b9 fb 19 bd 1b 99 8d bc
       0.011662264 -0.024566311 -0.037593577 -0.01728492
0001a0 48 76 52 3c b9 23 22 bd 98 ef 4d bd f5 0c bb bd
       0.012845583 -0.03958485 -0.050277323 -0.09133331
0001b0 48 41 4c 3a 7e 3d eb 39 f5 cb b7 bd b6 f6 b7 bd
       0.000779171 0.00044868508 -0.089744486 -0.08982603
0001c0 e5 0e 2d bd 02 fd ff bd ab f1 dd bd 79 61 17 bb
       -0.042250533 -0.12499429 -0.1083711 -0.002309887
0001d0 ee 5d 61 bb e5 95 ec bd 9b 75 a9 bc 90 36 a6 bd
       -0.0034388262 -0.115520276 -0.020685961 -0.08115876
0001e0 bf 50 07 bd 4e 43 77 bc 74 e9 38 bd 60 0d 35 bd
       -0.03303599 -0.01509173 -0.045144513 -0.04420221
0001f0 c9 5e ee 3a 63 13 19 bd 1b cc 10 bd 0c 85 d1 bd
       0.0018186207 -0.037372004 -0.0353509 -0.10230455
000200 40 e4 a3 bc 3e c5 52 3d a5 c5 74 bd 16 ee 6b bd
       -0.020006299 0.051457636 -0.0597588 -0.057600103
000210 f5 51 1f 3d 13 38 11 bd a4 02 a9 bd c2 c7 75 bd
       0.03889652 -0.035453867 -0.08252457 -0.060004957
000220 08 9e 62 bc 86 55 8e bb 01 84 02 bc cd ac 79 3c
       -0.013831623 -0.0043436913 -0.0079660425 0.015238953
000230 52 fc d1 bd e1 25 13 3c 01 be 8c bd 3a 68 bf bd
       -0.102532044 0.008981199 -0.06872178 -0.093460515
000240 85 77 93 bd 99 69 a6 bd c4 9d 03 bd 40 7b 0c bc
       -0.07200531 -0.0812561 -0.03213288 -0.008574307
000250 4f 31 53 3b 35 79 43 3d c8 3c 9d bc 07 25 b5 3c
       0.0032225435 0.047723014 -0.019194022 0.022112383
000260 e6 2e 5e bd 37 ee 07 3d 02 1a b7 bd 83 e1 d6 bd
       -0.054243945 0.033186164 -0.089405075 -0.10492232
000270 20 90 46 bd 3b 03 ad bd f2 29 4a 3d 7f 81 8e bd
       -0.048477292 -0.08447882 0.04935641 -0.06958293
000280 13 3f 95 bc 16 70 57 bc 72 27 47 bd e9 b1 ce bc
       -0.018218553 -0.013149282 -0.048621602 -0.025231319
000290 bd 26 f6 bd 46 ad c4 bc f6 38 ac bc 5e c7 f7 3c
       -0.120191075 -0.024008404 -0.021023255 0.030246433
0002a0 20 42 dd bd 72 0e 69 bd e6 55 f6 bc 1d 53 a3 bd
       -0.10803628 -0.05689854 -0.030070256 -0.07974837
0002b0 ca dd ad bd 54 fd da bd 37 e7 c0 bc 78 29 12 3d
       -0.084895685 -0.1069285 -0.023547752 0.03568408
0002c0 2e 05 87 bc 01 a6 28 be 20 b2 35 bc 90 c5 e0 bc
       -0.016481962 -0.16469575 -0.011089832 -0.027437955
0002d0 1c e6 b1 bd 4a 60 de bc b7 09 1a be cf 76 fe bc
       -0.08686468 -0.027145524 -0.15042768 -0.031062512
0002e0 88 ae 55 bd c9 fd 16 bd 45 82 b9 bc 15 90 91 bd
       -0.0521684 -0.036863122 -0.022645125 -0.071075596
0002f0 3a 8d 10 be 84 2b a0 bd 0e 9d 0b be dd 24 0f bd
       -0.14116374 -0.078208 -0.1363413 -0.034947265
000300 3f b1 92 bd 9a f7 dd 3b 78 36 98 bb ce 33 cb bd
       -0.07162713 0.006773901 -0.004645165 -0.0992199
000310 e3 49 47 3b 19 d5 b6 bd cd 32 1f be 7e 3d 82 bd
       0.003040903 -0.08927364 -0.15546723 -0.06359385
000320 ba 61 c2 bd 90 7d b1 bd 8f 6d 12 bd 3e 8b a8 bd
       -0.09491296 -0.08666527 -0.035749014 -0.08229683
000330 bf 91 1d bd ee a7 0f bd ea 3d 69 bd 12 5f 04 bd
       -0.038469072 -0.03507226 -0.05694381 -0.03231723
000340 96 24 e7 bd a0 fa 23 3c 18 55 1d bd 7b 0b d2 bd
       -0.11286275 0.010008484 -0.03841123 -0.10256096
000350 f4 6d a5 bd 14 fc 33 3c 8c 76 e5 bd 09 ab 97 3c
       -0.080776125 0.010985393 -0.11204252 0.018514173
000360 18 d3 e1 bd 8d d6 ad bc a5 a7 07 bd 6e 53 12 3b
       -0.11026591 -0.02122047 -0.033118863 0.002232756
000370 3f 40 72 bd 25 7c cd bd 2f 7b 90 bd 36 b9 5a bd
       -0.0591433 -0.10033444 -0.070547454 -0.053399287
000380 8a 65 0b bd 42 91 a2 3c 1f 4b 76 bd a2 ce 9a bd
       -0.034032382 0.019844655 -0.060130235 -0.07558943
000390 3c 53 08 bd 16 9c d7 bd 70 6e 16 bd dc 65 75 3c
       -0.033282503 -0.10527818 -0.036726415 0.014977898
0003a0 9b fc 5f bd da 5b b0 bd 02 fc 37 bd 96 61 1c be
       -0.054684263 -0.08611269 -0.044918068 -0.15271601
0003b0 61 dd 29 bd 5b 68 5c bd c8 b3 c7 bc 45 5c c6 bc
       -0.04147089 -0.05381046 -0.024377719 -0.02421392
0003c0 5e 0c ea bb 34 96 b2 bd eb d0 c4 bd 22 6a cb bd
       -0.0071425876 -0.08720055 -0.096101604 -0.099323526
0003d0 85 c0 d8 bd 3f ca 8d bb ce 84 95 bc 49 53 32 bd
       -0.10583595 -0.004327088 -0.018251803 -0.04353646
0003e0 fb 95 c8 bd 3a 39 f0 bb cd 73 b1 bc f0 5c 1d 3c
       -0.097942315 -0.0073310407 -0.021661663 0.009604678
0003f0 2d 30 bf bc f5 a0 8e bd eb a3 ae 3c de 54 07 bd
       -0.023338402 -0.06964294 0.021318397 -0.03303992

fc2.bias f4 [256]
000000 89 4e e5 bd 0d 58 a1 3d ea 32 8f 3c fd 05 c3 3d
       -0.1119662 0.078781225 0.017480332 0.095226265
000010 c2 62 ec be ca 4f b9 be d1 1f 7b 3e 21 ea 1d 3e
       -0.46169096 -0.36193687 0.24523856 0.15421344
000020 d1 9d a1 ba 7c 29 06 bf 5f 85 18 3e 63 29 3d bf
       -0.0012330358 -0.5240705 0.14894627 -0.73891276
000030 9c dd 8f 3d ef 2e 90 bf b5 5a e9 3e 63 ac 1e 3e
       0.070246905 -1.1264323 0.45577016 0.15495448
000040 84 e4 19 3f ab 2c c3 bc 57 ac ea 3e b6 64 ab 3e
       0.6011431 -0.02382501 0.4583461 0.33475274
000050 d5 b6 4d 3d c2 3f 52 bd d1 40 a7 3e 9d 7d 07 bc
       0.05022319 -0.051330335 0.32666638 -0.008269695
000060 fc c4 a1 3e 0d ce bd 3e 97 2a 36 be d9 8b 8b 3d
       0.315956 0.37071267 -0.17789684 0.06813783
000070 c7 0f 48 3d 91 49 de bd 73 d7 be 3c 31 a8 8e be
       0.04884317 -0.108538754 0.023296094 -0.27862695
000080 3f 35 fe 3e 66 2e aa 3e 6a a5 9d be 7d e1 a1 3e
       0.4965 0.33238524 -0.30790263 0.31617346
000090 a9 c2 f9 bd b7 41 27 3e da 34 cd bd 0d 0e c3 3e
       -0.121953316 0.16333662 -0.10019846 0.38096657
0000a0 20 3b 25 bf 77 5d 7a be 03 e4 92 bd 4d 4a 80 3e
       -0.6454334 -0.24449717 -0.07172396 0.25056687
0000b0 0c 01 a1 be 5e c5 50 be c0 e8 12 3f 4c 96 b2 3e
       -0.3144611 -0.2038779 0.573864 0.34880292
0000c0 7b 34 a7 bd e0 63 75 bc cf e8 18 3d 4c dc ba 3e
       -0.08164307 -0.014977425 0.0373314 0.36496198
0000d0 84 88 b0 be 8f 6b ba 3e be 64 69 bf 1c d8 df 3a
       -0.34479153 0.36410186 -0.91169345 0.0017077955
0000e0 98 b4 ba 3e 25 b4 a1 be 72 4d c8 3e 24 d8 03 3f
       0.36465907 -0.31582752 0.39121586 0.5150168
0000f0 29 c1 cf bd 50 cc 98 3e 2e 6c 20 3e 69 20 0e 3f
       -0.10144264 0.29843378 0.15666267 0.55518204
000100 5f a4 c9 bd fd fc 82 be 91 dd a9 3e 21 39 30 3f
       -0.098458044 -0.2558364 0.33176854 0.6883717
000110 3e a2 5c 3d e5 f5 8e be 81 0a 00 3c f9 91 db 3e
       0.053865664 -0.27921978 0.007815004 0.42884806
000120 f4 d6 3a 3e bd 18 ca 3e fc 2a 85 3e 32 bf 82 3e
       0.1824606 0.39472 0.26009357 0.25536495
000130 ba 35 10 be 00 c8 a3 bf cf 97 80 bd b5 c4 28 be
       -0.14082995 -1.279541 -0.06278955 -0.16481288
000140 f2 b9 0c 3e 40 a0 bf bf 41 d9 e9 3e b2 75 fe 3b
       0.13742808 -1.497078 0.45673564 0.007765495
000150 b5 45 16 3f 31 99 c2 3e 8f 78 24 3f 86 d6 af 3e
       0.58700114 0.380075 0.6424646 0.34343356
000160 8c 0a 72 be 31 a1 bf 3e ff e9 c5 3e 50 93 1d bd
       -0.23636836 0.37427667 0.38655087 -0.038470566
000170 51 b8 6e 3d 9f c1 c0 be 95 77 2f bf e2 0d b2 3d
       0.058281247 -0.3764772 -0.6854184 0.08694054
000180 0f e7 89 bd 0c a5 59 be 07 64 c0 3e 27 de c4 3c
       -0.06733524 -0.21254367 0.37576315 0.024031712
000190 c8 e3 4d 3e 8d 9d ac 3d 8f 59 e3 bc 35 dc 2c bd
       0.20106423 0.08428488 -0.027752666 -0.042202193
0001a0 55 5f c1 3e 58 b9 db bd 39 19 5a 3c de cc a7 bf
       0.37768045 -0.10728711 0.013311678 -1.3109396
0001b0 45 6a 10 3e 20 78 c5 be d3 3c 28 bf c7 96 bf bc
       0.14103039 -0.3856821 -0.6571781 -0.023387326
0001c0 b4 8a 6c bd 0d a3 4e 3d 1c f8 d0 bc 69 05 16 3f
       -0.057749465 0.050448466 -0.025508933 0.58602005
0001d0 59 44 a5 3c bf d7 0a be 3a a0 05 3e 8d 3f 2f 3f
       0.020174192 -0.13558863 0.13049403 0.68456346
0001e0 92 6b 15 3b f0 00 0c bd 1b 33 da 3c 9f 63 79 bf
       0.0022799713 -0.03418058 0.026635697 -0.97417635
0001f0 c5 d4 61 bd f3 ff 6d 3d a8 81 e0 bd 02 0e 95 bc
       -0.055134553 0.05810542 -0.1096223 -0.018195156
000200 cc 85 04 bf 07 02 99 3e fd 2f a1 3c e0 e1 fa be
       -0.5176666 0.2988436 0.019676203 -0.49000454
000210 fa 1b 2e bf 20 6f 6f 3e 51 b5 7b be 24 38 84 bc
       -0.6801144 0.23382235 -0.24580885 -0.016140051
000220 bb 5c 30 3f 94 8b 4d 3d 4a b8 d1 bb be e2 84 3d
       0.68891495 0.05018194 -0.006400143 0.0648856
000230 fb be 97 bc 86 27 30 be a7 5b c7 3d 36 55 a1 bf
       -0.018523684 -0.17202577 0.09734278 -1.2604129
000240 78 f0 9c bd c4 c5 c6 be 98 79 37 3e 06 0a 5f bf
       -0.07663053 -0.38822758 0.17917478 -0.8712467
000250 1e 75 94 3e 55 2c 88 3d 38 cc c9 3e f3 0d 4c be
       0.28995603 0.06649081 0.3941362 -0.19927196
000260 9a 3c 04 bf c0 42 09 3e 4f 3c 30 3c ca e7 86 be
       -0.5165497 0.1340437 0.010756566 -0.26348716
000270 08 31 93 3e f6 a3 33 be 72 9a 82 bd 1f 1c 3f 3e
       0.28748345 -0.17543015 -0.06377114 0.18663071
000280 0c 9e c7 bd 7d 37 da bc e0 52 79 3d b4 bf 80 3e
       -0.09746942 -0.026637787 0.06087005 0.25146258
000290 a1 f4 09 3f b2 06 2d bd 1f 7d fd bf 38 2a 08 be
       0.538889 -0.042242713 -1.9803809 -0.13297355
0002a0 32 cb dd be d4 2c 65 be 6c 1a b1 bf 68 ed 6d bf
       -0.43319088 -0.22380382 -1.3836188 -0.9294038
0002b0 10 53 0d 3e a2 eb dc 3e 91 76 7c bf 21 ab 37 3f
       0.13801217 0.43148524 -0.9861842 0.71745497
0002c0 f7 c8 73 bd bc 59 63 3e 53 3f 83 bc 70 f3 42 3e
       -0.059517827 0.222022 -0.016021406 0.19038177
0002d0 8d fc 18 3f 07 6c a4 3c 9a d5 5d 3c 28 74 81 3e
       0.5976036 0.020071043 0.013539696 0.25283933
0002e0 a2 db 49 bd 44 e1 9b 3e ee 92 80 3e 88 b0 14 bd
       -0.049281724 0.30445302 0.25112098 -0.036301166
0002f0 c2 7a 1e 3e e9 10 67 be be 34 0c be 34 83 27 be
       0.15476516 -0.22565044 -0.13691995 -0.16358644
000300 99 85 e1 3c b3 e6 9a 3e 3c cc 2c bd f8 70 0e bf
       0.027529525 0.30254135 -0.04218696 -0.55641127
000310 64 3b b3 bd 0d 3b 59 bd 25 fe 05 3d 59 bd 95 bd
       -0.08751562 -0.05303483 0.032713074 -0.07311506
000320 9c 1c 87 3d a8 2e c7 be 21 7c 93 3e 0e 2f 96 be
       0.06597254 -0.38902783 0.2880564 -0.29332775
000330 e4 e6 57 be 3a 25 1d 3e 4d 53 20 3e b5 4e 62 3b
       -0.21084172 0.15346232 0.15656777 0.0034531776
000340 c2 79 17 3d 71 5c 4d 3c 88 f3 0c 3f e0 23 0e be
       0.03698135 0.012534247 0.550591 -0.13880873
000350 56 11 8f 3c ff a3 81 bd bb 1a 08 be c3 31 ca 3e
       0.017464321 -0.06330108 -0.13291447 0.3949109
000360 57 2b 12 bf cc 23 2c 3d b4 0e 24 bf 53 2d 64 be
       -0.5709738 0.042026326 -0.64084935 -0.22282915
000370 8f 7d 56 be bc ba 02 3f 19 61 ce 3c cc 7d f9 3c
       -0.20946334 0.51066184 0.025192784 0.030455492
000380 c1 ab 82 3e 87 1d 91 be b0 81 b5 be ae 36 8b bd
       0.25521663 -0.2834284 -0.35450506 -0.06797539
000390 e6 46 32 be b2 4d 69 be 84 e2 5b bc 5e 32 5e be
       -0.17409858 -0.22783545 -0.013420705 -0.21698901
0003a0 1e df 3c 3f bf 56 bc bf b0 fb ca 3d bb 63 d4 3e
       0.7377795 -1.4713973 0.09911287 0.41482338
0003b0 6d d7 d7 bd ce b1 77 3e 70 84 94 3e 9e 0c 9a bd
       -0.10539136 0.24188921 0.29007292 -0.07521938
0003c0 3c 61 eb 3e 09 01 15 bd 56 fb d1 3c 5c 41 5b 3e
       0.4597262 -0.03637794 0.025632542 0.21411651
0003d0 f9 95 cc 3b ff 38 e4 bc 19 34 ee bd fc 2e be 3e
       0.006243464 -0.02785921 -0.116310306 0.3714522
0003e0 45 b9 5d be cc ee 3a 3c b4 8d aa 3d 60 f6 6c 3e
       -0.21652706 0.011409473 0.08327809 0.2314086
0003f0 f8 47 01 bf e1 6a 94 bf b3 8c 5a bf 1e b3 c8 bf
       -0.5050044 -1.1595117 -0.8537094 -1.5679662

fc3.weight f4 [256, 256]
000000 0a 3c 84 3d 45 b1 8b 3c 6a 4a d8 bc 90 05 ff bc
       0.06456764 0.017052302 -0.02640267 -0.031130582
000010 78 db fb be 80 fb 97 3d 19 12 dd be 1b 75 ea be
       -0.4919088 0.07421017 -0.4317787 -0.4579247
000020 f6 ab 4f be 92 bb 0a be 83 fb c9 3e b9 5d 1e be
       -0.20280442 -0.13548115 0.394497 -0.1546544
000030 54 5b 0c be c5 29 4f bd a7 f9 69 bd ca d4 e5 bd
       -0.13706714 -0.050576944 -0.057122853 -0.11222227
000040 35 d1 83 be 4c 1b c7 be 6e 0a 1c bd 79 5d b9 be
       -0.2574555 -0.38888013 -0.038095884 -0.36204126
000050 95 1b 60 be 57 e8 b1 bc df d6 ac 3e 46 4b 0d bf
       -0.21885522 -0.021717234 0.33757684 -0.55192983
000060 3c b8 04 be 9d 95 b3 3d 76 eb 11 3e e9 25 2d bf
       -0.12960905 0.08768771 0.14249977 -0.6763597
000070 86 fc 53 3e 71 c0 5e bc 9c e8 c7 3c 62 75 e3 be
       0.20701799 -0.013595686 0.024402909 -0.44425493
000080 ec 9b 4f bf 63 ae ec bc 39 20 49 be 31 df c7 bd
       -0.8109729 -0.028891748 -0.19641198 -0.09759367
000090 8e 04 23 3e c5 3f 23 3e 79 80 cb 3d 91 67 e8 bd
       0.15919706 0.15942295 0.099366136 -0.11347879
0000a0 3f 6a 28 3e f6 ef 33 bf 44 ff ae be ff 44 5d 3e
       0.1644678 -0.70288026 -0.34179127 0.21608351
0000b0 a1 68 07 bf 0d 79 da bd b4 34 09 3e 40 67 da 3e
       -0.52894026 -0.1066762 0.13399011 0.42656898
0000c0 5f 6b 85 3e c4 4e 51 3d 78 64 b9 bd 37 ab 36 bd
       0.2605848 0.051100507 -0.09052366 -0.044596877
0000d0 10 da 91 be 34 fc d9 bb e8 2b 0f 3e db e5 53 3e
       -0.2848668 -0.0066523794 0.13981593 0.20693152
0000e0 20 f9 47 be 7c ab 98 3e f5 3e c1 be e6 d7 c2 be
       -0.19528627 0.29818332 -0.37743345 -0.38055342
0000f0 f0 fb 74 3d a3 23 81 bf 7e 81 e9 bd 60 db 88 be
       0.05981058 -1.0089 -0.11401652 -0.2672987
000100 7d 61 9b be 20 1b 1d bf 47 3b 8e be c8 bb 8d 3c
       -0.30347815 -0.61369514 -0.277796 0.017301455
000110 5e bf a6 be 34 e7 d3 bd 27 34 65 bc fc 61 d3 3e
       -0.32567877 -0.10346833 -0.013989485 0.41285694
000120 e1 f8 98 bd 72 50 a0 3e 69 e2 5b 3d c8 d1 d6 be
       -0.07469345 0.31311375 0.05368272 -0.41956925
000130 23 a3 0f bd 0a f4 a9 be 42 6d 72 be 9d b4 7b 3e
       -0.03506769 -0.33194 -0.23674491 0.24580617
000140 18 86 95 be 8f ac a0 be 48 14 79 bd 7b 33 9f be
       -0.29203868 -0.31381652 -0.060810357 -0.31093964
000150 f2 df fa bd 18 cd 12 bf 8f b7 30 bf 9d a1 d1 be
       -0.122497454 -0.573442 -0.6903009 -0.40943614
000160 04 7f c5 be d4 04 1a 3f df 34 5a 3e 42 99 37 3e
       -0.38573468 0.6016362 0.21309231 0.17929557
000170 74 a6 2c bd c2 e6 5b be da 54 cc be 3e 6e c4 bd
       -0.04215093 -0.21474746 -0.39908487 -0.095913395
000180 71 24 02 bc e9 97 bb be e1 36 8b bf 2f 2f ef bd
       -0.007943259 -0.36639336 -1.0876123 -0.116789214
000190 53 98 03 be fd 13 ca be 24 3d 86 bb 06 13 ba bb
       -0.12851076 -0.39468375 -0.004096644 -0.0056785373
0001a0 50 72 ba 3e 5a 6e f3 bc 2c 92 44 3d cc 00 16 bf
       0.3641534 -0.029715706 0.047990963 -0.58594966
0001b0 f1 1d 9f be 77 14 26 3e 1f a5 b3 3e 5a a7 0a bf
       -0.3107753 0.16218744 0.35086915 -0.5416161
0001c0 dd 97 a4 3b 42 34 6c be 64 b6 03 3d c4 89 b3 3b
       0.0050229863 -0.2306681 0.032156363 0.0054790694
0001d0 35 c2 d0 be 1e 14 4c be 16 28 9c bf d2 5e c6 3e
       -0.40773168 -0.19929549 -1.2199733 0.38744217
0001e0 66 f7 0b bc 4c b7 0e be fe 35 d1 bb da c7 23 3e
       -0.008542871 -0.1393711 -0.00638461 0.15994206
0001f0 e7 72 9f be 44 5c 74 be ed a8 3b 3d cc 0e 36 bd
       -0.3114235 -0.23863322 0.045815397 -0.044447705
000200 2c 98 19 bf bb 66 21 bf 85 df d1 3c 9f 34 eb be
       -0.5999782 -0.6304738 0.025619278 -0.45938584
000210 be c7 0c bd 1d d0 2d bf c9 88 b6 be e3 5e 60 be
       -0.034370176 -0.6789568 -0.35651234 -0.21911196
000220 8e 81 bb be e0 3e 73 3c 8a 8e 55 bd e7 fe 4e be
       -0.3662228 0.014846534 -0.05213789 -0.20214425
000230 02 de 0e bd 0f 19 f0 bc e8 14 ea be 77 8e 57 be
       -0.034879692 -0.029308824 -0.45719075 -0.2105044
000240 2f 85 1f 3c 2b d5 48 3e 33 e3 64 be 10 f7 75 be
       0.009736343 0.19612567 -0.22352295 -0.24020028
000250 07 46 2a 3e 83 68 a0 be 74 92 ea 3a a6 27 8c 3e
       0.16628276 -0.31329736 0.001789643 0.27374
000260 f8 b3 2f bf 94 fe 94 be f7 f2 9b be 5f 38 73 bf
       -0.68633986 -0.29100478 -0.30458805 -0.9500789
000270 d0 14 56 be 5e 26 94 3c f4 55 63 3d 5f 08 43 3d
       -0.20906377 0.018084701 0.055501893 0.047615405
000280 72 33 8c bc 4f 99 3a bd 80 2c 87 3e 25 51 bc be
       -0.017114375 -0.045556363 0.26401138 -0.36780658
000290 7d fd c7 bd 85 dc 55 3d d5 cd 3d bf 14 c8 3e 3d
       -0.09765146 0.052212257 -0.741422 0.046577528
0002a0 04 a6 9f bd 4f b7 47 be 2e fe 87 be 60 86 2d bf
       -0.07795337 -0.1950352 -0.2656111 -0.67783165
0002b0 27 07 ef 3d f2 31 2e 3e 2c ea 07 bf 20 4f 8f 3c
       0.11671286 0.1701124 -0.5309169 0.017493784
0002c0 15 40 c9 3b 10 73 c3 be d9 b7 a7 ba eb 82 a5 be
       0.0061416724 -0.38173723 -0.001279588 -0.32326445
0002d0 2e ba eb 3d 1f c4 29 be 88 f7 fe be ec 60 d5 be
       0.1151012 -0.1657872 -0.49798226 -0.41675508
0002e0 cf a2 59 bc 4c 1b 9e bd 1b d8 38 be 91 7f d7 3d
       -0.0132834455 -0.0772005 -0.18051188 0.10522378
0002f0 8a bb 0c be 0d 0e e2 be 71 5b f2 bd 21 7c bc be
       -0.13743415 -0.44151345 -0.11833847 -0.36813453
000300 60 46 37 3d 45 80 8a be 47 df a2 be b1 3e 8b be
       0.04474485 -0.27050987 -0.31810972 -0.27196267
000310 c2 16 bd 3c dc 7a 32 3d 36 69 2a bf 2e 44 22 bd
       0.02308214 0.0435742 -0.6656679 -0.039615802
000320 1d 9d 25 3d 54 1b 12 3e 98 0a 78 bf d0 cf 8c be
       0.040433038 0.14268237 -0.96891165 -0.27502298
000330 da 11 49 be 02 1c df 3e fd 9b 0d bf e4 cf 77 be
       -0.19635716 0.43576056 -0.55316144 -0.24200398
000340 c9 bf 22 bf dc 11 f2 be 6e fb 1d 3e 02 2f 70 be
       -0.6357389 -0.4727925 0.15427944 -0.23455432
000350 f8 2e e0 bd c8 d6 85 bc b8 1a f8 be 66 9c f7 bd
       -0.109464586 -0.016337767 -0.48457885 -0.120903775
000360 52 5e ae be 29 0e 46 be 7d 70 a3 bf e2 9c e1 be
       -0.34056336 -0.19341339 -1.2768704 -0.44065005
000370 7c 36 d8 bc 09 9d 6e 3e 27 d7 fe 3c 4a ca 24 be
       -0.026393168 0.23302092 0.031108452 -0.16092792
000380 f1 43 99 3e 0b 51 16 3e 9c da dd be 59 b7 83 3c
       0.29934648 0.14679353 -0.43330848 0.016078638
000390 38 9a 0d be e4 e9 4d bd c8 82 61 3d 24 42 82 be
       -0.13828361 -0.050271884 0.055056363 -0.25441086
0003a0 5e 34 e8 be bb 21 90 be da 8e 70 bf 31 50 48 be
       -0.45352453 -0.28150734 -0.93967974 -0.1956184
0003b0 f2 c8 22 be 2b e3 7a be 74 30 00 bd 69 88 ee be
       -0.15896967 -0.2450072 -0.03129621 -0.46588448
0003c0 33 ca 36 3e 51 5f da bd 11 28 b0 be 98 a4 ff be
       0.1785057 -0.106627114 -0.34405568 -0.49930263
0003d0 7c bb ef 3d 9f dd bf bc 99 9d 19 bf 19 0e 06 bf
       0.11705682 -0.023421107 -0.600061 -0.5236526
0003e0 3f db 73 3e bb d5 48 bf b8 1f fc be b8 56 fa be
       0.23814104 -0.78451127 -0.4924295 -0.48894286
0003f0 93 5e 17 3f e8 98 93 3e 6b 95 1a bf d5 13 29 bf
       0.59128684 0.28827596 -0.60384244 -0.66045886

fc3.bias f4 [256]
000000 cf cc 2b be 8c 00 05 be 97 af 3e be 1c 9f 68 be
       -0.16777347 -0.1298849 -0.1862167 -0.22716945
000010 2c f9 5d be cb 2c fc 3d b3 aa e0 3e b9 aa 81 be
       -0.21677083 0.12313231 0.43880233 -0.25325564
000020 8a 1f 1e 3e a7 d3 0a bf 41 1c de 3e 19 8a df 3e
       0.15441719 -0.54229206 0.4338093 0.43660048
000030 6d 7d 98 be 03 49 1b 3f ff aa 1a be 73 23 24 3f
       -0.29783192 0.6065828 -0.15104292 0.6411659
000040 59 0e ff bd bc 83 80 3e 28 a7 98 3d 83 c8 59 3e
       -0.124539085 0.25100505 0.074537575 0.21267895
000050 43 74 fe 3e 37 01 48 3e 4f c0 a0 be 73 49 ec bd
       0.49698076 0.19531713 -0.3139672 -0.11537447
000060 87 32 98 3e 10 e5 78 be 75 a5 c4 be d8 e9 84 bc
       0.2972605 -0.2430613 -0.38407484 -0.016224787
000070 db 43 0b 3f a5 0c c6 be 24 eb 14 bf 04 3a fb bd
       0.54400414 -0.38681522 -0.58171296 -0.12266925
000080 7f 95 bb 3e ee b7 f9 3e d1 5a ca be e5 3c ef bd
       0.36637494 0.4877314 -0.39522412 -0.116815366
000090 79 62 54 be b2 1d 20 3f 41 27 d8 be dc 4d 8c 3e
       -0.2074069 0.6254531 -0.42217448 0.27403152
0000a0 e5 1b 18 bf 9b 30 ad 3e 36 2c 5c bd c9 a8 5a be
       -0.59417564 0.33826146 -0.0537531 -0.21353449
0000b0 05 b1 a3 3c 70 87 4f 3d 5c e4 c5 3e dc 99 0b bf
       0.01998187 0.050666273 0.38650787 -0.54531646
0000c0 0b 6e 71 be 00 de a0 be 06 d1 5d 3f 52 00 f2 bd
       -0.23577134 -0.31419373 0.8664707 -0.11816467
0000d0 b3 f5 b6 3c 3c 75 2a 3e 0f a5 d3 bd a0 90 bb bd
       0.022333955 0.16646284 -0.10334217 -0.091584444
0000e0 7f 06 87 be 8c f2 90 3d d9 9d ae be e5 6b 51 3e
       -0.26372144 0.07077512 -0.34104803 0.20451315
0000f0 89 fb 98 3e 57 82 ca be 1e d7 b4 be 48 d3 f6 3e
       0.29879406 -0.39552566 -0.3532037 0.4820807
000100 47 d1 87 be 26 dd 6d 3e b1 51 1a 3d e6 bc 12 3d
       -0.26526853 0.23228893 0.037675563 0.03582468
000110 dd 09 fd bd fd f1 16 3f 31 53 62 be 05 1a c7 be
       -0.12355397 0.58962995 -0.22102048 -0.3888704
000120 c8 a9 e7 be 95 a4 b9 be 55 75 cd 3e 3d ae e0 be
       -0.4524672 -0.3625838 0.4012858 -0.43882933
000130 8a 68 31 be ab ef 15 3f b1 50 5a 3e ff f4 e1 be
       -0.17325035 0.5856883 0.21319844 -0.4413223
000140 fd b0 0e bf 92 f8 c4 be e3 ba 49 3d 16 71 54 be
       -0.5573881 -0.38470894 0.049250495 -0.20746264
000150 de fd 16 3e 55 ff 6b 3e d4 32 54 be 09 3a 85 3e
       0.1474528 0.2304662 -0.20722514 0.2602084
000160 8b 71 8f 3e 71 77 93 be db 93 d4 be a0 cf 41 3d
       0.28016314 -0.28802064 -0.41519055 0.047317147
000170 ae 0f a3 bd 85 47 b9 3d 84 d6 7b bd c9 14 f6 3e
       -0.07961975 0.090468444 -0.061483875 0.48062733
000180 0c b8 64 be e6 30 a9 be 9a 31 50 be d7 b9 ba be
       -0.22335833 -0.3304512 -0.20331421 -0.3646991
000190 6c e1 1d 3d 01 30 b6 be 29 b2 dc bd 08 d6 44 3d
       0.038545057 -0.355835 -0.10776169 0.04805568
0001a0 1e 3a 28 3d ee df ff be cc ef 93 3e 83 ce 96 be
       0.04107105 -0.49975532 0.28893888 -0.2945443
0001b0 d8 f6 ad 3c 4f 30 06 bf a2 15 fd bd 05 d6 9e be
       0.021235868 -0.52417463 -0.12357642 -0.3102266
0001c0 2d c4 17 3f 92 64 28 bf 76 54 e1 3d ff 0c 9b be
       0.59283715 -0.6577846 0.11002438 -0.30283353
0001d0 20 7b 98 3e e1 d8 ba 3e 07 bd bf 3e 85 6c 1f 3f
       0.29781437 0.3649359 0.37448904 0.6227496
0001e0 4e 55 f1 3e 3d 07 8b be 24 5f 91 3f ff a8 db be
       0.47135395 -0.2715396 1.135716 -0.4290237
0001f0 5c e4 21 be 95 ec cd bd 78 1e 22 be 15 32 47 bd
       -0.15809768 -0.1005489 -0.15831935 -0.048631746
000200 ea db 40 bd 93 5f 17 bf 3a 67 3d 3f 2e 16 b9 3b
       -0.047084726 -0.5913021 0.73985636 0.005648396
000210 61 c3 62 be 95 94 88 bb 84 90 1d 3e b0 f9 68 bf
       -0.22144844 -0.004168103 0.1538716 -0.9100599
000220 6a f5 02 bf f4 5b fe 3d fa 3c 58 be 2e a9 13 3f
       -0.5115572 0.124198824 -0.2111701 0.5768002
000230 a0 dd f2 be df 85 2e be d6 0b b7 be 60 26 3b be
       -0.4743471 -0.17043255 -0.35751218 -0.18276358
000240 e1 91 3a be 87 60 8d be c7 2a 29 3f bc 01 a8 3d
       -0.18219711 -0.27612707 0.660809 0.08203456
000250 d0 27 b5 3e 3f 7d 31 bf ed 0d ce 3c 1a 78 45 be
       0.35381937 -0.69331735 0.025153125 -0.19284096
000260 d2 99 80 bd 86 f7 39 3d 96 76 4a be ba 9d 09 be
       -0.06279339 0.045402072 -0.197718 -0.13439074
000270 45 cc 48 3e dc 53 51 3e fa 9e fb 3d 06 12 da 3c
       0.19609173 0.20442146 0.12286182 0.026619922
000280 23 32 e2 be cc 40 88 3d 21 ca 43 be 0e 47 e3 3e
       -0.44178876 0.06652984 -0.19120075 0.44390148
000290 1f 9a 17 be c5 8e a0 3d e4 df 95 3e 1f 3d f4 3e
       -0.14804886 0.07839731 0.29272377 0.47702882
0002a0 e7 25 5a 3d 0f 23 14 bb d8 8e d0 bd 9c 09 a3 be
       0.053258803 -0.0022603904 -0.10183495 -0.3184327
0002b0 c8 8c aa be 8a fb f5 3d ce 12 c4 be 7e 1e d6 3c
       -0.33310533 0.12010868 -0.38295597 0.026137587
0002c0 db 62 15 3f 61 1a 63 be fc 0e de bc cf 39 17 3f
       0.58353966 -0.22178032 -0.027106754 0.59072584
0002d0 4e 4e 7a bd 52 10 ab 3e 0c 35 dc be 00 06 cf be
       -0.061109833 0.3341089 -0.43009222 -0.40434265
0002e0 fb 9a 19 3e 5c 8e ef 3e ec 0b cb 3e f2 11 4f 3e
       0.15000527 0.467883 0.39657533 0.2022169
0002f0 1d 3d 0a be ef 93 7d 3d 12 ff 46 bf 9f de 37 be
       -0.13499875 0.06190866 -0.77732956 -0.17956017
000300 1f aa 9c 3e 6b c5 b8 3e 43 4b 5a bd 8d 21 14 3f
       0.30598542 0.36088118 -0.05329443 0.57863694
000310 c6 ea 6f 3e 2d eb 9d be 67 66 d8 be c5 a4 ce 3e
       0.23429403 -0.30843487 -0.42265627 0.40360084
000320 34 a4 56 bd f1 9f 79 bf ae ba 03 bf ad 7e 7e 3e
       -0.05240269 -0.97509676 -0.51456726 0.2485301
000330 86 e0 a0 be dc 2a 25 3c e7 88 67 3e 2f b9 06 3f
       -0.31421298 0.010081019 0.22610818 0.5262632
000340 51 ef 77 be 10 85 9d bd c0 e2 c3 3d 85 b8 bd 3d
       -0.24212386 -0.07691395 0.095647335 0.0926371
000350 ab ad aa 3e 22 29 3f 3e 61 90 47 bc f0 05 84 be
       0.33335623 0.18668035 -0.012180419 -0.2578578
000360 5e 74 c9 3e 98 af 5e be 0e 56 88 be fa 91 c3 be
       0.39346594 -0.21746671 -0.26628155 -0.3819731
000370 34 84 99 be 36 6c d9 3e ed 22 19 be dd 1b 88 3e
       -0.29983675 0.4246537 -0.1495473 0.26583758
000380 c2 d6 9c be 49 29 b9 3e e0 35 da 3e 6d ea 5b be
       -0.30632597 0.3616431 0.42619228 -0.21476145
000390 6a ef 31 3e 7f 02 24 bf ac 4b 1b 3e 0c 4d d4 be
       0.17376485 -0.6406631 0.15165585 -0.41465032
0003a0 8a da b5 3e 95 67 40 3f e4 c9 48 3e af a8 65 3e
       0.35518295 0.75158054 0.19608265 0.22427629
0003b0 9a b7 22 3c c4 51 f4 bd 0d 89 66 3e a4 2f 88 be
       0.009931469 -0.11929658 0.22513218 -0.26598847
0003c0 96 9d 33 be 50 f1 12 bf 76 6e 01 3f 6a f1 8f 3e
       -0.17540583 -0.57399464 0.50559175 0.28113872
0003d0 d2 c2 c7 bd 7f 17 6b be e0 e8 0b 3f fc ff 8b be
       -0.09753956 -0.22958182 0.54652214 -0.27343738
0003e0 89 e7 89 bd 71 22 0e bf 7c fb 45 3e 01 b1 73 be
       -0.06733615 -0.55521303 0.19334215 -0.2379799
0003f0 d6 90 57 be d5 5c 66 3e 25 1e 92 be 90 1d 2d 3e
       -0.21051344 0.2249635 -0.28538623 0.16905808

output.weight f4 [4, 256]
000000 fc 7d 17 bd 50 88 fa 3c d2 36 9f bd 2e 75 04 3d
       -0.036985382 0.030582577 -0.07774128 0.032338314
000010 46 b6 ba bd b6 7d 11 bd 6e 92 44 3c f0 4c 1a 3e
       -0.09116797 -0.035520278 0.011997802 0.15068412
000020 4d 25 36 3d 00 b7 5d bc d9 3a a4 3d db 4d 92 bd
       0.044469167 -0.0135324 0.08019037 -0.07143756
000030 40 a3 9a bd 4f 59 a4 bd da c4 20 3e e3 22 28 3d
       -0.07550669 -0.08024847 0.15700093 0.041048896
000040 77 b9 99 3c 90 26 43 3d 28 03 21 bd ab e6 01 3e
       0.018765194 0.047644198 -0.03930965 0.12685649
000050 ad 15 19 bd 41 54 2c 3c ff 74 bf bd b6 3f 8b 3d
       -0.037374187 0.010518135 -0.09348487 0.06799261
000060 bd 4b 2e bc b4 67 0f bf 7d 5b f9 bd cb 3a c0 3d
       -0.010638175 -0.56017613 -0.12175653 0.09386214
000070 7d 2a d9 3c d1 e7 0e bd 39 77 89 3b 97 d7 83 3d
       0.026509518 -0.034889046 0.0041951207 0.06437605
000080 4d c3 b8 3d 5e ca 3b bc 1b 38 bf 3c 4b e7 f2 3d
       0.09021626 -0.011461822 0.023342183 0.11860522
000090 4e 17 e5 3d b4 65 33 3d 65 f1 26 bc b1 f2 12 3d
       0.11186086 0.043798164 -0.010189389 0.03587598
0000a0 58 e5 8d 3f 88 82 f5 bc b0 bd 3b 3b a1 e0 f2 3c
       1.1085615 -0.029969469 0.0028646998 0.029648127
0000b0 d2 84 35 bd 00 23 63 ba de 29 19 bc 72 6f 2a bf
       -0.04431612 -0.0008664578 -0.009348361 -0.665763
0000c0 06 40 4a be cc e9 ea 3c b1 59 f0 bc 69 de 5b be
       -0.19750986 0.028675936 -0.029339643 -0.21471561
0000d0 b1 0b 60 bc e6 1d 08 3c dc 85 13 bd 7d 37 34 be
       -0.013674662 0.00830791 -0.03601633 -0.17599292
0000e0 09 88 52 3d d8 fa c9 bc 07 cf 46 be 3f 6a 00 3d
       0.051399264 -0.024655744 -0.19414912 0.031351324
0000f0 b7 99 96 bd be 22 a6 3c 7c e2 0f 3e 2c 3e d6 3c
       -0.073535375 0.020280238 0.1405124 0.026152693
000100 51 c2 8c bd aa 0a 69 3d 90 8a 01 bc b6 97 6b 3d
       -0.068730004 0.056894936 -0.007906571 0.05751773
000110 94 f8 33 3e 2a a3 10 3d 5e f5 52 3d 5f 13 dd be
       0.17575294 0.035311855 0.05150353 -0.4317884
000120 39 5f 97 bb a5 b8 b7 3c 4f 83 18 bc a1 7f a4 3e
       -0.0046195057 0.022426913 -0.00930865 0.32128623
000130 c3 26 d9 be 82 5f 66 3c c3 95 0f 3e 46 95 35 bf
       -0.42412385 0.014060857 0.14021973 -0.709309
000140 50 be 73 bf 05 de cd 3d 6c d1 b3 bd 1f 3d bd 3d
       -0.9521227 0.100521125 -0.087801784 0.092401735
000150 8b b5 db bd dd 06 19 bd c2 ac 04 be 30 16 07 bd
       -0.10727986 -0.03736006 -0.12956527 -0.032980144
000160 f9 64 bc 3d 0d 44 4b 3c e3 6e d2 3c 91 07 a5 3b
       0.091989465 0.012406361 0.02568764 0.0050363024
000170 22 41 1f 3d d1 dd 7c 3d 15 f0 06 3d f5 04 21 bc
       0.038880475 0.061734978 0.032943804 -0.009827842
000180 6b 3e 13 3d a7 60 09 bd 7f 24 dc 3c 55 38 01 3f
       0.0359482 -0.03353944 0.026872871 0.5047658
000190 47 fd 5d 3c b6 75 28 bf a7 59 c8 3c 02 c6 ad bc
       0.013549156 -0.6580461 0.024456812 -0.021212582
0001a0 bf 1b a0 bc 2b 4d c6 bc 2c 78 0b bd ef 5d 4a 3d
       -0.01954448 -0.024206718 -0.03405015 0.04940599
0001b0 df f7 d6 3c a2 79 a9 bb c5 97 90 bc 18 fe 9f 3d
       0.026241241 -0.0051719705 -0.017650494 0.078121364
0001c0 0e 87 d2 3c 30 eb 9f 3b 45 0b 19 3d f2 2e ce 3d
       0.025699165 0.0048803315 0.037364263 0.10067548
0001d0 5b cb 96 3d cf be 1a 3d 25 17 11 bd d2 1d 5a bd
       0.07363006 0.037779626 -0.035422463 -0.053251095
0001e0 af e3 85 3c e3 30 a5 bc 6f 38 c8 bb 2d 0e 88 3e
       0.01634392 -0.020164913 -0.006110243 0.26573315
0001f0 52 cb 4b 3e 1b 70 95 bc ff 6d 89 be 4e c0 7f 3b
       0.1990178 -0.018241933 -0.26841733 0.0039024535
000200 ab 36 f8 be 48 38 58 bc 47 63 5b 3c e1 d8 78 3d
       -0.48479208 -0.013197012 0.013390369 0.060753707
000210 34 7b 21 be 29 31 9d bd d5 70 22 bd 2a 7e d3 bc
       -0.15769655 -0.07675392 -0.039658386 -0.025816996
000220 ef 63 c6 3e 7c 63 6a bd 81 0b 82 be a0 a3 eb bc
       0.38748118 -0.057223782 -0.25399402 -0.028764546
000230 2b cc 5d 3c 62 11 a1 bd 8e 05 9f bc 16 55 23 3c
       0.013537447 -0.07864644 -0.019411828 0.009969017
000240 7c e0 09 3f c7 95 98 bc 5c b0 6c bc 56 6c 17 3c
       0.5385816 -0.018626107 -0.014446344 0.009242138
000250 d2 a8 9b bc ae 44 88 bc 1d 22 ba be 05 0f d1 bc
       -0.019001398 -0.016634312 -0.3635415 -0.025519857
000260 f1 05 c6 bd b6 21 f1 bc 4e 97 d8 bc 73 50 79 3c
       -0.09669102 -0.02943502 -0.026439335 0.0152169345
000270 59 82 92 3b 8d 0d c6 bc cc 03 c9 bd 1a 0f 1a bd
       0.004471105 -0.024176383 -0.09815177 -0.03761206
000280 91 5d 43 3c 72 64 f6 bc 45 97 07 3d 05 d8 5d 3d
       0.011924163 -0.030077193 0.033103246 0.05416109
000290 82 bf 17 bc 2f 34 4b 3c 60 f8 08 3d 59 04 10 3c
       -0.009261968 0.012402578 0.033439994 0.008790099
0002a0 f7 78 62 bc 76 44 0d bc c1 c3 da bd bf a0 9c bc
       -0.013822786 -0.008622279 -0.10681868 -0.019119618
0002b0 0a df fc bd 8f 40 db bc bc 43 e3 3d 27 63 ae bd
       -0.12347229 -0.026764182 0.11096904 -0.085150056
0002c0 49 a3 51 bd a9 56 fb 3b a1 d8 35 3d 25 f8 d2 bc
       -0.05118111 0.007670243 0.044396047 -0.02575309
0002d0 23 19 be 3a 41 4b 3d 3d f4 1c 09 be 80 87 12 3e
       0.0014503341 0.046214346 -0.13389951 0.14309502
0002e0 6d 17 ea 3b b1 87 0d bc 13 81 81 3c c3 7e b0 3d
       0.007143906 -0.008638308 0.015808618 0.08617928
0002f0 ee c8 44 3d cb ee 5f bc 3a cc 6c bd 5d 5b 18 3d
       0.048043184 -0.0136677725 -0.057811953 0.037196506
000300 06 52 91 bd ed ae b5 3c ab 72 83 bd 1b a9 23 bd
       -0.07095723 0.022178138 -0.064183556 -0.039956193
000310 27 f9 82 bc a0 07 3a 3d e7 61 18 3f 12 2f d9 b9
       -0.015987946 0.045417428 0.5952439 -0.00041424535
000320 ee 11 21 be 60 22 95 ba a7 22 30 3f db f4 02 be
       -0.15729496 -0.0011378042 0.68802875 -0.12788717
000330 cf 7f 4c be 14 b9 72 bd f7 04 e6 bd 3f ca 14 3d
       -0.1997063 -0.059258536 -0.11231416 0.03632569
000340 33 fc f4 3d 80 a4 6c 3c a2 ce 79 bd 28 0d a3 bc
       0.11962166 0.014443517 -0.060988076 -0.019903734
000350 3b be 4c 3c 3e 9b 7e 3d 01 28 14 3e b9 3a fb bd
       0.012496526 0.06215977 0.14468385 -0.1226706
000360 b6 81 a4 bc d0 7d 0a 3d 94 a9 b2 3d 66 d6 37 bc
       -0.020081382 0.03381139 0.08723751 -0.01122055
000370 d4 03 23 3d 57 da 93 bc 8b ad a5 3d d3 39 9f 3d
       0.039798573 -0.018048448 0.08089741 0.07774701
000380 d4 45 98 bc 9a 7d 1d 3b 08 66 22 3d 58 03 7d 3d
       -0.018587984 0.0024031163 0.039648086 0.061770767
000390 ee 80 fb bb 2f db c5 bf e7 55 ea 3c 90 c0 11 3d
       -0.0076752817 -1.5457515 0.028605415 0.035584033
0003a0 ef 71 b1 3c 3d dc 2b 3d a6 98 50 3b af 56 14 3d
       0.021660773 0.041958082 0.0031829267 0.03621548
0003b0 33 e1 8b bd 31 cd b9 3d e8 df f0 bc f5 c4 f1 3a
       -0.06830063 0.0907234 -0.029403642 0.0018445539
0003c0 30 60 15 bd 35 3c 3a 3d 95 05 e4 3b 6b d5 20 3d
       -0.036468685 0.045467574 0.0069586732 0.03926603
0003d0 eb 9e 15 3d e2 ec 30 be 12 c0 7b bb 92 f6 4c bd
       0.03652851 -0.17277864 -0.0038414043 -0.050039835
0003e0 5f dd c1 be 1a 7b 8f 3f 93 03 b4 bb 8f 30 f5 be
       -0.37864205 1.1209443 -0.00549359 -0.4788861
0003f0 db 4f 03 3d 3d 24 94 bd 9e 33 34 bd 9e c1 0f 3d
       0.032058578 -0.072334744 -0.04399454 0.035096757

output.bias f4 [4]
000000 92 ba 94 bb b8 e3 01 bb 71 fb db bb 51 3b 4b 3b
       -0.0045388425 -0.001981957 -0.0067133238 0.0031010697
