FetchPickAndPlace.pth (torch_old, 562156 bytes, 8 tensors)

fc1.weight f4 [256, 28]
000000 f7 48 48 bc 76 3b b5 be fa f1 a7 3d 7c 56 63 3c
       -0.012224427 -0.35396928 0.0820045 0.0138756
000010 f2 aa 73 3e 3b 55 83 bc bf 4b 9f 3e 54 f5 76 3f
       0.23795679 -0.016031852 0.31112477 0.9646809
000020 58 ec 88 be 50 4b d0 bd f4 0e 0d be 01 74 ea 3c
       -0.26742816 -0.10170615 -0.13775235 0.028619768
000030 c2 e5 a4 bd 39 63 a3 3d cc ae 5b 3d 22 84 28 3e
       -0.08051635 0.079779096 0.053633496 0.16456655
000040 3c 71 53 bc c0 d5 19 3c 10 1d 77 bd 27 72 65 3d
       -0.012905415 0.009389341 -0.06033045 0.056017067
000050 d4 aa 18 bb d4 a5 2d 3e dc 58 8e 3d 38 6b cc bc
       -0.002329518 0.1695779 0.06950542 -0.02495347
000060 4b 97 09 3d cc ba a2 3d be fc c6 3e df 6d 73 bf
       0.03359155 0.07945785 0.38864702 -0.95089525
000070 d5 39 a3 be 58 c1 af be 4b c0 ac 3d 50 7a 54 3e
       -0.3188006 -0.34327197 0.084351145 0.20749784
000080 3c 12 e2 be ab c2 9a be f9 8c 01 3e 6b d4 95 be
       -0.44154537 -0.30226645 0.12651433 -0.29263625
000090 9c 64 fc be 6d 63 f0 3a ac 87 bb bb 09 1c 9f bd
       -0.4929551 0.0018340178 -0.0057229605 -0.07769019
0000a0 cd e9 8a bd bf 4f 09 be 3f de 9c bd fa 13 7f be
       -0.06782875 -0.13409327 -0.076595776 -0.24909964
0000b0 2b 8b d8 bd a2 f9 97 3d a9 76 8a bd 3d da 7f 3c
       -0.10573419 0.074206606 -0.06760914 0.015615997
0000c0 27 89 08 be 28 71 6c be de ad 68 bd 4e c9 1b 3c
       -0.1333357 -0.2309004 -0.056806438 0.009508444
0000d0 ed 18 42 bd 5f 5e 08 3e 92 5f bc 3d 44 d9 29 bf
       -0.047387052 0.1331725 0.09197916 -0.66347146
0000e0 fe 74 f2 bc 4c 67 dc be 38 7e f8 3c 75 66 2d be
       -0.029596802 -0.4304756 0.030333623 -0.16933616
0000f0 a0 97 27 3e 05 b7 79 3e 44 a5 37 be f1 33 52 3f
       0.16366434 0.24386223 -0.17934138 0.82110506
000100 86 93 52 3e f0 01 11 bd 34 f7 c3 3d c1 65 81 bb
       0.20564088 -0.03540224 0.09568635 -0.0039488976
000110 82 b2 9f bc bd 1b d2 3c 7a fb 20 bd d0 58 1a 3d
       -0.019494299 0.025647992 -0.039302327 0.037682354
000120 97 e9 9f 3d e2 de 92 3c 35 c4 16 bd 22 da 5c bc
       0.078082256 0.017928544 -0.03680821 -0.013479741
000130 8c c4 c8 bc 00 6b 21 3d 93 f6 cc 3d 37 2c 92 bd
       -0.024507783 0.039408684 0.10007968 -0.071373396
000140 6b ba 10 bd be c3 85 3e e6 bb c6 3e 8b ff e1 be
       -0.035334032 0.26125902 0.3881523 -0.44140276
000150 a5 91 94 bd 93 88 d0 bd a5 80 84 be de 1e 58 be
       -0.07254342 -0.101822995 -0.25879398 -0.21105525
000160 b6 db 0c 3e de 83 af be 07 c5 90 bd f9 66 b7 3e
       0.13755688 -0.34280294 -0.0706883 0.3582075
000170 2a b5 ba 3e 12 ed 26 3e d6 0c 82 3e c6 05 e7 bb
       0.36466342 0.16301373 0.25400418 -0.007050249
000180 70 a2 5a 3d ce f0 7b bb 8b 93 3d bd 51 a3 98 bd
       0.05337757 -0.0038443091 -0.046283286 -0.07453025
000190 b4 1a 23 3e dc 08 41 3d ab 23 84 3c 3a da 8a bc
       0.15928155 0.04712759 0.016130289 -0.016949762
0001a0 a9 35 00 be cf 81 d0 bd 51 da bb 3d 3d 32 d0 bd
       -0.1252047 -0.10181009 0.091725 -0.10165832
0001b0 8d a4 1d 3e 19 7e cd 3d a8 2f 03 bd 5d cb 63 be
       0.15394802 0.10033817 -0.03202787 -0.22245546
0001c0 9e b0 d2 3c d6 f6 30 3d ab 31 f2 3d 44 79 f3 be
       0.025718983 0.04320415 0.1182588 -0.47553456
0001d0 46 47 fa 3a 15 51 dc be 85 21 c6 be 09 1a 08 3e
       0.0019094727 -0.4303061 -0.38697448 0.13291182
0001e0 08 ff ab be 87 d0 2c be 3c f3 3d bd 32 e2 4d 3c
       -0.3359301 -0.16876422 -0.046374545 0.012566136
0001f0 68 3c 28 3c 50 7f 7e 3c 32 77 1e be 31 7d 79 3c
       0.010268308 0.015533283 -0.15475157 0.015227602
000200 36 5f e5 bc 3f 5c c3 3d 89 43 3b bd e6 37 98 bd
       -0.027999502 0.09539079 -0.045718703 -0.07432537
000210 8a b3 1f be ba 66 8a 3c 62 a4 9b bc f7 7e 1c bd
       -0.15595832 0.016894687 -0.018999282 -0.03820702
000220 54 85 86 3b 8a c3 07 3f 2f 6f e9 bd bf 6f 08 3f
       0.0041052494 0.53032744 -0.1139816 0.5329551
000230 d9 55 6d 3e 11 e3 e0 3d 19 d6 93 3d 45 fe 91 3d
       0.2317728 0.109808095 0.0721857 0.07128576
000240 a8 8e b3 bd e5 82 81 bf b4 ac 96 3e a6 42 e4 bc
       -0.08767444 -1.0118071 0.29428637 -0.027863812
000250 ee de 03 be f4 d1 c3 bc a2 c7 ed 3d 8e 65 b1 bd
       -0.1287801 -0.023903824 0.116103426 -0.08661948
000260 fb 17 a3 3d da fa 6f bb e6 33 87 3c 5a e0 d6 bc
       0.07963558 -0.0036618025 0.01650424 -0.026230026
000270 e6 1e 54 bc 6e 60 3e be b0 37 7c 3e 8f 4c cf 3d
       -0.01294682 -0.18591473 0.24630618 0.10122024
000280 e5 3c 20 bb 1d 64 d6 bc c7 9f e9 3d fe 96 ac 3a
       -0.0024450358 -0.026170785 0.11407428 0.0013167558
000290 7d 09 af 3d 90 71 38 3d a6 7c f4 3c ff e7 0a 3e
       0.085467316 0.045030177 0.029844593 0.13565062
0002a0 5e f5 08 be 4c e0 84 bc 41 23 31 3e fb 4c 29 be
       -0.1337485 -0.016220234 0.17298605 -0.16533272
0002b0 89 7e d5 3e 15 44 99 3e e2 fe e0 be 5d 50 91 3e
       0.416981 0.29934755 -0.4394446 0.28381625
0002c0 36 72 cc 3d 42 90 f5 3a af 67 91 3c 9e 10 e9 3c
       0.099827215 0.0018735009 0.017749636 0.028450307
0002d0 17 8d dc bc 90 2b 36 bd 43 d6 10 be 71 53 36 3e
       -0.026922746 -0.04447514 -0.14144234 0.17805268
0002e0 60 97 17 3e 7b c0 55 3d 9f 97 bf 3b e1 23 4b 3d
       0.14803839 0.052185517 0.005846932 0.049594764
0002f0 7c c2 cd bd 7b df 3f 3e d3 05 41 3e d1 5c 10 bd
       -0.100468606 0.18737595 0.18849878 -0.035244767
000300 5e 75 37 3c 2a be 8c 3e 09 1f e8 be c0 d2 e4 bf
       0.011197416 0.27488834 -0.45336178 -1.7876816
000310 26 a8 8f be b8 f0 7d bd c9 85 1b bd 79 b8 c1 be
       -0.28057975 -0.061997145 -0.037969384 -0.37836054
000320 99 9d 16 be 92 6b 88 3e d9 f8 e6 be 23 33 30 be
       -0.14708556 0.2664457 -0.4511173 -0.17207007
000330 9b a9 8b bc 92 58 cd 3b cb 25 67 bd 9b ba 2b 3d
       -0.017048648 0.006266662 -0.056432527 0.041926008
000340 eb 62 79 3c 39 43 16 3b 02 17 45 be 6d c4 a9 bd
       0.015221338 0.0022928251 -0.19247058 -0.08289418
000350 76 52 13 3e 91 e3 3e bd ec cb da bc bd 82 8d bc
       0.14386925 -0.046603743 -0.026708566 -0.017274255
000360 f0 9b 39 be 9d b3 c9 bd a8 10 13 3e f2 31 db 3b
       -0.18125892 -0.09848712 0.14361823 0.0066893036
000370 93 af 10 3d 3c 5f 2e 3f 55 ad 21 3e 27 b8 d6 be
       0.03532369 0.68114066 0.15788777 -0.41937372
000380 e4 16 e9 bd ec b3 4d 3e f6 6f 57 3e c5 fe aa bb
       -0.11381319 0.20088166 0.21038803 -0.005218359
000390 f0 0c c6 3d fb eb 2d bf ab ca 25 be 5e 94 8d 3e
       0.096704364 -0.679382 -0.16190593 0.27652258
0003a0 b2 a4 2b bf 9f ec 7b bd 92 7b e4 bb 6e 66 c1 3c
       -0.6704818 -0.061504956 -0.0069727385 0.023608413
0003b0 e0 2f a2 3e 39 98 64 bd 10 4b c4 bd fa ce 18 bc
       0.3167715 -0.055809233 -0.095846295 -0.009326691
0003c0 b0 03 83 be cd 17 c8 3d b7 83 a2 bd 27 28 ca bd
       -0.2558875 0.09770165 -0.07935279 -0.0987094
0003d0 6d a3 ca bd ea 26 9c 3d 46 a6 23 be b1 23 ca bd
       -0.09894452 0.0762461 -0.15981397 -0.09870089
0003e0 2f 5f 00 3d 0e af 4d bd 32 b4 d9 be 51 bb ff be
       0.031340774 -0.050215773 -0.4252029 -0.499476
0003f0 0b 3a 82 3e 98 41 a7 3e 3e 6e 57 3d 99 6f f8 be
       0.25434908 0.32667232 0.05259537 -0.48522642

fc1.bias f4 [256]
000000 49 3b ad bf 2c 22 aa bf 24 c1 99 3d 6f 14 2b bf
       -1.3533717 -1.3291678 0.07507542 -0.66828054
000010 a7 de 71 be 83 13 91 bf 0a f5 5e bf 7c 0a bc 3e
       -0.23620091 -1.133408 -0.8709265 0.3672675
000020 cb c1 a5 bf f4 6c 4a bf 66 38 b3 bf 58 d1 8c bd
       -1.2949766 -0.790725 -1.4001586 -0.06875867
000030 c6 49 4c be 4d a1 a1 be 3b f1 a0 be c4 41 19 3e
       -0.19950017 -0.31568375 -0.31434044 0.14966494
000040 86 6a 51 bf 91 fa f2 bf e2 e6 25 bf 7b 2e 08 bf
       -0.81803167 -1.8982717 -0.64805424 -0.53195924
000050 0d e6 0a bf ae 55 f9 3e 15 07 6c bf d6 2c 16 be
       -0.5425728 0.4869818 -0.92198306 -0.14665541
000060 db 19 a2 bf 46 b9 ad bf fc 32 9f bf e2 cc e9 3d
       -1.266414 -1.3572166 -1.2437434 0.114160314
000070 ce 39 96 be 22 48 0e bc 81 5f d1 3e 00 2c a7 bf
       -0.29340976 -0.00868419 0.40893176 -1.3060303
000080 e4 23 f6 3e 88 c0 61 bf a3 df 00 c0 40 e1 63 bf
       0.48074257 -0.88184404 -2.0136497 -0.8901558
000090 d8 6d b3 bf e2 1a c7 be 06 dc 38 bf af 99 28 be
       -1.4017897 -0.38887697 -0.7221073 -0.16464876
0000a0 c2 70 71 bf da 86 7e bf 80 ef 11 bf 67 e1 72 be
       -0.9431268 -0.9942452 -0.57006073 -0.23718797
0000b0 ac 52 b0 bf 58 56 51 bf ba cc 1f bf 9d 8c 7f 3e
       -1.377523 -0.81772375 -0.6242176 0.24955983
0000c0 35 2d 0a 3e 94 5c 69 bf 42 4d 74 be 0a b9 20 bf
       0.13493808 -0.9115689 -0.23857597 -0.6278235
0000d0 c2 f3 6b bf 72 47 69 bf d7 87 91 bf 56 df 0f bf
       -0.9216882 -0.9112464 -1.136958 -0.5620016
0000e0 7c ea 81 bf 2c 2b 69 bf 01 f0 82 bf be d0 37 bf
       -1.0149684 -0.910815 -1.0229493 -0.7180289
0000f0 53 58 84 be ab 63 cd bf 39 ee 2b bf 00 10 95 bf
       -0.25848636 -1.6046041 -0.67160374 -1.1645508
000100 40 85 56 bf 0b 67 21 3e 75 47 97 bf ca 3e af be
       -0.83797073 0.15761964 -1.1818682 -0.34227592
000110 3e 73 12 3e 49 2b 63 bf ee 85 58 3f b8 85 06 bf
       0.14301774 -0.8873792 0.8457936 -0.5254779
000120 69 c0 15 bf 44 c4 1b bf 0d 91 52 bf 2b 5d 3a bf
       -0.5849672 -0.6084635 -0.8225258 -0.72798413
000130 40 4a 83 bf 09 32 f6 be 86 03 39 bf 5f 50 41 bf
       -1.0257034 -0.4808505 -0.72271 -0.7551326
000140 1a 8f 44 bf b4 82 9e bf 0f ac 0f bf b3 54 3a bf
       -0.76780856 -1.2383637 -0.56121916 -0.7278549
000150 6f 51 84 bf 29 6f 1e 3f d3 e4 01 bf 7a 98 59 be
       -1.0337352 0.61888367 -0.50739783 -0.21249571
000160 c5 fd 90 bf 67 08 80 3e 99 7e 6d bf 2e b9 d8 bf
       -1.1327444 0.2500641 -0.927713 -1.6931512
000170 c2 58 6c bf 4e 22 99 bf 89 6f 95 be 1a c7 c5 be
       -0.92322934 -1.1963594 -0.29186657 -0.38628465
000180 90 62 0d bf 48 af 78 3f df fe 0e 3f 43 5c c2 bf
       -0.5522852 0.9714246 0.5585765 -1.5184406
000190 4d b0 7b bf 58 e7 41 bf 69 71 65 bf c0 8f 92 bf
       -0.9831589 -0.7574363 -0.89626175 -1.1450119
0001a0 44 ef d0 bf 0f e2 19 bf 63 5e b5 be bd 7c 28 bf
       -1.6323018 -0.60110563 -0.35423574 -0.65815336
0001b0 71 ab 67 bf a6 2f 79 bf 75 68 85 bf f5 2f f3 bf
       -0.90495974 -0.9733833 -1.0422503 -1.899901
0001c0 38 64 b4 bf 9b 38 96 bf 04 b5 e3 be 6e 91 8e bf
       -1.4093084 -1.1736025 -0.4447404 -1.1138132
0001d0 53 f6 d2 bd 0f b2 58 bf 54 9d fb be ae 7d 6a bf
       -0.10300889 -0.84646696 -0.4914347 -0.9159802
0001e0 54 b6 41 3d b1 eb 86 bf 61 c6 78 bf 00 5b ae be
       0.047293022 -1.0540677 -0.971777 -0.34053802
0001f0 20 34 64 bf 24 9b a7 bd 87 1e dc be cc d5 4f bf
       -0.89142036 -0.081838876 -0.4299204 -0.81185603
000200 4c ce 56 bf 99 bb 3c bf 67 03 14 bf e3 f6 1e 3f
       -0.83908534 -0.7372375 -0.5781769 0.6209547
000210 ba 59 db 3e 44 0d 8c bf 05 8b 96 bf 12 79 93 3e
       0.42841893 -1.0941548 -1.1761175 0.28803307
000220 6f 52 37 bf 13 8f f4 3e 62 a7 46 bf 3c 50 4e bf
       -0.7161016 0.47765407 -0.77599156 -0.8059118
000230 2c 9e df be 38 50 e8 be 59 70 14 3e 57 0a 2c bf
       -0.43675363 -0.45373702 0.14495982 -0.6720328
000240 6c 21 96 be 08 2b 48 bf f7 94 ef bf bc 12 04 bf
       -0.29322374 -0.7819066 -1.8717335 -0.51591086
000250 f4 f3 65 bf 4b 72 3e bf 35 3e 45 be cd 64 59 bf
       -0.8982537 -0.7439315 -0.19262011 -0.84919435
000260 ab 0c 89 bf d7 8a 3f bf 38 9c 5c bf 34 26 7d bf
       -1.0706991 -0.7482123 -0.8617587 -0.9888642
000270 9a d5 5a bf b5 fb f3 be de e9 99 be 68 b5 8a bf
       -0.8548218 -0.47652975 -0.3006124 -1.0836611
000280 ba e0 96 bf 65 4e aa be 61 4b bc be 0c 13 94 3e
       -1.1787331 -0.33262935 -0.3677626 0.28920782
000290 fb 2f 63 bf 60 a5 f6 be 49 6b 25 bf 4e 03 92 bf
       -0.8874509 -0.48173046 -0.6461683 -1.1407259
0002a0 1b 88 2d bf c9 6e 20 3f 52 0b 57 bf 4b ea b7 be
       -0.67785805 0.62669045 -0.8400165 -0.3592094
0002b0 03 1e bb bf 20 5a ce bf bc 5c 29 bf 5c 33 99 bf
       -1.4618534 -1.6121254 -0.66157126 -1.1968799
0002c0 f3 85 6f 3e d2 f1 68 bf e3 88 b9 bd 50 0a 58 be
       0.23390941 -0.9099399 -0.09059312 -0.21097684
0002d0 a5 7c 43 bf 48 69 df be 18 48 c3 3e f7 d2 72 bf
       -0.7636207 -0.4363501 0.3814094 -0.94853157
0002e0 5e 85 ab bf a7 02 6d bf 75 bd da bf eb 7a 37 bf
       -1.3400075 -0.9258217 -1.7089068 -0.7167193
0002f0 bf ef da be 88 25 5b bf cb 45 51 bf 26 d2 d8 bf
       -0.42761037 -0.85604143 -0.8174712 -1.6939132
000300 d0 fe c9 3e 35 95 a0 bf 16 b7 a0 be 44 e6 81 bf
       0.3945222 -1.2545534 -0.31389683 -1.0148396
000310 1f 89 76 bf c9 ad 5f bf 4a fd e0 3d a3 ad 8b bf
       -0.9630298 -0.8737455 0.10985811 -1.0912365
000320 12 61 bd bf 38 51 94 bf b1 e3 a4 bf c5 05 31 bf
       -1.4795249 -1.1587286 -1.2881986 -0.6914943
000330 f9 9d 66 bf b1 f7 0e bf 94 e4 72 bf d3 4f 05 bf
       -0.900848 -0.558467 -0.9488003 -0.5207493
000340 f1 06 90 bf 67 33 33 bf 5c 77 d9 be e1 5e e4 be
       -1.1252118 -0.7000031 -0.42473876 -0.44603637
000350 f4 b4 ec be 4b 32 be bf 9d bc e4 be 67 b8 04 bf
       -0.46231806 -1.4859098 -0.4467515 -0.51843876
000360 35 62 d6 be 67 04 e2 bf b9 ea 0e bf 99 f0 ad bf
       -0.418718 -1.7657593 -0.5582691 -1.358905
000370 eb 20 f9 3d dd 72 2a bf d4 54 71 3e 52 14 8f 3f
       0.12164482 -0.6658152 0.23567516 1.1178076
000380 26 42 06 bf a4 e6 6f be 2e 95 99 3e 20 a2 65 3d
       -0.52444685 -0.23427826 0.29996628 0.056062818
000390 d0 b1 08 3f 17 4b 8d bf 24 ac 95 be 42 4a 95 bf
       0.5339632 -1.1038541 -0.29232895 -1.1663287
0003a0 56 17 4d bf 2e 0b 9f bf 85 9a 10 be 88 b4 af bf
       -0.8011373 -1.2425287 -0.14121445 -1.3726969
0003b0 c5 00 80 bf a6 e6 c8 bf 71 18 1e be c6 c1 31 bf
       -1.0000235 -1.5695388 -0.15439011 -0.694363
0003c0 75 f3 7a bf f3 22 a0 bf 70 ea d0 be f5 e1 52 bf
       -0.98027736 -1.2510666 -0.40803862 -0.82376033
0003d0 d5 57 10 bf b1 24 02 c0 c9 8b 33 3f cd ad 69 bf
       -0.5638402 -2.0334895 0.7013517 -0.91280824
0003e0 6a 9a 5c bf 2f c1 23 3f e7 49 8d be e6 26 95 bf
       -0.8617312 0.6396665 -0.27595446 -1.1652496
0003f0 41 6a 1d bf 0d 54 a9 be 52 12 67 bf 16 bc 80 bf
       -0.61490256 -0.33071938 -0.9026233 -1.0057399

fc2.weight f4 [256, 256]
000000 6d a2 30 bd f4 22 d2 bc 7e bf 5d 3c 17 d0 11 bd
       -0.04312365 -0.025651433 0.013534425 -0.03559884
000010 c4 3d 1e bd c9 77 b0 bc cc 1f 80 bd e4 03 48 3b
       -0.038633123 -0.021541493 -0.06256065 0.0030519897
000020 15 e3 c4 bd 5b 75 cc bd ca 20 b6 bc 2a 8f 3e 3d
       -0.09613625 -0.09983321 -0.022232432 0.04652325
000030 36 c5 c5 bc 0e 22 80 bd d9 76 41 3d 72 46 6d bd
       -0.024141889 -0.062564954 0.047232483 -0.05792851
000040 3b 6c 49 bb e0 ae d1 bc d4 82 8e bd b2 7f 98 bc
       -0.0030734676 -0.025596082 -0.06958547 -0.018615577
000050 be eb e9 3c 90 33 c3 bd aa fc ea bd f7 59 c6 bc
       0.028554793 -0.09531319 -0.11473973 -0.02421282
000060 aa 4f d9 bb 52 17 05 bd c9 62 97 bd 2b 30 4d bc
       -0.006631811 -0.032492943 -0.07391889 -0.012523691
000070 b4 6a 53 bd 19 8d 46 bd 44 a8 b7 bc da b3 e7 bd
       -0.051615432 -0.048474405 -0.022419102 -0.11313601
000080 1c cd 4a bd 05 c6 b4 bd 3a de 82 bc 9f 15 1a 3b
       -0.049512014 -0.08826832 -0.015975107 0.0023511422
000090 e5 c0 d5 3c a7 b9 02 be fb 4e 0b bc 53 49 92 bd
       0.026092956 -0.12766133 -0.008502717 -0.07142892
0000a0 6c 73 3c 3d 2f cf ab ba 7f 55 bd bd a5 36 49 bb
       0.046008512 -0.001310801 -0.09244823 -0.0030702737
0000b0 d9 ce 2a bd 74 18 9b bd 41 f5 01 bd f5 04 3c bd
       -0.04170117 -0.075730234 -0.031728033 -0.045903165
0000c0 3c 56 9d bd 30 43 0b 3d 20 a4 e9 bd 94 c8 9b bd
       -0.076824635 0.033999622 -0.114082575 -0.076066166
0000d0 23 d0 93 3c 5e f5 54 bd 97 e5 9e bd 44 87 02 3d
       0.018043583 -0.051991813 -0.077586345 0.03186728
0000e0 0e b1 9d bd d9 1b 0b bd 1b 79 9c bc ca 21 3d 3d
       -0.07699786 -0.033962104 -0.019100716 0.046174802
0000f0 57 bc 07 be ee 98 51 bd bb fc 6c 3d d3 71 a2 bc
       -0.1325544 -0.051171236 0.05785821 -0.019829666
000100 a2 4d 2b 3c 18 c8 2f 3d 40 51 12 3d a6 db 24 be
       0.010455521 0.042915434 0.035722017 -0.16099414
000110 60 96 8c 3d 25 cc 17 3a e6 67 a1 3c 8b cf 0b bd
       0.06864619 0.0005790613 0.019702863 -0.034133475
000120 a8 85 fe bd b3 11 a6 3b b6 57 a3 bd b3 52 88 bc
       -0.12427837 0.005068028 -0.07975714 -0.016640997
000130 7b 33 69 bd 95 0d 49 3d 8d 83 37 bd 0c 76 a0 bc
       -0.05693386 0.04908522 -0.04480319 -0.01958754
000140 a0 c5 59 bd 59 4b 53 3d 3e 34 e7 bd a0 46 68 bb
       -0.053166986 0.05158553 -0.11289261 -0.0035442486
000150 f8 6e be bd d1 d4 24 bb 39 09 c5 bd e0 cf 1d 3c
       -0.09298509 -0.0025151263 -0.096209 0.009632081
000160 cd bb 28 3c 44 20 3a bd ce ce e8 bd da fd 6d bd
       0.010298681 -0.045440927 -0.1136757 -0.05810342
000170 93 e1 58 3d cd c0 f6 bd f1 d6 d8 bc a0 74 83 bd
       0.0529495 -0.120484926 -0.02646968 -0.06418729
000180 76 e4 83 3c 58 96 5c 3c 6f 4b 79 bd 7b 40 c7 bd
       0.01610015 0.013463579 -0.060862955 -0.097290955
000190 15 13 3f 3c e3 8f 14 bc b9 fb 19 bd 1b 99 8d bc
       0.011662264 -0.009067508 -0.037593577 -0.01728492
0001a0 48 76 52 3c 81 7a 8e bc 10 eb 00 bd f5 0c bb bd
       0.012845583 -0.017392399 -0.031474173 -0.09133331
0001b0 48 41 4c 3a 7e 3d eb 39 f5 cb b7 bd b6 f6 b7 bd
       0.000779171 0.00044868508 -0.089744486 -0.08982603
0001c0 e5 0e 2d bd 02 fd ff bd ab f1 dd bd 79 61 17 bb
       -0.042250533 -0.12499429 -0.1083711 -0.002309887
0001d0 1c 98 ed 3c e5 95 ec bd 82 db f5 3b 90 36 a6 bd
       0.029003195 -0.115520276 0.007502974 -0.08115876
0001e0 ca 6b 6e bd 4e 43 77 bc 74 e9 38 bd 60 0d 35 bd
       -0.058208264 -0.01509173 -0.045144513 -0.04420221
0001f0 8a 42 a2 3c 0f 50 38 bd 1b cc 10 bd f0 28 c4 bd
       0.019807119 -0.044998225 -0.0353509 -0.09578121
000200 61 8f 17 3b 9b d6 4f 3d ef c8 6d bd 16 ee 6b bd
       0.0023126232 0.050741773 -0.058052953 -0.057600103
000210 47 2e 3c 3d 71 bf be 39 a4 02 a9 bd 88 a1 02 bd
       0.04594257 0.0003638226 -0.08252457 -0.03189233
000220 3d a6 e0 bc 3e f9 9c 3c 01 84 02 bc cd ac 79 3c
       -0.027423019 0.019161817 -0.0079660425 0.015238953
000230 44 91 d2 bd e8 29 f6 bb 49 39 29 bd 3a 68 bf bd
       -0.102816135 -0.00751232 -0.041314397 -0.093460515
000240 85 77 93 bd 99 69 a6 bd c4 9d 03 bd 18 0a 13 bc
       -0.07200531 -0.0812561 -0.03213288 -0.0089745745
000250 e3 04 43 bb d7 e2 5a 3d db e1 36 bd 07 25 b5 3c
       -0.0029757551 0.053438988 -0.044648986 0.022112383
000260 e6 2e 5e bd 37 ee 07 3d 02 1a b7 bd a6 a5 dd bd
       -0.054243945 0.033186164 -0.089405075 -0.108226106
000270 20 90 46 bd 77 6a 74 bd 79 25 91 3d 7f 81 8e bd
       -0.048477292 -0.059671845 0.070872255 -0.06958293
000280 13 3f 95 bc 16 70 57 bc 49 34 7d bd e9 b1 ce bc
       -0.018218553 -0.013149282 -0.06181744 -0.025231319
000290 bd 26 f6 bd 46 ad c4 bc f6 38 ac bc 5e c7 f7 3c
       -0.120191075 -0.024008404 -0.021023255 0.030246433
0002a0 20 42 dd bd 4c 12 35 bd e6 55 f6 bc fd 2d d0 bd
       -0.10803628 -0.044206902 -0.030070256 -0.101650216
0002b0 ca dd ad bd 54 fd da bd 37 e7 c0 bc 78 29 12 3d
       -0.084895685 -0.1069285 -0.023547752 0.03568408
0002c0 6f 5b 7b 3b e3 46 1c be 8a 18 01 bd 90 c5 e0 bc
       0.003835406 -0.15261416 -0.031517543 -0.027437955
0002d0 c1 9a 6c bd a0 b2 14 bd da 83 f7 bd cf 76 fe bc
       -0.057764772 -0.036303163 -0.120856956 -0.031062512
0002e0 88 ae 55 bd 67 35 01 bd 45 82 b9 bc 15 90 91 bd
       -0.0521684 -0.03154507 -0.022645125 -0.071075596
0002f0 3a 8d 10 be 7c ba 78 bd 0e 9d 0b be dd 24 0f bd
       -0.14116374 -0.06072472 -0.1363413 -0.034947265
000300 91 7f b0 bd 9a f7 dd 3b 02 3a d7 3c ce 33 cb bd
       -0.08618081 0.006773901 0.026272777 -0.0992199
000310 e3 49 47 3b 02 a0 99 bd cd 32 1f be 66 fb 42 bd
       0.003040903 -0.07501222 -0.15546723 -0.047603033
000320 ba 61 c2 bd 90 7d b1 bd 8f 6d 12 bd 3a 03 5f bd
       -0.09491296 -0.08666527 -0.035749014 -0.054446436
000330 83 3a 04 bd 98 d6 cd bc ea 3d 69 bd a9 f9 53 bc
       -0.032282364 -0.02512674 -0.05694381 -0.012937942
000340 96 24 e7 bd 58 d2 23 3d 3a 82 29 bd 7b 0b d2 bd
       -0.11286275 0.03999552 -0.04138396 -0.10256096
000350 2e 82 50 bd 14 fc 33 3c 28 8a e5 bd 09 ab 97 3c
       -0.0509054 0.010985393 -0.11207992 0.018514173
000360 e0 aa a4 bd 8d d6 ad bc a5 a7 07 bd f2 58 04 3d
       -0.08040404 -0.02122047 -0.033118863 0.032311387
000370 b9 b7 1d bd 19 b6 e5 bd 5b 3c 56 bd 72 25 58 bd
       -0.03850529 -0.11216373 -0.052303653 -0.052770086
000380 26 12 9f bb 42 91 a2 3c 62 82 19 bd a2 ce 9a bd
       -0.0048544584 0.019844655 -0.03747786 -0.07558943
000390 b7 38 80 bc 16 9c d7 bd 70 6e 16 bd e7 d3 8f bc
       -0.015652044 -0.10527818 -0.036726415 -0.017557098
0003a0 9b fc 5f bd 7a 60 af bd 8a 1c 21 bc 96 61 1c be
       -0.054684263 -0.08563323 -0.009833464 -0.15271601
0003b0 61 dd 29 bd 5b 68 5c bd c8 b3 c7 bc 3a 35 87 3b
       -0.04147089 -0.05381046 -0.024377719 0.004126218
0003c0 9a 62 53 3c 34 96 b2 bd eb d0 c4 bd 22 6a cb bd
       0.012901926 -0.08720055 -0.096101604 -0.099323526
0003d0 a3 3b 92 bd 3f ca 8d bb 32 a7 3d 3c 08 14 d1 bc
       -0.07140281 -0.004327088 0.011575507 -0.025522247
0003e0 fe 59 bf bd a1 a4 bc 3b cd 73 b1 bc c4 20 7a 3b
       -0.093433365 0.00575693 -0.021661663 0.0038166502
0003f0 2d 30 bf bc 70 8e 44 bd 2f fa 88 3c de 54 07 bd
       -0.023338402 -0.0479874 0.01672086 -0.03303992

fc2.bias f4 [256]
000000 81 e1 c0 bd ac 9a de 3d ea 32 8f 3c fd 05 c3 3d
       -0.094180115 0.10869345 0.017480332 0.095226265
000010 71 ec cc be 98 84 a7 be c7 61 95 3e 31 a8 41 3e
       -0.4002414 -0.32718349 0.2917616 0.18911816
000020 c6 3e 72 3c 8a a1 e0 be 57 83 18 3e 3c 53 3d bf
       0.014785474 -0.43873245 0.14893852 -0.7395513
000030 86 ff dc 3d 96 ef 80 bf 46 44 e0 3e f6 f2 1c 3e
       0.10790925 -1.0073116 0.43802088 0.15327057
000040 a3 9a 0d 3f c9 70 b5 bd e4 ab c3 3e a5 ce ba 3e
       0.5531408 -0.08859403 0.3821708 0.36485782
000050 59 79 e8 3c c2 3f 52 bd 09 d5 c6 3e 6c 2c 41 bb
       0.028378176 -0.051330335 0.38834408 -0.002947594
000060 e8 51 89 3e 33 2d b6 3e 0d fe 18 be a4 cc 83 3d
       0.26820302 0.3558136 -0.14940663 0.064355165
000070 65 e5 b3 3d 91 49 de bd 73 d7 be 3c f8 b3 72 be
       0.08783988 -0.108538754 0.023296094 -0.23701465
000080 fd 1a f5 3e 50 44 85 3e 15 ad 77 be 25 86 a5 3e
       0.47872153 0.2602868 -0.2418712 0.32328907
000090 dd ba eb bd 74 5f 23 3e cc 84 ff bd 2f 19 b0 3e
       -0.11510251 0.15954381 -0.12476501 0.34394214
0000a0 fe 11 19 bf ae a0 2c be d3 40 a2 bd 97 0a 81 3e
       -0.5979308 -0.1685817 -0.079225205 0.25203392
0000b0 e8 78 7b be b8 6c 2a be 96 9d 0e 3f 48 f0 9a 3e
       -0.24557841 -0.16643035 0.5570921 0.30261445
0000c0 7d d5 93 bd e0 63 75 bc ad 64 e2 3c 30 b5 b5 3e
       -0.07218454 -0.014977425 0.027635897 0.35489798
0000d0 45 d8 ab be 73 74 c1 3e e0 6f 58 bf 06 a2 a6 3b
       -0.33563438 0.37784156 -0.8454571 0.0050852327
0000e0 8f 97 b6 3e 37 9e 8c be 4e 60 c7 3e ed 53 00 3f
       0.35662505 -0.27464458 0.38940662 0.5012806
0000f0 29 c1 cf bd 45 a8 96 3e fe f7 23 3e cc 71 07 3f
       -0.10144264 0.29425254 0.1601257 0.52908015
000100 3d 16 87 bd 49 11 97 be b2 15 be 3e 20 46 1c 3f
       -0.065960385 -0.29505375 0.37125927 0.610445
000110 0b 72 fa b8 3e 00 70 be 81 0a 00 3c 74 6f ca 3e
       -0.00011942171 -0.23437592 0.007815004 0.39538157
000120 2f 94 18 3e 3b 17 ae 3e 63 80 60 3e 6c 3c 5f 3e
       0.14900278 0.34002098 0.21923976 0.21800393
000130 f4 3b c2 bd cf 1a 98 bf e6 80 1c bd d4 92 93 bd
       -0.094840914 -1.1883181 -0.038208865 -0.072057396
000140 6b e7 e5 3d 1b ab b9 bf 60 b8 ea 3e 6b bd b5 3c
       0.1122578 -1.4505342 0.45843792 0.022185048
000150 dc df 16 3f 9c 30 9c 3e fe 4d 08 3f 88 09 a7 3e
       0.5893533 0.30505836 0.53244007 0.3262446
000160 ca ae 52 be 9f ec a8 3e 38 71 c9 3e 4c b5 ba b9
       -0.20574489 0.32993028 0.39344192 -0.0003561176
000170 51 b8 6e 3d 45 57 bf be 75 67 28 bf 32 1b ef 3d
       0.058281247 -0.3737127 -0.6578286 0.11675109
000180 0f e7 89 bd 1b 6e 1e be 8b 8a bd 3e 1f b2 12 3d
       -0.06733524 -0.1547169 0.37019762 0.0358144
000190 b8 df 45 3e 3b 64 e4 3d 8f 59 e3 bc 3b e8 b0 bc
       0.19323623 0.1115193 -0.027752666 -0.021595111
0001a0 31 77 ae 3e 58 b9 db bd 39 19 5a 3c ed 5e a3 bf
       0.3407531 -0.10728711 0.013311678 -1.2763344
0001b0 9c 59 03 3e 55 5a 9e be 76 30 24 bf 15 d5 ca bc
       0.12827152 -0.30928293 -0.64136446 -0.024759809
0001c0 b4 8a 6c bd 71 13 1a 3d 1c f8 d0 bc 65 44 01 3f
       -0.057749465 0.037616197 -0.025508933 0.50494987
0001d0 a5 e9 39 3d a8 68 be bd de f8 04 3e f5 db 1d 3f
       0.045388836 -0.09297305 0.1298556 0.6166375
0001e0 92 6b 15 3b a0 13 86 bd 1b 33 da 3c 60 d9 6d bf
       0.0022799713 -0.06546712 0.026635697 -0.9290981
0001f0 d0 fe 97 bc f3 81 f5 3d a8 81 e0 bd 02 0e 95 bc
       -0.018554121 0.119876765 -0.1096223 -0.018195156
000200 34 10 a8 be 66 7a a4 3e fd 2f a1 3c af 04 cf be
       -0.32824862 0.32124633 0.019676203 -0.4043326
000210 13 51 23 bf 37 29 50 3e 54 ea 67 be 01 1d 63 3d
       -0.63795584 0.20328222 -0.22647983 0.055447582
000220 1b 0c 1b 3f b7 0d d2 3d 4a b8 d1 bb d3 24 4d 3d
       0.60565346 0.10256522 -0.006400143 0.050083946
000230 fb be 97 bc d2 7f 26 be ef b4 f1 3d b6 63 99 bf
       -0.018523684 -0.16259697 0.118020885 -1.1983554
000240 78 f0 9c bd 96 1f a9 be 1e f3 4b 3e ad d2 48 bf
       -0.07663053 -0.3303191 0.1991696 -0.78446466
000250 f6 6a a2 3e 9e 42 f4 3d 43 a4 9f 3e 3a 1d 5b be
       0.3172223 0.11926769 0.3118001 -0.21397868
000260 82 9f 00 bf 64 54 09 3e fc 89 9b 3d 60 66 82 be
       -0.5024339 0.13411099 0.07594678 -0.2546873
000270 a0 45 6b 3e b2 5a 08 be 72 9a 82 bd 55 ad 47 3e
       0.22975779 -0.13315848 -0.06377114 0.19499715
000280 0c 9e c7 bd 2e b7 37 bd e5 8c ac 3d 6e d8 87 3e
       -0.09746942 -0.04485243 0.08425311 0.2653231
000290 db 93 09 3f b2 06 2d bd 04 10 f6 bf 38 2a 08 be
       0.53741235 -0.042242713 -1.9223638 -0.13297355
0002a0 cf 5f e8 be 6b e9 05 be c5 b5 b4 bf 1c ff 6f bf
       -0.45385596 -0.13077323 -1.4117972 -0.9374864
0002b0 a6 c4 f4 3d fe 14 cc 3e b6 f6 70 bf 87 cc 21 3f
       0.1195157 0.39859766 -0.9412645 0.6320271
0002c0 f7 c8 73 bd cb 08 57 3e 53 3f 83 bc 0c 1f 23 3e
       -0.059517827 0.20999448 -0.016021406 0.15929812
0002d0 bb b0 13 3f 88 ae bd 3c 41 d9 85 3d dd aa 63 3e
       0.57691544 0.023154512 0.065355785 0.22233148
0002e0 a2 db 49 bd 3a c5 8e 3e ca 7d 92 3e 79 bf 8f bd
       -0.049281724 0.27884847 0.28611594 -0.070189424
0002f0 9d 9b 12 3e e9 10 67 be 3b cb 0e be 81 d5 20 be
       0.14317174 -0.22565044 -0.13944714 -0.15706445
000300 99 85 e1 3c d6 4b 92 3e d1 40 4a bd ce a1 02 bf
       0.027529525 0.28573483 -0.04937822 -0.51028144
000310 64 3b b3 bd 0d 3b 59 bd c1 47 55 3c 59 bd 95 bd
       -0.08751562 -0.05303483 0.013017596 -0.07311506
000320 25 3b b8 3d f2 28 b6 be 8d e8 87 3e 13 a0 93 be
       0.08995656 -0.35578114 0.2654461 -0.28833064
000330 3f e0 4f be 05 21 20 3e 32 28 ea 3d 8d ac f5 bb
       -0.20300387 0.15637596 0.11433448 -0.0074973763
000340 3c 4f 01 3d c1 c3 2d 3b e4 5e fa 3e f0 bc 2e be
       0.031569704 0.0026514383 0.4890052 -0.17064261
000350 ac 39 25 3c fe b4 83 bd fb 15 c1 bd fd b8 c2 3e
       0.010084551 -0.06431006 -0.094280206 0.3803176
000360 30 b4 08 bf 1b 09 09 3a 4f 57 1e bf 89 2f 61 be
       -0.53399944 0.0005227492 -0.6185197 -0.2199079
000370 9d fe 13 be d4 3c f7 3e 19 61 ce 3c a0 08 70 3d
       -0.14452596 0.48288596 0.025192784 0.058601975
000380 bb bd 77 3e 6d af 63 be a0 24 a4 be ae 36 8b bd
       0.2419347 -0.22234888 -0.32059193 -0.06797539
000390 e7 f4 07 be 91 2a 5a be 84 e2 5b bc 53 97 41 be
       -0.13277017 -0.213053 -0.013420705 -0.18905382
0003a0 12 df 28 3f 52 f3 c2 bf c9 6a 01 3e 3f 51 c3 3e
       0.6596538 -1.5230505 0.12638392 0.38147923
0003b0 06 3c af bd 1b cd 8b 3e 63 c9 6b 3e 1e 4f db bd
       -0.085563704 0.2730492 0.23026042 -0.1070845
0003c0 80 17 d7 3e 09 01 15 bd ed 74 86 3d c3 7e 0a 3e
       0.42010117 -0.03637794 0.065652706 0.13524918
0003d0 ea 3d a4 3d ff 38 e4 bc 95 90 0d be 55 39 b6 3e
       0.08019622 -0.02785921 -0.13824685 0.35590616
0003e0 7a 2c 3a be 9c 36 80 3d 7c d6 ba 3d 2f 32 73 3e
       -0.18181029 0.06260416 0.09122941 0.23749612
0003f0 be 5b ec be da 82 85 bf 52 bc 48 bf f7 23 c2 bf
       -0.46163744 -1.0430558 -0.78412354 -1.5167226

fc3.weight f4 [256, 256]
000000 0a 3c 84 3d 2c e4 75 bd 6a 4a d8 bc 90 05 ff bc
       0.06456764 -0.060032055 -0.02640267 -0.031130582
000010 c3 03 01 bf a1 79 b6 3d a7 02 e8 be 63 15 b0 be
       -0.50396365 0.089099176 -0.45314524 -0.34391317
000020 12 b3 87 be c3 ab ea bd c1 88 88 3e be 8f 2e be
       -0.26503807 -0.11458542 0.26666835 -0.17047021
000030 bd d5 89 be 8c c5 d4 3d 9a d4 0c 3e bb e8 8a bd
       -0.26920882 0.103892416 0.13752976 -0.06782671
000040 6f 6f da be 62 5e 14 bf de 4a 29 be f4 80 a7 be
       -0.42663142 -0.57956517 -0.16532466 -0.3271557
000050 cd 82 61 be 57 e8 b1 bc ea 34 a2 3e a7 a7 25 bf
       -0.22022553 -0.021717234 0.31680995 -0.6470894
000060 ae ae 39 be bd 23 15 bd d2 b6 56 3e b8 be 26 bf
       -0.18133041 -0.036411036 0.20968178 -0.65134764
000070 9a 4e 39 3e 71 c0 5e bc 9c e8 c7 3c b2 ec ea be
       0.1809639 -0.013595686 0.024402909 -0.4588371
000080 eb f0 2d bf 41 20 5d be ff 37 0a be 31 df c7 bd
       -0.67945737 -0.21594335 -0.13497923 -0.09759367
000090 b3 9b a5 3d 87 1c 3d bd 65 e5 24 3d 4b fb df bd
       0.08086338 -0.046169784 0.04025783 -0.10936602
0000a0 90 e8 30 3e 74 e6 2e bf 45 41 a1 be 0e b8 73 3e
       0.17276216 -0.68320394 -0.3149511 0.2380068
0000b0 b3 23 14 bf 42 41 54 bd 8e 51 15 3e 62 51 82 3e
       -0.5786697 -0.051820047 0.14581892 0.25452715
0000c0 23 06 48 3e c4 4e 51 3d 02 11 8c be 70 e1 6f bd
       0.19533591 0.051100507 -0.27356726 -0.058564603
0000d0 ca ee 11 be a0 e7 a3 bd e7 4c b4 3d 87 a9 4b 3e
       -0.14251247 -0.08003163 0.088037305 0.19888888
0000e0 74 b7 a3 be 93 9e 18 3e ed 7b de be a6 6d db be
       -0.319759 0.14904241 -0.43453923 -0.42857093
0000f0 f0 fb 74 3d 85 7f 71 bf 17 41 4e be d4 8e 94 be
       0.05981058 -0.94335204 -0.20142017 -0.2901522
000100 1b 70 b9 be a9 a7 1a bf 16 c4 b6 be 1a 51 d6 3c
       -0.36218342 -0.6041208 -0.35696477 0.02616172
000110 00 b7 a5 be cd 09 97 bc 27 34 65 bc ca 5c 9d 3e
       -0.3236618 -0.01843729 -0.013989485 0.30734855
000120 63 a3 dd bd 71 f2 9e 3d df 85 0c 3d 7b 12 d9 be
       -0.10822179 0.07761086 0.034307357 -0.42396912
000130 57 d6 7f 3d e6 bc b2 be 20 46 6b be 6d 6b 1c 3e
       0.06246027 -0.34909743 -0.2297597 0.15275355
000140 a5 eb 0d bf 58 d6 a3 be e5 c8 14 be fc fe 3f be
       -0.5543769 -0.3199947 -0.1452976 -0.18749613
000150 2a 43 0a be 04 2e ce be b7 69 44 bf 77 65 0a bf
       -0.13502184 -0.40269482 -0.7672381 -0.54061073
000160 db b6 d5 be 99 6f f4 3e d5 e3 86 3e 0b 25 2d 3e
       -0.4174107 0.47741392 0.26345697 0.16908662
000170 74 a6 2c bd 2e 28 4e be 86 17 5d be e6 cf 9c bd
       -0.04215093 -0.20132515 -0.21591005 -0.07656841
000180 71 24 02 bc 88 8f a5 be e0 5e 87 bf 34 48 c9 bd
       -0.007943259 -0.32336068 -1.0575829 -0.09828225
000190 cc e3 46 be 22 77 86 be 24 3d 86 bb b6 65 54 be
       -0.19422835 -0.26262766 -0.004096644 -0.20741925
0001a0 04 94 87 3e 5a 6e f3 bc 2c 92 44 3d f4 9a 3e bf
       0.26480114 -0.029715706 0.047990963 -0.7445519
0001b0 b2 82 a7 be 05 7e 48 3e 45 5f 03 3e aa 68 09 bf
       -0.327169 0.19579323 0.12829311 -0.5367533
0001c0 dd 97 a4 3b f7 87 64 be 64 b6 03 3d 87 67 7d bd
       0.0050229863 -0.22317491 0.032156363 -0.06186631
0001d0 f6 71 ef be 66 70 4c be 35 26 89 bf e8 c2 a2 3e
       -0.46766633 -0.19964752 -1.0714785 0.31789327
0001e0 66 f7 0b bc ea b4 11 be fe 35 d1 bb f4 f2 66 3d
       -0.008542871 -0.1422917 -0.00638461 0.056384042
0001f0 fe d4 7f be 79 49 ab be ed a8 3b 3d cc 0e 36 bd
       -0.24983594 -0.33454493 0.045815397 -0.044447705
000200 94 92 09 bf 70 08 06 bf 85 df d1 3c 6b fc f1 be
       -0.53739285 -0.52356625 0.025619278 -0.47262892
000210 05 eb 9f 3c aa a0 27 bf 16 fc 8e be 26 24 8a be
       0.019521246 -0.6547953 -0.279267 -0.26980704
000220 ab d5 ce be 1e b6 87 bc 8a 8e 55 bd b5 c3 b3 be
       -0.4039739 -0.016566332 -0.05213789 -0.3511025
000230 02 de 0e bd c6 33 d7 bd 3b 69 ae be fd ee be be
       -0.034879692 -0.10507922 -0.3406466 -0.3729171
000240 2f 85 1f 3c d2 4d 1e 3e 8b 34 98 be 35 e8 06 be
       0.009736343 0.15459374 -0.29727587 -0.13174517
000250 b7 6b db 3d 88 04 98 be b4 40 af 3d 9e 0c 75 3e
       0.10713904 -0.29690957 0.08557263 0.23930594
000260 38 23 37 bf 7e a3 6d be 64 6c cf be a8 29 88 bf
       -0.71538115 -0.23206899 -0.40512383 -1.0637712
000270 3a 9c aa bb 25 5a 22 3e f4 55 63 3d 48 b3 cc bc
       -0.005206612 0.158547 0.055501893 -0.024987832
000280 72 33 8c bc f2 b6 bd 3b 5b 83 b7 3e 68 45 ed be
       -0.017114375 0.005789631 0.35842404 -0.46342015
000290 8c e5 5f be 85 dc 55 3d 6d e1 11 bf 14 c8 3e 3d
       -0.21864909 0.052212257 -0.569846 0.046577528
0002a0 8b 15 0d bc 0a ec 68 be 49 5d 97 be 7b 12 05 bf
       -0.008611093 -0.22746292 -0.29563358 -0.51981324
0002b0 df c5 de 3d 4a 17 13 3d d0 48 14 bf ef 94 20 be
       0.10877585 0.035910882 -0.57923603 -0.15681814
0002c0 15 40 c9 3b 6f ef e7 be d9 b7 a7 ba 8c c1 e5 be
       0.0061416724 -0.4529986 -0.001279588 -0.44874227
0002d0 2b ec 1c 3e b2 4a 63 be 88 f7 fe be 9a 9d be be
       0.15324466 -0.22196463 -0.49798226 -0.37229615
0002e0 cf a2 59 bc 90 fd e9 bd 55 5f 76 be f6 45 2a 3e
       -0.0132834455 -0.11425316 -0.24059804 0.1662825
0002f0 fc a7 bb be 0d 0e e2 be a0 b5 c5 bd 8e 09 d1 be
       -0.366516 -0.44151345 -0.09653783 -0.40827602
000300 60 46 37 3d cd 15 93 be 2d fb db be 90 6c b9 bd
       0.04474485 -0.2872757 -0.4296507 -0.0905391
000310 c2 16 bd 3c dc 7a 32 3d f0 f2 e9 be 2e 44 22 bd
       0.02308214 0.0435742 -0.4569316 -0.039615802
000320 a9 67 f4 3d 93 1c 6c 3e 8c 09 63 bf e8 c5 6d be
       0.11933834 0.23057775 -0.8868644 -0.23220026
000330 da 11 49 be c1 1a d0 3e 52 7c e5 be 8c 24 75 be
       -0.19635716 0.40645412 -0.4482141 -0.23939723
000340 75 2f 31 bf c4 6a a9 be 42 87 30 3e 7a 16 64 be
       -0.6921304 -0.33089268 0.17239097 -0.22274199
000350 8d 2a f0 bc 18 f6 94 3c b3 eb e6 be 01 ea 65 be
       -0.029317165 0.018183753 -0.451017 -0.22452547
000360 01 9f 5d be 13 01 5e bd 20 cb ae bf 7f a6 54 be
       -0.21642686 -0.054200243 -1.3655739 -0.20766638
000370 77 b1 8a bc cd 3b 87 3d 27 d7 fe 3c 4e 21 47 be
       -0.016930325 0.06603203 0.031108452 -0.19446298
000380 da e4 83 3e b6 4f 01 3e 3d eb ee be 59 b7 83 3c
       0.25760537 0.12628064 -0.46663848 0.016078638
000390 4d 37 67 bd 0f 41 69 3c c8 82 61 3d ee 76 a9 bd
       -0.056449223 0.014236703 0.055056363 -0.08274637
0003a0 36 03 f7 be bb 21 90 be f7 ba 35 bf 79 e6 d6 be
       -0.48244637 -0.28150734 -0.7098841 -0.41972712
0003b0 e9 f3 24 be 5a 47 b8 be 72 d4 3f bd 4c 22 19 bf
       -0.1610867 -0.35991937 -0.046833463 -0.5981796
0003c0 1a 49 22 3e 51 5f da bd 49 3f 5d be 5a 52 09 bf
       0.15848199 -0.106627114 -0.21606173 -0.53641284
0003d0 bd 1f b2 3d 9f dd bf bc 60 ef 36 bf ef ff 02 bf
       0.0869746 -0.023421107 -0.7145901 -0.51171774
0003e0 19 cb 02 3e ce 91 29 bf 6d bd 0c bf 69 35 a5 be
       0.12772788 -0.66238105 -0.5497654 -0.3226731
0003f0 5d 2b 06 3f a2 7d 4e 3e 70 4c 0c bf 0a a7 07 bf
       0.5240992 0.20165113 -0.54804134 -0.52989256

fc3.bias f4 [256]
000000 51 40 6b be 67 05 1b bd 97 af 3e be 15 ae 4e be
       -0.22973754 -0.03784695 -0.1862167 -0.20183595
000010 fa 93 58 be a6 b9 28 3e ac a2 a5 3e 04 ac 14 be
       -0.21150199 0.1647707 0.3235067 -0.14518744
000020 8d 2b 09 3e a9 62 02 bf 1f 05 dd 3e 3f db c8 3e
       0.1339552 -0.50931793 0.4316797 0.39229771
000030 5c cc 71 be 47 14 02 3f d0 8f 59 bd 2b a5 0e 3f
       -0.23613113 0.5081219 -0.053115666 0.55720776
000040 dc 6a 03 be 96 65 75 3e 25 53 58 3d a7 cb 1d 3e
       -0.12833732 0.23964533 0.052813668 0.15409718
000050 5c 23 f7 3e 14 bf 79 3e cb b6 41 be e7 a1 1d be
       0.48269165 0.24389297 -0.18917386 -0.15393792
000060 f5 90 9b 3e 29 fd 5f be 7b 84 be be b1 b1 c7 bb
       0.3038403 -0.21873917 -0.3721045 -0.0060941805
000070 8c 1e 10 3f f4 03 aa be 13 b9 01 bf 32 10 cc bd
       0.5629661 -0.3320614 -0.50673026 -0.099640265
000080 0a ff b5 3e a2 f5 d4 3e 33 ef 9e be e5 3c ef bd
       0.35546142 0.41593653 -0.3104187 -0.116815366
000090 79 62 54 be 86 7c 10 3f c1 08 ab be c8 5b 8e 3e
       -0.2074069 0.5644001 -0.33405116 0.278044
0000a0 13 91 0b bf 86 b6 bd 3e 39 f5 84 3d 67 3f 85 be
       -0.5451824 0.37053317 0.06492085 -0.26024935
0000b0 35 26 3b 3d 25 2a ce bc a0 77 d1 3e 42 27 d9 be
       0.045690734 -0.02516658 0.4091158 -0.42412764
0000c0 dd ca 3a be 06 c1 a4 be 38 07 49 3f aa 2b d3 bd
       -0.18241449 -0.32178515 0.7852664 -0.10311063
0000d0 e8 ff aa 3c ac 49 2c 3e 93 8a 15 be bc d3 86 bd
       0.020873979 0.16824979 -0.14603643 -0.06583354
0000e0 27 0b 63 be 19 01 fd 3c 3e e4 7b be 8b 64 4f 3e
       -0.22172223 0.030884312 -0.24598786 0.20253198
0000f0 fe d2 84 3e d6 39 c5 be 8a f6 84 be 5a b8 cf 3e
       0.25942224 -0.38520688 -0.25969344 0.40570337
000100 29 d6 8d be 01 26 82 3e 68 4e 04 3c 30 a4 7a 3d
       -0.27702454 0.2541962 0.008075334 0.061191738
000110 dd 7d 48 bc 80 7d 13 3f 16 ac 4d be 08 50 b9 be
       -0.012237039 0.5761337 -0.20085177 -0.36193871
000120 7a 4d ca be a2 6d 72 be b1 19 c1 3e 65 00 e0 be
       -0.39512235 -0.23674634 0.37714913 -0.437503
000130 16 e3 10 be eb ea 00 3f 35 69 41 3e 18 8c d1 be
       -0.14149126 0.50358456 0.1888779 -0.40927196
000140 4b 63 0d bf 70 d9 94 be 37 e9 34 3d ba f3 35 be
       -0.55229634 -0.29072142 0.044167724 -0.17768756
000150 6e 8b be 3d 71 77 2f 3e e6 f3 04 be 50 e0 62 3e
       0.09303938 0.17135407 -0.12983665 0.22155881
000160 be 05 6e 3e 90 05 51 be fc 66 b5 be f1 07 58 3d
       0.23244378 -0.20412278 -0.35430133 0.05274195
000170 ef cf 9e bd fc 18 18 3e 03 d8 21 bd f4 45 d8 3e
       -0.07754504 0.14853281 -0.039512645 0.4224087
000180 b9 1f 47 be 1d a3 8b be ef fe 55 be 91 a2 9f be
       -0.19445695 -0.27272883 -0.2089803 -0.31178716
000190 ad 26 90 3d 72 ef a3 be 30 1d cb bc 64 f4 9d ba
       0.07038627 -0.3201862 -0.024794191 -0.0012050983
0001a0 13 90 6f 3d 6b 78 e4 be e0 05 87 3e a0 9e 7a be
       0.05848701 -0.44623122 0.2637167 -0.24474573
0001b0 46 02 dc 3b 0d 89 02 bf 50 48 9b bd f1 4b 77 be
       0.006714138 -0.5099037 -0.07582152 -0.24150063
0001c0 68 3c 15 3f 30 29 08 bf 7e e0 a0 3d 38 19 88 be
       0.582953 -0.5318785 0.078553185 -0.2658174
0001d0 30 3c 8d 3e 25 72 f2 3e f8 a2 83 3e 7f 31 1a 3f
       0.27584982 0.4735271 0.25710273 0.60231775
0001e0 5e ea c9 3e 2b c0 7f be 7f 85 82 3f 44 8a cf be
       0.3943662 -0.2497565 1.019699 -0.40535176
0001f0 5c e4 21 be 78 c4 be bd 62 d9 ed bd 64 db 45 bd
       -0.15809768 -0.09314817 -0.11613728 -0.04830493
000200 18 7c 3f bd 99 7f 04 bf 3a 68 21 3f c7 f4 68 bd
       -0.046749204 -0.517572 0.6304966 -0.056874063
000210 e7 ba fb bd ee 19 a0 3d 7a 68 1e 3e 2a 7a 4c bf
       -0.12291508 0.07817446 0.15469542 -0.7987391
000220 86 c3 e5 be 01 37 1a 3e 8b 18 45 be e2 ce 01 3f
       -0.44875735 0.15060045 -0.19247644 0.50706303
000230 9d 78 c3 be 7c 38 49 be 89 89 94 be 5b e6 d9 bd
       -0.38177958 -0.19650453 -0.2901118 -0.1063964
000240 6a 29 e0 bd e3 3c a7 be e0 ca 21 3f 82 47 f0 3d
       -0.10945399 -0.3266364 0.6320019 0.11732389
000250 f4 01 c9 3e b0 9d 11 bf 1d f7 d0 bc 4f 59 4d be
       0.39259303 -0.5688124 -0.025508458 -0.200536
000260 e9 5c f6 bd bc 2a 5e 3d 1a 83 33 be a9 11 a7 bd
       -0.1202944 0.054239973 -0.1753048 -0.08157665
000270 77 ed 21 3e d8 f5 49 3e 00 11 41 3e fa e9 da 3d
       0.15813242 0.19722688 0.18854141 0.10689159
000280 29 28 c2 be 49 78 54 3c 4c 18 11 be 0c ab fc 3e
       -0.37921265 0.012968131 -0.14169425 0.49349248
000290 7d 4a 2a bd fc 6e e8 3d c7 4c ac 3e 5d 88 d8 3e
       -0.041574944 0.113492936 0.33652326 0.42291537
0002a0 dd f7 51 3d 10 6b 9f bc 9e e1 4e ba 48 5e 86 be
       0.05126177 -0.019460231 -0.0007891896 -0.26243806
0002b0 2a cc 99 be 6b 68 21 3e 6e a0 a9 be bd 9b 65 3d
       -0.30038577 0.15762489 -0.3313021 0.056056727
0002c0 55 94 07 3f fc 60 70 be ea 3e 1d 39 68 7b 10 3f
       0.5296071 -0.23474497 0.00014996124 0.56438303
0002d0 2f 3b 92 bd d4 ad 99 3e 6c b0 cf be 25 99 be be
       -0.071401946 0.30015433 -0.40564287 -0.37226215
0002e0 95 f6 4b 3e 5a 41 e1 3e 42 4d a1 3e a2 50 a3 3d
       0.19918282 0.43995172 0.31504256 0.07974364
0002f0 b6 61 1c 3c 66 97 93 3c 25 38 0d bf 9f de 37 be
       0.0095447805 0.018016528 -0.55163795 -0.17956017
000300 c4 97 8c 3e 8a df d6 3e f0 37 a1 bd 92 41 04 3f
       0.27459538 0.41967422 -0.07871997 0.5166255
000310 11 21 87 3e 9f 7f 57 be 3e 1f a7 be 29 35 c6 3e
       0.26392415 -0.21044777 -0.32641023 0.38712433
000320 f1 87 b5 bc 36 6d 55 bf 3e 3c eb be 2c a8 ba 3e
       -0.022159548 -0.8336977 -0.459444 0.3645643
000330 ab c1 96 be 7b 77 f8 bc 03 2c 6a 3e c1 25 02 3f
       -0.29444632 -0.03033041 0.22868352 0.5083886
000340 66 be 32 be 79 21 08 bd 5a 18 46 3d 14 eb 6e 3c
       -0.17455444 -0.033235047 0.048363067 0.014582414
000350 9a ea b9 3e 56 bd 6a 3e eb a1 03 3d 9f 85 20 be
       0.363118 0.22923788 0.03213684 -0.15675972
000360 67 07 b0 3e 11 86 ea bd 26 70 65 be 14 79 b4 be
       0.34380648 -0.114513524 -0.22406062 -0.35248625
000370 d5 41 89 be b0 c5 c6 3e 3f 25 e3 bd 05 56 9c 3e
       -0.26808038 0.388227 -0.110910885 0.30534378
000380 1f 36 80 be 3d 28 ec 3e 42 10 d5 3e fc 81 fc bd
       -0.2504129 0.4612445 0.41613966 -0.1232948
000390 a6 86 1f 3e d0 74 fb be d7 7d 49 3e 8d 2d b8 be
       0.15578708 -0.49112558 0.1967691 -0.35972252
0003a0 76 a3 c6 3e ec 15 26 3f d8 b7 4b 3e 41 2f 7a 3e
       0.38796586 0.648772 0.1989435 0.24432088
0003b0 02 50 2a 3d c4 51 f4 bd bc 81 56 3e aa 07 8e be
       0.041580208 -0.11929658 0.20947927 -0.27740222
0003c0 4f 41 32 be 56 2f f1 be ab 25 f5 3e b3 5b 76 3e
       -0.17407726 -0.47106427 0.478803 0.24058418
0003d0 9d 5a b2 bd 3b c2 63 be 24 0a ed 3e 31 51 80 be
       -0.08708689 -0.22242062 0.462968 -0.25061944
0003e0 4c d0 84 bd a1 b3 b7 be 52 61 34 3e 01 b1 73 be
       -0.06485042 -0.35879233 0.1761525 -0.2379799
0003f0 d6 90 57 be 12 d3 4a 3e 90 7b a7 be f0 19 f4 3d
       -0.21051344 0.1980708 -0.32711458 0.1191901

output.weight f4 [4, 256]
000000 98 fc a1 bd 88 c3 5f 3a d2 36 9f bd 9a 2a 02 bc
       -0.079095066 0.00085359113 -0.07774128 -0.007944727
000010 41 5f 9a bd 1b 18 c2 bb 73 ea c5 3b c9 2d 0c 3d
       -0.075376995 -0.0059232838 0.0060399114 0.03422335
000020 36 e9 09 3d 37 c5 a3 bc 78 f6 ad 3d a7 b9 af bd
       0.033669673 -0.0199915 0.08494276 -0.08580332
000030 6f a6 88 bd bd a5 a2 bd 05 4b 37 3e b8 64 6e 3d
       -0.0667237 -0.07941768 0.17899711 0.05820152
000040 64 09 8d 3a bd 6f 31 3d 54 70 6d bd 43 21 12 3e
       0.0010760245 0.043319453 -0.057968453 0.14270501
000050 b4 aa 6e bd a8 11 3b bb b5 96 c9 bc 42 1d 60 3d
       -0.058268264 -0.002854446 -0.024607996 0.054715402
000060 3f 68 b7 3b af 6a 1b bf a9 99 35 be fd eb ba 3d
       0.005597144 -0.6070966 -0.17734398 0.091270424
000070 7d b4 ed 3c 90 f8 8a bc e6 57 44 bc 93 88 24 3d
       0.029016728 -0.016964227 -0.011983847 0.04016931
000080 77 2d aa 3d 05 97 39 bc 3c bd 8a 3c 4b e7 f2 3d
       0.08309453 -0.01132751 0.016935937 0.11860522
000090 4e 17 e5 3d b5 5a 4b 3d 30 ea 82 bc af 60 14 3d
       0.11186086 0.04964705 -0.01598081 0.036225017
0000a0 c9 ff 8c 3f 5f 05 cd bc 19 d1 b6 3c 7e 56 01 3d
       1.101556 -0.025026975 0.022316502 0.031576626
0000b0 84 a6 39 bd f4 b5 2c 3c 6c 10 86 bc ff d8 19 bf
       -0.045324817 0.010541428 -0.016365252 -0.60096735
0000c0 68 e0 aa be 84 a7 23 3d 0e 62 e0 bc 32 03 6f be
       -0.33374333 0.039954677 -0.027390506 -0.23341063
0000d0 d3 25 c1 bc 22 4b 31 3c 25 d9 b8 bd a5 de 48 be
       -0.023577606 0.010821136 -0.09025792 -0.19616182
0000e0 c9 90 35 3d 81 e2 8d bc 70 fe 64 be ab 4a ed 3c
       0.04432753 -0.01731992 -0.22362685 0.028966269
0000f0 3c 67 a6 bd aa e6 47 bd 49 78 d8 3d 59 ce bb 3c
       -0.08125159 -0.048803963 0.105698176 0.022925543
000100 d6 84 fd bd a0 d6 58 3d 8e f1 a6 bc c8 3b ac 3d
       -0.12378852 0.052939057 -0.020378854 0.0840984
000110 0c 44 17 3e eb b0 9d ba a4 ed 1c 3d e4 ca 9f be
       0.14772052 -0.0012030875 0.03831257 -0.3120948
000120 e0 f6 5a 3c 56 2c d5 3c 8d 6d a8 bc a2 f8 b3 3e
       0.013364524 0.026022118 -0.02056005 0.3515063
000130 da 10 e9 be 7e d4 32 bc d3 21 19 3e e3 6f 23 bf
       -0.4552067 -0.01091492 0.14954309 -0.638426
000140 56 91 77 bf ca 9f 84 3d 2b 6d c6 bd 9d f8 b3 3d
       -0.9670614 0.0647579 -0.09688791 0.087876536
000150 4e 48 e7 bd 4c 38 27 bd 19 7b 04 be 66 55 0f bd
       -0.11293088 -0.040825173 -0.12937583 -0.03499355
000160 f7 38 8a 3d 26 fa e6 3c 3f 94 0b 3d 97 a2 0b 3d
       0.067491464 0.028195452 0.034076925 0.034090605
000170 ee e0 39 3d 9d 38 5d 3d a9 f7 09 3d 69 f9 c3 bb
       0.045380525 0.05400907 0.033683453 -0.0059806597
000180 e9 5c a7 3d 7b da 3f b9 3e 39 ed 3c 72 f3 22 3f
       0.08172018 -0.0001829657 0.02895796 0.6365272
000190 5f 23 91 3c cd fe 49 bf 3f 77 75 bc 67 11 ae bc
       0.017717062 -0.7890442 -0.014982044 -0.021248532
0001a0 01 ff ba bc f6 c6 c0 bc 91 2a 86 bd da 50 ee 3c
       -0.022826673 -0.023532372 -0.06551088 0.029091287
0001b0 6d 54 de 3c 57 9e 90 3a 40 93 ee bc e5 fd 82 3d
       0.027139867 0.0011033517 -0.029122949 0.06396083
0001c0 ef b5 63 3c b3 64 a3 bc 85 d7 4b 3d d3 90 9f 3d
       0.013898357 -0.019945478 0.049766082 0.07791295
0001d0 13 fe 98 3d 18 d0 8b 3d 68 a3 00 bd ff bb 71 bd
       0.07470336 0.068268 -0.031405836 -0.059017178
0001e0 44 0f 98 3c 61 59 c8 bc 8b c7 22 bc 25 02 53 3e
       0.018561967 -0.024456682 -0.00993527 0.20606287
0001f0 52 cb 4b 3e 67 70 46 bc 67 96 83 be 3a c8 c7 b9
       0.1990178 -0.01211176 -0.25700685 -0.00038105418
000200 7b 17 0a bf 16 d1 6d bc 20 19 08 3c c0 69 4b 3d
       -0.5394208 -0.014515182 0.0083067715 0.049661398
000210 17 6a e8 bd 9b d5 18 be 1f eb 3b bd 55 46 5f bc
       -0.1134836 -0.14925234 -0.045878526 -0.013627608
000220 1d ab ea 3e 09 9f 98 bd 4d 34 77 be ed 12 e2 bc
       0.45833674 -0.074522085 -0.24141045 -0.027596915
000230 54 36 8e ba 7d 8e 66 be d4 6a b5 bc 5b a6 d1 bb
       -0.0010849931 -0.22515292 -0.022145666 -0.006398005
000240 07 37 24 3f 12 d3 28 bd d1 47 eb bb 2a 61 ac 3c
       0.64146465 -0.041216917 -0.007180192 0.021042425
000250 b6 be fa ba f0 84 d8 bc 48 33 87 be 38 3a 38 bd
       -0.0019130323 -0.026430577 -0.26406312 -0.044977397
000260 24 f5 b6 bd 1f 01 0e bd 77 f8 a7 bd cf dc eb 3c
       -0.089334756 -0.034669038 -0.08201688 0.028791813
000270 aa 2a fd 3b 1d ad a6 bc 18 30 85 bd 82 c3 1d bd
       0.007726033 -0.020346219 -0.06503314 -0.03851653
000280 9c 22 84 3a 06 19 6b bc 84 0d 84 3c 3a 4d 8c 3d
       0.0010081115 -0.014349228 0.016119726 0.06850667
000290 85 f8 31 bb 39 08 2d bc b4 4e bf 3c 52 69 29 bb
       -0.0027156186 -0.010561042 0.023352958 -0.002585013
0002a0 3a 9c 82 bc 97 d5 8c 3c ad 1a ec bd 18 1d c9 bb
       -0.015943635 0.017191691 -0.115285255 -0.0061375014
0002b0 b6 ce d9 bd d3 2f be bb 31 60 e7 3d 13 49 74 bd
       -0.1063513 -0.005804041 0.11297644 -0.05964
0002c0 32 7e 6c bd ed 67 f7 3c 6b 59 06 3d c1 1c 09 bd
       -0.057737537 0.030200923 0.03280012 -0.033474687
0002d0 a8 ef cd 3a f3 7f 58 3d f2 cc 6e bd bc 9a 45 3e
       0.0015711682 0.052856397 -0.05830092 0.19297308
0002e0 08 45 41 3c eb f2 61 3b 60 ff d7 3c 85 8f bd bc
       0.0117962435 0.0034477066 0.02636689 -0.023139725
0002f0 b4 20 2e 3d 20 f2 4a bc 65 5c a3 bc 5d 5b 18 3d
       0.042511657 -0.012386829 -0.019941518 0.037196506
000300 ec 5d 9a bd 7d 58 16 3c 44 dd 66 bd bd b2 2b bd
       -0.075374454 0.009176371 -0.05636336 -0.041918505
000310 5f 2f 83 ba 14 e8 65 3d 67 74 13 3f 4f d3 a2 bb
       -0.0010008625 0.05612953 0.5759949 -0.0049690376
000320 04 35 d5 bd da 9b 98 bb b2 e4 19 3f 43 99 0a be
       -0.104105026 -0.004657251 0.60114586 -0.13535027
000330 1d 31 6c be 55 0d a9 bd 05 49 dc bd d0 d3 8c 3c
       -0.2306561 -0.08254496 -0.10756115 0.017190844
000340 c9 ff b7 3d 73 0a 0c bd de 1f 4e bd 6c 14 9b bc
       0.08984334 -0.034189653 -0.05032336 -0.018930636
000350 c5 ff ac 3c e4 f5 62 3d f0 7c d8 3d f0 66 0a be
       0.021118054 0.05541028 0.10570705 -0.1351583
000360 fd 2e 15 bd ea 90 13 bb fb 43 f6 3d 8e 89 40 bd
       -0.036421765 -0.0022516795 0.12024685 -0.047006182
000370 bd 6b 0d 3c a8 d0 d2 bc 33 51 fc 3d e5 26 9c 3d
       0.008631644 -0.02573426 0.12320175 0.07624606
000380 6d e8 16 bd cf 35 97 3b 53 c1 12 3d e2 96 3f 3d
       -0.036842752 0.004614569 0.0358289 0.046774752
000390 75 77 21 bd 09 a1 cb bf d6 b1 12 3d 99 4b 00 3d
       -0.039420564 -1.5908519 0.03581413 0.031322096
0003a0 60 93 07 b7 5e 30 34 3d c3 9f 14 3c f8 f5 da 3c
       -8.0809405e-06 0.04399144 0.009071293 0.026728615
0003b0 50 47 cc bd 31 cd b9 3d b6 70 fd bc 76 2d 63 3c
       -0.09974539 0.0907234 -0.030937534 0.013865819
0003c0 7b 78 a6 bd 58 06 00 bc a9 53 a3 3c 0c 3a 3e 3d
       -0.081284486 -0.0078140125 0.019937353 0.046442077
0003d0 9b 8b 88 3d aa 51 3c be 41 bb a3 bb e4 19 2b bd
       0.06667253 -0.18390527 -0.0049966876 -0.041772738
0003e0 e0 03 80 be 01 2b 8d 3f 70 46 87 bc 8f 30 f5 be
       -0.25002956 1.1028749 -0.01651308 -0.4788861
0003f0 db 4f 03 3d 8c f2 80 bd 75 15 5b 3b da 7d e5 3c
       0.032058578 -0.06296262 0.0033429537 0.028014112

output.bias f4 [4]
000000 bb 0d c9 bb 86 8c e6 39 f3 d5 a5 3b 4c 98 50 39
       -0.00613567 0.00043973717 0.005060905 0.00019893161
