FetchPickAndPlace.pth (torch_old, 562146 bytes, 8 tensors)

fc1.weight f4 [256, 28]
00000000: 8de4 05bc 2b04 cf3d 571a 1fbe 3938 08be
00000010: 6777 a1bd 7e2f 353d e01b 3f3b 0a05 133e
00000020: 625f 98bc 8618 4b3d e3ec 6bbd 4983 16bd
00000030: baf0 38be 1878 00be 239f 99bd 2eac 413c
00000040: ba79 903d 30db e53d e845 05be 6842 adbd
00000050: 42a1 863d 37c7 1b3e f13a 0ebd 9890 0d3e
00000060: d3a7 12bd b1b4 d63c 3f00 293e de3e 2dbe
00000070: 5444 febd 511e 58bd da70 a3bd a782 203e
00000080: 7e8c eebd d060 b9bd 90c6 0dbe 1832 2fbe
00000090: 59f0 ddbd 918f 1f3e 134b 9f3d 5ff8 b63d
000000a0: 33e6 413c c56d c1bd c62b ce3c d103 2fbe
000000b0: f869 05be fd78 ccbd 11a6 ef3d 9f8e e23d
000000c0: a2f4 9dbd fcf6 45bc 6bf3 ea3d 8258 3a3e
000000d0: f76a 8d3d 3510 9f3c 96fd 053e d5f3 e2bd
000000e0: c57f 113d dbf4 11be f3bb 0cbe 7488 c5bd
000000f0: 2465 b03d 0111 9f3d ed0e e5bd 2a70 6a3d
00000100: 3e7e e03d efc1 b8bc 3524 0a3c 50a2 343d
00000110: 5266 ef3d ae48 373e e58b 16be ebde 8fbd
00000120: 8221 993d 65c2 1f3e 4e44 273e 208f 2d3e
00000130: 18b1 1f3d 3633 27be 0c14 8a3c 0063 f4bd
00000140: 7b61 35be cfcd 2c3e 21bb 133e 26cc 3ebe
00000150: 926a 063d 82ae 10bd b77f e7bc a968 b9bd
00000160: e046 8f3d f001 ecbd 51dc 833d 1137 c13d
00000170: 6f5c 073e e7f0 973d faa0 3bbe cae1 fabd
00000180: 02bf c13d bf06 173d 037f 11be a042 debd
00000190: e842 323e 9eb3 fe3d 6651 adbd 6327 3ebd
000001a0: 4cd4 3dbe 4e88 6fbb e1f0 0dbe 66fb 11be
000001b0: 8ce4 e9bb 430f c93c daf5 a2bd 2beb d93d
000001c0: 0e1e debd b4af 2a3e 5162 ff3d cd1f 20be
000001d0: cfba 45bd adb7 423c 5116 e63c f064 343d
000001e0: 124d a23d bf39 373c 36eb bdbd f671 b83d
000001f0: d57c 3abe d959 e5bd 4dcc 39bd 3f13 b4bd
00000200: 0cc1 89bd 4d43 1dbe a86c 2fbd eaa3 273d
00000210: 3c0f 00be ce61 62bc 28ab 0b3e f14d 95bc
00000220: 3830 ce3b 2783 47bc 9a54 173d 5502 e93d
00000230: 0b2f 373e 40fc f53d 003d 373e fa27 7cbc
00000240: c580 27be 4e1e b9bd 0c46 013e e8cf 873a
00000250: 7014 c0bd a771 0ebe d338 2fbe b787 25be
00000260: c9db 11bd 2da0 ce3d 0639 cd3d f2c1 39be
00000270: 06dd ec3d 4684 19be 7dd1 2cbd 1652 99bd
00000280: c1f8 0dbd 42dc 19bd a140 2bbe c981 25be
00000290: 1a1f e6bc 6452 0f3a 8b0e a7bd be13 8e3d
000002a0: 550e 2fbe ea38 0ebc 9f0b 2d3e 74a6 9abd
000002b0: b6d1 2d3e 42e6 8d3d 0644 2dbe 0de3 e83d
000002c0: 15f1 cdbc 5f28 a9bd 35de 1b3e c765 1bbe
000002d0: 86ff a43c 87cd 24bd aba4 093e 96df 5b3d
000002e0: 9ef8 bb3d 0093 893d 18af 34bd b321 1abd
000002f0: f4ec 1ebe bebf cf3d eca5 183e 0e1f 033e
00000300: dcee 09be bd62 263c aad1 08be 1b93 d1bd
00000310: 65b0 eabd 3068 6e3d fd72 f3bd 8e0b 22bc
00000320: b028 273c a105 ee3d 6dcf 17be 8906 fdbd
00000330: 2058 d4bd cdf9 0e3e 3a5c 78bd 1f6d 233e
00000340: 6821 8b3d d1cd d83c f37b 04bc 3dfb 15bd
00000350: 3625 f73c ca7e 31bd 8350 80bb 4a6b b73c
00000360: 9a7e 10be 69a6 ccbd 8c81 153e 49d0 16be
00000370: 8369 f2bb e719 393e aecc 8e3d 1ef0 3c3b
00000380: 2076 28be 2115 b33d 8a7f 07be 68f6 60bd
00000390: 7c70 87bd 3384 f1bc e765 263b 6c38 1e3e
000003a0: 0e33 ae3c 3683 2c3e 2606 eb3d 31dd efbd
000003b0: aa23 a83d 5705 0abe 73c6 a0bd 87d4 653d
000003c0: ef4a 643d 80fd 123e cd7c 6fbd 769c 443b
000003d0: 0c0e c43d 1eb0 3bbe 5db8 123e cca0 1dbe
000003e0: 3290 a73b ebd7 00bd 8693 d1bd b4ec b83c
000003f0: 0108 213e 0c7d 4cbd 535a d8bd fc09 89bd
-0.0081721665 0.10108217 -0.15537392 -0.13302697 -0.07884102 0.044234745 0.0029160902 0.14357391
-0.01860017 0.049583934 -0.05759896 -0.036746297 -0.1806058 -0.12545812 -0.07501056 0.011820836
0.070544675 0.11223447 -0.13014948 -0.084599316 0.06573726 0.15212713 -0.03472418 0.1382469
-0.03580458 0.026209207 0.16504 -0.16918513 -0.12415376 -0.052763287 -0.07980509 0.1567484
-0.116478905 -0.09051669 -0.13845277 -0.17108953 -0.10836858 0.1558211 0.07777991 0.08934092
0.011834669 -0.09444765 0.025167357 -0.170913 -0.13028705 -0.09984014 0.117015965 0.11062359
-0.07712676 -0.012082811 0.114722095 0.18197826 0.069051675 0.019416908 0.13085017 -0.110816635
0.03552224 -0.14253561 -0.13743572 -0.09645167 0.08613041 0.07766915 -0.111844875 0.057235874
0.10961579 -0.022553412 0.008431484 0.044100106 0.11689438 0.17898819 -0.14701803 -0.0702494
0.07477094 0.156015 0.1633465 0.16949129 0.03898725 -0.16328129 0.016855262 -0.11932945
-0.17712967 0.16875385 0.14426853 -0.18632564 0.032816477 -0.035322674 -0.028259141 -0.090531655
0.0699594 -0.11523807 0.064385064 0.09434331 0.13218854 0.07418995 -0.18323126 -0.12250097
0.0946026 0.036871668 -0.14208607 -0.108525515 0.17408335 0.12436603 -0.08462791 -0.04642428
-0.18538016 -0.003654975 -0.1386142 -0.14256057 -0.0071378406 0.02454341 -0.07957049 0.10640558
-0.10845576 0.16668588 0.12469924 -0.15637131 -0.048273858 0.011884612 0.028086813 0.044041574
0.07924856 0.011183201 -0.092733786 0.09006111 -0.18211682 -0.11198778 -0.045360852 -0.087927334
-0.06726274 -0.15357704 -0.042828232 0.040927805 -0.12505811 -0.013817264 0.1363951 -0.018225642
0.006292369 -0.012177265 0.036945917 0.11377398 0.17889039 0.120110035 0.17894363 -0.0153903905
-0.16357715 -0.09038983 0.12624377 0.0010361644 -0.09378898 -0.13910542 -0.1711152 -0.16165052
-0.035609994 0.10089145 0.10020642 -0.1814039 0.115655944 -0.14991865 -0.04219197 -0.0748636
-0.03466106 -0.03756357 -0.16723873 -0.1616279 -0.028091002 0.0005467294 -0.08157071 0.06937359
-0.17095311 -0.008680562 0.16898964 -0.0755128 0.1697453 0.06928684 -0.1692048 0.113714315
-0.025139371 -0.08259653 0.15221484 -0.15175544 0.020141374 -0.04023507 0.13441722 0.053680025
0.09178279 0.06717491 -0.044112295 -0.037629794 -0.15520078 0.10143994 0.14907044 0.12804815
-0.13470024 0.010155377 -0.1336123 -0.10233136 -0.11459426 0.05820483 -0.11887167 -0.00989045
0.010202572 0.116221674 -0.1482522 -0.12354762 -0.10368371 0.13962479 -0.06063483 0.15959595
0.06793481 0.026465328 -0.008086192 -0.036616553 0.03016911 -0.043333806 -0.0039158477 0.022390027
-0.14110795 -0.09992678 0.146002 -0.14727892 -0.007397832 0.18076287 0.06972633 0.0028829644
-0.16451311 0.087442644 -0.13232246 -0.05492249 -0.066132516 -0.029481983 0.0025390328 0.1545121
0.02126458 0.16846928 0.11475782 -0.11712111 0.082099274 -0.134786 -0.07850351 0.056110885
0.055735525 0.14354515 -0.05846863 0.0030000485 0.09572992 -0.18328902 0.14328142 -0.1539337
0.005113625 -0.031455915 -0.10233216 0.022573806 0.1572571 -0.04992394 -0.10564103 -0.066913575

fc1.bias f4 [256]
00000000: 7f25 36be 3bf2 01bd 3da9 323d d8e6 433d
00000010: 1776 273e d9cd 943b 40af b8bc 83b9 023e
00000020: 27a4 e9bc c844 833d 7bbf 14be 4d0b 88bd
00000030: 50f6 17be 0330 a23c 924d 1bbe ae74 133e
00000040: f3a5 abbd 546b 07be f0f0 683c a173 b2bd
00000050: 02b5 e2bd 7efc 0a3e f106 5e3d c1f0 cb3c
00000060: 1872 b43d d01e 85bd 8733 8f3c 62ea 393e
00000070: 639d a4bd 192c 963d 968b 1f3e 3078 dabc
00000080: ee92 1d3e a893 54bd 3056 19bd 5486 493d
00000090: 8604 fabc 5662 3fbd e957 1cbd 88c0 183d
000000a0: 1cd0 cbbd 5124 17be 68a4 1cbe be35 3d3e
000000b0: 3eb4 54ba 132e a03d 9897 39be b4c1 d6bc
000000c0: 3787 1bbe a6ce 81bc 3a53 273e 26a6 0f3e
000000d0: e21c 8cbd 22a6 d1bd f2c5 20be eaf9 c1bd
000000e0: b129 753d 6703 e6bd 5cb2 d23d 7331 8cbd
000000f0: 1586 2c3e 86ee 47bd 01d2 0ebd cac8 e53d
00000100: e195 053e 5397 0b3e 181d 063e fd68 3dbe
00000110: 3b88 c83d f51e cdbd 2abf 033e 9b12 193e
00000120: 334b 8bbc 4359 8b3d 0998 203d ffd0 a43d
00000130: 3c46 003e ef3d 5b3d c53b 83bd 1d7a f23a
00000140: 9a76 aa3c 019a 26be 32ff 873d c62d febd
00000150: 6207 f93d cfa5 283e 9419 f03c 7a1d 1f3e
00000160: c617 df3a 6820 f63d f6c0 be3d 8f55 24be
00000170: 6e9a 17be 8930 3fbd 3c2d 953d 6909 0bbd
00000180: 4f43 28bd 60fd e13d 9603 273e 9970 973d
00000190: fdfe 583d 898b be3d 8e0d d83c 8f8d 30be
000001a0: 4b47 43be 5cf0 2dbe f06c 30be 3a57 0f3e
000001b0: d758 99bc 4523 05be eb18 3a3d 9156 133b
000001c0: 6c89 eabd 2fe7 38be f110 3f3d 2082 013b
000001d0: f168 8ebd 892c dabd f89c 50bd 123e 293e
000001e0: eeb3 1fbe c670 a6bd d295 6bbd d483 2d3e
000001f0: c23a 863c 24d9 023e 286f c5bc 0268 05bd
00000200: 3adf ce3d a191 93bd 7843 e73d d474 2e3e
00000210: 2303 923d 5fa6 e73d 7bfd 16be 4e85 2e3e
00000220: 96a1 f5bd 1ca8 d23d 15a8 743d 021b eb3b
00000230: 9f78 3f3d 0328 38be 39fc 373e 1f33 5abc
00000240: 028b 253e ee82 b43b 7ea6 a3bd 5c26 f03d
00000250: 691b 9cbb 6b54 f9bd ec89 d83c 61d3 3dbe
00000260: cc79 f3bd 08e0 1dbe b29e f93b 8f01 d8bd
00000270: 3c54 25bc 964a 18be 9460 28be 815d dcbc
00000280: 0198 ba3c 7b3a 0e3e 08ce 81bd cc4e 373e
00000290: d9e9 06be da5f 793d ef93 27be 06cf 2b3e
000002a0: 9201 98bd a1f7 cf3d c17c fa3b 348d 9dbd
000002b0: 570b 37bd 52b7 9dbd 885b e63d 5a68 0c3e
000002c0: cffa 343e 47ee 3abd 148b 81bd d12d c7bd
000002d0: 61b0 88bc 6f37 3c3d ed04 72bc f92f fdbd
000002e0: c902 563c fac6 09bc cc49 14be c63f 6bbd
000002f0: 9941 b4bb 6dd6 3cbe 49fc c73c 0d5f 523d
00000300: 173c 8bbc 962f eabc d8ae 873b 10e3 343d
00000310: 56d7 bebd ba84 b5bc a599 dd3d 8a4d 7abd
00000320: 4376 71bb db70 37be 6cab 19be 4859 b7bc
00000330: 1d42 84bd acd3 3c3e 021d 26bd c595 27be
00000340: 7c66 1f3e 2ed9 03be 50e8 1c3e be27 a6bc
00000350: adfb 093d d446 40be b86e 293e b4ef 9fbb
00000360: 604e c9bd f51d 0dbe 0969 f83c 1576 38be
00000370: 4a68 0a3e c202 df3d e7f0 223e e504 2d3e
00000380: f66f e6bd c147 53bd c70c ea3d 342d 003e
00000390: 4e84 3d3e f639 abbd f4d6 d53c 967a 4cbc
000003a0: 51b0 dd3d d7f5 bbbd 8edd 293e ecdf 5dbd
000003b0: a927 bb3d 4224 113e 15bb 3fbe 219e 073d
000003c0: cbd9 06be 159b b13d 7105 233e b496 7bbd
000003d0: df2a 0abe 651c c9bd 3dbf 173e 8e07 05bd
000003e0: e472 14be dfbb 183e 8167 f83d 3f66 a1bc
000003f0: 9006 933c 885e d83c e5d0 373e a144 d53d
-0.17787741 -0.03172515 0.04361843 0.04782757 0.16353641 0.0045411405 -0.022544503 0.1276608
-0.028520657 0.06409603 -0.14526169 -0.066427805 -0.14840055 0.019798284 -0.1516631 0.14399979
-0.08381262 -0.13224536 0.0142176 -0.08713461 -0.11069681 0.1357288 0.05420584 0.024895074
0.08810824 -0.06500018 0.017480625 0.18155816 -0.08037832 0.0733263 0.15580592 -0.026668638
0.1538808 -0.05189863 -0.03743571 0.04920037 -0.030519735 -0.04672464 -0.038169775 0.037292987
-0.09951803 -0.14759947 -0.15297091 0.18477532 -0.00081140164 0.07821288 -0.18124235 -0.026215412
-0.15188299 -0.015845608 0.16340342 0.14028224 -0.068414465 -0.102367654 -0.1570051 -0.094714954
0.059854213 -0.11231118 0.102879256 -0.06845369 0.16848023 -0.048811458 -0.034868244 0.11219938
0.13045456 0.13631944 0.13097036 -0.18497081 0.09791609 -0.1001567 0.12865892 0.14948504
-0.017003631 0.06804135 0.039207492 0.08047675 0.12526792 0.05352586 -0.064078845 0.0018499527
0.020808507 -0.16269685 0.066404715 -0.12411074 0.12159611 0.16469501 0.029309072 0.15538588
0.0017020635 0.120179 0.09314148 -0.16048263 -0.14805004 -0.046677146 0.072840184 -0.03394452
-0.041079815 0.110346556 0.16309962 0.07394523 0.05297755 0.09303958 0.02637365 -0.172415
-0.19070165 -0.16986221 -0.17229056 0.13998118 -0.01871912 -0.13001736 0.04543392 0.0022482018
-0.114519924 -0.1805694 0.046647016 0.0019761398 -0.0695361 -0.10653026 -0.050930947 0.16527584
-0.15595981 -0.081269786 -0.057515927 0.1694482 0.01638544 0.12778145 -0.024100855 -0.032569893
0.10101171 -0.07205511 0.112921655 0.17036754 0.071295045 0.1131103 -0.14745133 0.17043039
-0.11993711 0.102859706 0.059730608 0.0071748504 0.046745893 -0.17984013 0.17967309 -0.013317852
0.16166309 0.005508772 -0.0799074 0.117260665 -0.0047640097 -0.121743046 0.026432954 -0.18537666
-0.11888465 -0.15417492 0.007617795 -0.10547172 -0.010090884 -0.14872202 -0.16443092 -0.026900055
0.02277756 0.13889496 -0.063381255 0.17901152 -0.13175143 0.060882427 -0.16365026 0.16778192
-0.074221745 0.10154653 0.0076442664 -0.07692948 -0.04468855 -0.07700981 0.11247927 0.13711682
0.17673801 -0.045637395 -0.06325355 -0.09725536 -0.016685667 0.045951303 -0.014771682 -0.12362666
0.0130621875 -0.008409256 -0.14481276 -0.057433866 -0.005500984 -0.18441172 0.024412291 0.05136018
-0.016996427 -0.028587144 0.004140716 0.044161856 -0.09318416 -0.022158016 0.10820321 -0.061109103
-0.003684417 -0.17914145 -0.15006799 -0.02238144 -0.064579226 0.18440121 -0.040555008 -0.16365726
0.15566438 -0.12875816 0.15322995 -0.020282622 0.033687282 -0.18777019 0.16546142 -0.0048808698
-0.09829402 -0.13780959 0.030323522 -0.18013795 0.13516346 0.10889198 0.1591221 0.16896398
-0.112518236 -0.0515821 0.11428218 0.12517244 0.18507501 -0.083606645 0.026103474 -0.012480399
0.10824645 -0.091777496 0.16588423 -0.054168627 0.09138424 0.14173988 -0.1872371 0.033109788
-0.13169019 0.08672158 0.15920044 -0.06142302 -0.13492917 -0.09819869 0.14819045 -0.032477908
-0.14496952 0.14915417 0.12129117 -0.019702075 0.017947465 0.026412264 0.1795078 0.104134806

fc2.weight f4 [256, 256]
00000000: be27 fb3b ed29 b6ba ea5b 6a3c b6ee 54bd
00000010: 9e3d f73c 9cea a53c 8cc2 a03a b59c f63c
00000020: 2dbe 89bc 471d 7fbd 7941 6cbd 9bb0 5e3d
00000030: 4701 d7bc d708 4abd b70e 6e3d 3795 47bd
00000040: 32c5 403d 3334 4a3d a3c6 62bc afe8 063d
00000050: a653 2e3d ae96 84bd 0d6a 19bd b186 d93b
00000060: 4ca3 613c c380 46bd cdaa 68bd f917 5d3d
00000070: 2aed 06bd c6c6 87bd a29b b03c 708d 08bd
00000080: 97fd e0bc 8981 e5bc ff6a 553d 04fc 943c
00000090: b274 633d adc3 e4bc 0ace 2b3d 9bc4 66bd
000000a0: 41e8 013d 98c1 91ba 32eb c93a f689 4c3d
000000b0: dc61 423b 013e 04bd 4f5b 1abd 34d5 953b
000000c0: 1525 dbbc 04f9 e43c 58c7 6cbd cf74 37bd
000000d0: b4f3 5c3d a27b f4bc 0082 8abd ba1b 333d
000000e0: 6dbb b7bc 8cb0 39bb 4f32 083d 80ff a23c
000000f0: 43ef 87bd 9371 e83b 78c1 673d 6121 15bc
00000100: dd73 2c3d d8c2 473d 99d0 883c 926e 69bd
00000110: 64f5 583d cb99 463d 8432 863c 22c5 35bc
00000120: ed21 3cbd 95df 283c 3d00 c3bc 1974 4c3d
00000130: 53c1 85bd af04 423c 7b68 f2bb 28b6 a5bb
00000140: 2f31 2cbc b58e bd3c a5c8 6bbd 6c2c 223c
00000150: a0b7 40bd e685 803c 3aab 31bc 8f93 ef3a
00000160: b788 0c3d 1adf e7bc adbf 66bd 1b30 0ebd
00000170: d333 483d 36d0 69bd 64d5 0b3d 0a5f d5bc
00000180: 61cf 2abb e3ac bc3c 2db6 c4bc 8cb2 46bd
00000190: 8636 9a3c 8a09 043d a8ff 8d3c d731 f2bb
000001a0: 4646 4d3b 7105 a83c 1ca1 873c bc5e 0bbd
000001b0: 4c41 293d 184c 6dbc d15e d9bc c079 c8bc
000001c0: 4fd2 2f3b 8834 1dbd 9775 52bd 22ac 083d
000001d0: 637e 373d 5200 89bd 32d1 323d ce97 23bd
000001e0: 2e0c 3f3c cdcc 603d a474 2fbd f514 e5bc
000001f0: a018 453c 9a54 37bd 707e dbbc aea3 6ebd
00000200: 46f4 7f3b dcad 073d dbba 383c 1923 8abc
00000210: 4eb0 5e3d 2f4a 2f3d 321f 1fbd 9fa1 fa3c
00000220: db1d 7fbc e7a4 993c 07ab 4a3a c871 d43c
00000230: 37cc 1abd e0ec 06bd 971f 1fbd 289b 3ebd
00000240: b45a fabc 331c 503c ec21 413c a00b c23b
00000250: 7d72 253d 6c72 283d 75c3 353d 8e89 063d
00000260: 5ed2 cfbb ab7a 5f3c 3138 1abd a44b 96b8
00000270: 6166 b0ba db46 5fbd a822 3b3d 05c9 a3bc
00000280: 2912 383d 7653 c23c c282 24bd 13db 493c
00000290: 58ad f7bc a3e2 15bd 77fd 8e3c b684 ea3c
000002a0: a7c4 29bd e3b8 19bd 0137 283d f5f6 d4bc
000002b0: a701 43bd 65e9 6fbd 27fe 053d fb57 2a3d
000002c0: 3726 6b3d dbb0 56bd 4762 c13a acc8 cd3b
000002d0: 471d 253b f3a1 e13b 7039 82bd 40b8 7abd
000002e0: fe32 eebc 3c0d 58b9 e0de 933a ec79 48bc
000002f0: 0336 89bd cb81 063d 8df3 43bd 6671 0e3c
00000300: d308 49bd f85d 233d f152 3f3d 950c 15bd
00000310: 5017 443d a281 b7bc 7b03 82bd b208 82bc
00000320: ba19 50bd 4e5a e13b bd5b 073c d530 0abd
00000330: 68a0 a1bc 837f 4e3c 4cdc 16bd 772c bf3c
00000340: 2bb4 49bd 9788 fd3c bfee 10bd 1d29 5fbd
00000350: 6131 cb3b 98c2 a93b f0e9 54bd 814e 4a3d
00000360: 0c63 e9bc 85e0 113d a03d aabc 35ef 1e3d
00000370: 684f 13bd 6853 37bd f72b 69bd b027 13bd
00000380: b4b6 21bd f212 b83c 552d 41bd 0eda 89bc
00000390: 572c cabc ce3e efbc 63e7 37bc fa8c e83c
000003a0: 182d fcbc 62e0 64bd 09f1 213d 942a 28bd
000003b0: 5343 2c3d 945a 38bc d2da 36bc 77b7 603d
000003c0: b7dd c73b d921 7fbd ba0d 80bd 7d89 7ebd
000003d0: 41af 52bd f063 8f3c 75f1 a43c 77f9 dc3c
000003e0: 650a 7ebd 2c2e 033d b4e2 4b3d 623d b13c
000003f0: b285 f8bc f9cc 75bd 0efe 653d a0f8 2bb8
0.0076646497 -0.0013897993 0.014304141 -0.051985465 0.030180749 0.020253472 0.0012265011 0.03010402
-0.016814316 -0.06228378 -0.057679627 0.054367643 -0.026245726 -0.049324837 0.058119502 -0.048726287
0.04706306 0.049366187 -0.013841304 0.032936748 0.042560242 -0.06474052 -0.037454654 0.006638371
0.013771843 -0.04846264 -0.056803513 0.05397794 -0.03294102 -0.0662971 0.021558587 -0.03333801
-0.027464671 -0.028015869 0.052103993 0.018186577 0.05553121 -0.027925337 0.04194454 -0.05633984
0.031715635 -0.0011120318 0.0015405177 0.049936257 0.002966038 -0.032285694 -0.037684735 0.004572535
-0.02675108 0.027950771 -0.057807297 -0.04478913 0.05394335 -0.029844109 -0.06763077 0.043727614
-0.022428239 -0.002833399 0.033251103 0.019897223 -0.066374324 0.007093617 0.05658099 -0.009102196
0.042102683 0.0487698 0.01670103 -0.056990214 0.052968398 0.048486512 0.01638151 -0.011094363
-0.04593079 0.010307212 -0.023803825 0.049915407 -0.06531014 0.011841937 -0.007397709 -0.005057115
-0.010509773 0.023139337 -0.057564396 0.009898286 -0.04705012 0.015688848 -0.010844046 0.0018278229
0.03431007 -0.028304625 -0.05633514 -0.034713846 0.04887755 -0.05708333 0.034139052 -0.026046295
-0.002606355 0.023031658 -0.02401265 -0.04851012 0.018824827 0.03223566 0.01733382 -0.0073911953
0.0031322404 0.020510407 0.016556315 -0.034025893 0.041322038 -0.014483474 -0.02653447 -0.024472117
0.0026828235 -0.038380176 -0.051381674 0.033367284 0.044798266 -0.06689514 0.043656535 -0.039939694
0.011660619 0.054882813 -0.042835847 -0.027964095 0.012029797 -0.044758417 -0.026793689 -0.058261566
0.003905551 0.03312479 0.011275019 -0.016862439 0.054367356 0.042795356 -0.03884811 0.030594645
-0.015571083 0.01875539 0.00077311735 0.025933161 -0.03779241 -0.032940745 -0.038848486 -0.046534687
-0.030560829 0.012702036 0.011787873 0.005921796 0.040392388 0.041124746 0.044375855 0.032846026
-0.0063422164 0.013640086 -0.037651245 -7.1666465e-05 -0.0013458246 -0.054510932 0.045687348 -0.019993315
0.044939194 0.023721438 -0.040163763 0.012320298 -0.030234024 -0.03659309 0.017454846 0.028627735
-0.041447308 -0.037529837 0.04106808 -0.025996665 -0.047608998 -0.05857219 0.03271308 0.04158781
0.05740949 -0.052414756 0.001475402 0.0062800255 0.0025194453 0.006885761 -0.063586116 -0.06121087
-0.02907705 -0.00020604295 0.0011281632 -0.0122361 -0.06699755 0.032838624 -0.04783969 0.0086940285
-0.04908068 0.039884537 0.04670996 -0.036388952 0.047873795 -0.02240068 -0.0634832 -0.015873287
-0.050805785 0.0068772202 0.008261618 -0.033737976 -0.019729808 0.012603643 -0.036831185 0.023336632
-0.049244087 0.03094892 -0.035383936 -0.054482568 0.006200955 0.005180668 -0.051980913 0.049391273
-0.028489612 0.03561451 -0.020781338 0.038802344 -0.0359644 -0.044757277 -0.056926694 -0.03592652
-0.03948088 0.022469971 -0.047162373 -0.01682761 -0.024679346 -0.029204752 -0.0112246005 0.028387535
-0.030783221 -0.05587805 0.03953651 -0.04105623 0.042056393 -0.011252064 -0.011160569 0.054862466
0.0060994285 -0.06228814 -0.06252618 -0.062142838 -0.051436666 0.017503709 0.020134667 0.026974423
-0.06202163 0.032026455 0.049776748 0.021635715 -0.030337188 -0.06000993 0.05615049 -4.1001127e-05

fc2.bias f4 [256]
00000000: 315e 86bd 4cc7 52bd 2280 e13c 538c 3e3d
00000010: 3e6c dcbc e718 0e3c a4e8 19ba e97c 1fbd
00000020: bf03 093c e658 f0bc 85a2 533c 9182 cb3c
00000030: 676a be3c 53fb babc 398d 1d3c f1a3 a1bc
00000040: 5245 f03c 5a1b 973a 4f87 4dbc 52da 37bb
00000050: ecff 77bc f888 03bd cd24 de3c fc45 a83c
00000060: 9134 1c3d b83a e9bc 6ec4 643d f249 af3c
00000070: 394a 0f3d 89cb 8abd 5509 0c3d dc93 22bd
00000080: f13e 57bd 64ef a63c 89a5 fb3b 1087 523d
00000090: 7489 e8b8 7258 4fbd 30af ea3c 1b49 203d
000000a0: cfc7 e5bb b699 7c3b d9e9 37bd df33 423d
000000b0: f1e0 023d c4a8 ed3c 611c ba3c 639a b0bc
000000c0: c5b7 723d 1129 843c cedf 8cbc f917 ed3a
000000d0: bab2 0dbd 7101 523d b2fe 863c cde7 083b
000000e0: a71f 5d3c 77fe 11bc a432 433b ea28 42bc
000000f0: 8544 95bb d1d5 67bc b506 5b3d a2ae 2c3d
00000100: ecbf 14bd 7dcb d8bc a5c2 e4bc 3bcd 72bd
00000110: 7b5e 1f3c 65a3 78bd 953c a63c 41b9 103c
00000120: 11b3 6c3d 93b0 d3bc 254c 4cbd c6a9 68bc
00000130: 55cd 6fbd 8931 27bd f489 cf3c b40d 033d
00000140: d1f6 79bd 5061 4f3d 59ee 79bd 6147 67bd
00000150: 6e1c c53b 97ee 26bd 6a4e 55bd 5574 01bd
00000160: d939 74bd efcf 113d ddb5 083d 3975 4a3d
00000170: 950f a43c 6a3f 433d 19b9 573c 3231 753d
00000180: 418d e5bc 40de 2b3c f6f3 02bc 2d50 53bd
00000190: 7ec0 b63c 73e4 99bc 6f9b ee3c 71d6 fa3c
000001a0: 2882 7a3d a491 3ebd 094a 2d3d a410 81bd
000001b0: 4f3e 203d c1a6 be3c 583f 51bd ff10 a83c
000001c0: 818d a8bc be8c ec3a ddb5 fd3b 2879 e13b
000001d0: c734 6e3d 6359 14bd e85a edbb ccf1 38bc
000001e0: ea13 363d ec50 68bd 9c4f 873c ab6e 18bd
000001f0: ed9b 7abd 7292 51bc 18cc 8abd eef5 393d
00000200: 1e46 09ba bce6 b93c 97be d53c ff6d 2a3d
00000210: 9472 013d 1913 663d 6ff8 673d 0619 cc3c
00000220: a379 093d a86a 3f3a 0dd7 073d 08f3 7a3d
00000230: 054e 883c 3290 463d 248d ce3c 42c3 f83c
00000240: 63a5 5cbd 83e5 b0bc 1ae8 da3a 23e0 71bd
00000250: 04af b038 3737 853c b807 84bd 8f89 293c
00000260: e1ee 6d3d 7a8c 19bb 6ff8 0bbd c2a8 3fbd
00000270: b80a 26bd 6376 cd3b 0411 e5bc 61b7 fabc
00000280: 8daf 44bd 23b2 15bd facc eb3c d71b 043d
00000290: dcab 133d 97c2 943a a9da 6fbd 024a 6dbd
000002a0: 2499 4ebd 225d 3abd 27c2 0dbb 217d 5d3d
000002b0: a8f7 23bd 5db3 e23c 487a 27bd 36e1 aebc
000002c0: 9860 ebbc 02d0 0dbd 3a73 163c c19f f8bc
000002d0: 18e4 c73a ce4b 7dbc bb2b f0bc 44a5 14ba
000002e0: 38cf 6dbd aabf 4fbc d38d 3abd b236 07bd
000002f0: edb5 7dbd a683 32bd 623e b93c 4c3e 83bd
00000300: dec1 213d e4d2 7f3c bdbf 55bd 4be0 0c3c
00000310: cbf8 54bd 7535 4d3a 8bab b5b9 2b6c f8bc
00000320: 53fa 543d 0362 f73c ca7d 25bd 9c34 bbbb
00000330: 6401 87bc c687 28bd 5904 fb3c 0f5d 67bd
00000340: be25 3f3d 6274 46bd 6d8d e8bb 8070 e93c
00000350: 87c7 74bc 20e9 9b3b f846 123d aade dc3c
00000360: 6aaf d4bc 8625 4d3c 86fe 4abd 810a cd3c
00000370: 6aac fb3c 169a 0d3c e94f 533d 87ed f83c
00000380: 8e15 8dbc 590b 003d 22f1 1a3d 4e2b 4abd
00000390: 1a7f 3b3d 6fb0 563d 0bc3 853b 8d67 21bd
000003a0: a756 f33a 5e70 04bd 7458 5a3d f96f 153d
000003b0: a765 bc3c a970 903c f959 6cbd 834d 65bd
000003c0: 7c82 7bbc 01ba 48bc b3e5 cb3c f2d2 2b3c
000003d0: ee01 0fbd 3d9c 6a3b bc53 1b3c 55e2 07bd
000003e0: 2304 1dbd 3339 083d e890 7abd b224 1e3c
000003f0: f615 5dbd 491a c5bc 771b afbc ff3a 53bd
-0.06560934 -0.051459596 0.027526919 0.046520542 -0.026907083 0.008672929 -0.0005871153 -0.038937483
0.00836271 -0.029339265 0.012917166 0.024842532 0.023244096 -0.022824919 0.00961619 -0.019731494
0.02932993 0.0011528537 -0.012544467 -0.0028053713 -0.0151367 -0.032113045 0.027117157 0.020541184
0.03813607 -0.028470382 0.055851392 0.021397565 0.034982894 -0.067771025 0.034188587 -0.03969179
-0.05255026 0.020377822 0.0076796454 0.051398337 -0.00011088225 -0.050621457 0.028647989 0.03913222
-0.0070123444 0.0038543767 -0.04490075 0.04741275 0.031952802 0.029011138 0.02271861 -0.021557992
0.059257288 0.016132863 -0.017196562 0.001808881 -0.034594275 0.051270906 0.01647887 0.0020890117
0.013496316 -0.008910767 0.0029784823 -0.011850575 -0.0045552873 -0.014150099 0.053473193 0.04215873
-0.036315843 -0.026464218 -0.027924845 -0.059277754 0.009727116 -0.0607027 0.02029256 0.0088332305
0.05778796 -0.025841033 -0.049877305 -0.014200633 -0.05854543 -0.040818725 0.025334336 0.03199549
-0.061026398 0.050629914 -0.06101832 -0.056464557 0.006015352 -0.04075488 -0.052076735 -0.031605083
-0.05962548 0.03559869 0.033376563 0.0494282 0.020026961 0.0476679 0.013166689 0.05986137
-0.028021457 0.01049 -0.007992735 -0.051590133 0.022308584 -0.01878569 0.02912685 0.030619832
0.061159283 -0.046525612 0.042306934 -0.06302002 0.039121922 0.023272874 -0.0510858 0.020515917
-0.020575287 0.0018047316 0.007742627 0.006880898 0.0581558 -0.03621806 -0.007243503 -0.011288118
0.044452585 -0.056717798 0.016517453 -0.037214916 -0.06118386 -0.012791263 -0.06777209 0.045400552
-0.00052365835 0.02269303 0.026091857 0.041608807 0.03160341 0.056170557 0.05663341 0.024914276
0.033563267 0.0007301965 0.033164073 0.06126693 0.016638765 0.04847736 0.025213785 0.030366544
-0.053868663 -0.021593815 0.0016701252 -0.059051644 8.424933e-05 0.01626168 -0.06446785 0.010347738
0.05808914 -0.0023429678 -0.03417247 -0.0467918 -0.040537566 0.0062702163 -0.027962215 -0.03060502
-0.04801898 -0.036546838 0.028784264 0.032253113 0.03605257 0.0011349496 -0.05855814 -0.057931907
-0.050439015 -0.045498975 -0.0021630616 0.05407441 -0.040031105 0.027673418 -0.0408881 -0.021347623
-0.028732583 -0.0346222 0.009182746 -0.030349614 0.0015250472 -0.015459968 -0.029317727 -0.00056703785
-0.058058947 -0.012679974 -0.04554541 -0.033011146 -0.061941076 -0.04358258 0.022612754 -0.064083666
0.039491527 0.015614245 -0.05218481 0.0085983975 -0.05199508 0.0007828095 -0.0003465082 -0.030325016
0.05199654 0.030198103 -0.040403165 -0.0057130586 -0.016480155 -0.04114511 0.030641722 -0.056485232
0.046666853 -0.048450835 -0.0070969374 0.028496027 -0.014940149 0.0047580153 0.035712212 0.026961643
-0.02596255 0.012521153 -0.04955914 0.025029423 0.030721862 0.008642694 0.05158988 0.0303867
-0.017222192 0.031260822 0.03782762 -0.049357705 0.04577551 0.052414354 0.004082089 -0.039405394
0.0018565253 -0.032333724 0.05330701 0.03648374 0.02299769 0.017631846 -0.057702992 -0.055982124
-0.015350934 -0.012251378 0.024889803 0.010487305 -0.03491395 0.0035798692 0.009480413 -0.03317483
-0.038334023 0.033257674 -0.06117335 0.0096523035 -0.05397602 -0.024060385 -0.021375401 -0.051569935

fc3.weight f4 [256, 256]
00000000: 7890 d83c b20b 37bd 0451 6cbd 6d46 3bbc
00000010: a7c6 9039 5159 aebc b4f1 153d 13d7 7bbd
00000020: e6fe 23bd edd0 0ebd bc03 b6bc 480f d93c
00000030: 13d9 bbba 73d4 48bd fc0a 323d d16f 9a3c
00000040: 5022 febb 1ff6 ff3b ecae 2dbd 5400 cebb
00000050: 272c ec3c 84d7 a7bc f631 d0bb dd7c ae3c
00000060: e93a d63c c946 f93c 1c20 493d 0ee8 7dbd
00000070: 4c02 103c a822 50bc e391 313c 9053 28bc
00000080: 25b2 473c 7062 2abd 0faa 423d c866 74bd
00000090: 4af0 643d 4f13 083d 6654 e53c b847 e2bc
000000a0: d641 413d 40f7 0abd 7fcb 253d 59a3 40bd
000000b0: 9aec a3b9 2d7c 393d ecb6 3ebd 661a 003d
000000c0: 4d18 e33a 0a48 533d 1fbc 263c 2d35 7bbb
000000d0: cce1 3a3d eff7 a63c 0739 6c3d 632e 2b3d
000000e0: d46b 61bd fb1c 4a3d 772a 0c3d 899d 0abc
000000f0: 1abd 713d 2f4f 1dbd 7f08 373d cd71 563d
00000100: ae48 39bd 135b f43c c8d1 85bc fced edbc
00000110: 727c 5fbd c833 0bbd 4007 a0bc a699 6d3d
00000120: 449c 9f3c 7887 3c3d 7e5c b43c 4e28 cfbc
00000130: 037f 2b3d 6873 b4bc 4ff2 723d 0f59 59bc
00000140: b681 77bc 4bb5 053d a0cf 053d 764a 053d
00000150: 3922 60bd cb82 64bd b64a 6b3d c760 3ebd
00000160: 98c4 3f3c 5bda 26bc 4f95 66bc 2a9d e53c
00000170: 6434 a83c 1b4d 023c cb65 363c 17ad d2bc
00000180: d80a f73a 8452 4dbd 198b 5fbb b4f9 2a3d
00000190: 8e45 c6bb 4ecb 91bc ecb7 95bb 8fd5 9a3c
000001a0: faa7 ae3b 22e1 83bd 253b 493d 3afe 0ebd
000001b0: eebb a8bc 98dc 2a3d a4f8 053d 8adb 35bd
000001c0: acdf 163c b71e e33c 3fac 283d 2597 5b3d
000001d0: e021 13bc 23fe 623d dbb2 923c e981 083d
000001e0: e2aa cf39 afeb 3b3a a9e4 01bd 6857 083c
000001f0: 7c0f 50bd 2610 07bb ebb4 3a3d 9b08 45bd
00000200: c42d 003a 0b4e a73c fb7c df3c 73ea e2bc
00000210: a523 123d 37e1 9d3c 8c34 e23c 64f1 e2b9
00000220: a53d 09bd d479 893c 602e 52bd cf49 7e3d
00000230: 180e 673d 222f 73bc b9be acbc 689f 723d
00000240: a373 3d3c ec38 51bc 33f1 f1ba a855 9fbc
00000250: a8ed c43c b08d ecbb 6066 b2bb 7265 083d
00000260: 2fab 20bc 585f 533d 3bee 31bd a47a 953c
00000270: dd8e 30bd 606f 6f3d a238 813d 3682 5bbd
00000280: 38d5 5abc 9303 59bd bef9 40bd ddd6 983c
00000290: 0026 cabc f22d 223d fae1 b8bc e3e4 473d
000002a0: 9cc5 11bd 5fd4 7a3d 2993 e6bc daa0 033d
000002b0: 2411 bbbc 5b45 253d d0a5 303d 6a23 483d
000002c0: fa46 c73b 6fdc 09bd dd5d a23c 1dd8 493d
000002d0: aee8 4ebd 73f1 92bc f92b 6c3c bb1d 5ebd
000002e0: 3612 4fbd 7573 4c3a 07b5 f9bc c918 36bd
000002f0: 76ab 04bd 510d 78bd 53f9 733d 7574 0d3d
00000300: 6c4f 3a3d 9c33 523d 988e e93c 1fd0 c5ba
00000310: 3b40 003d 8692 3b3d b2a6 783c 7b23 32bd
00000320: ef1a a83b 8768 1c3d 345a eebc 76a8 eabc
00000330: 3511 bf3c e0f0 b33c e995 19bd 7d5f babc
00000340: 3c1f 453c 6df8 403d eb8d 143d c9ef b93c
00000350: 88a0 4c3d e3ab 35bd 74e6 78bd 06df 123d
00000360: 61be 1fbd 3957 f23b 3167 98bc fb07 08bc
00000370: cf0b 533d 31de e13b 6885 233d c511 5d3d
00000380: 847c ad3b 8fb9 26bd d893 6c3d 31ff 9fbc
00000390: 360a a3bb 522c 323d 4b7d 5f3d debc e8b9
000003a0: 8e17 2cbd aa2f 66bc f6c9 cebc 2404 fabc
000003b0: 75c3 f6bc 8d50 f3bc 6f49 3e3d bbbc 243c
000003c0: 60ab c7bc b405 58bd 86e9 523d 8c68 16bd
000003d0: d5ec afbc 74db b3bc 59fc de3b b9f2 413c
000003e0: 263a 763c 1632 763c a1ab 6dbd 1345 79bc
000003f0: 2b21 c0bc f756 21bd f497 d8bc 524b b7bc
0.026436076 -0.044688888 -0.05769445 -0.011430365 0.00027613828 -0.021282824 0.03660746 -0.061484408
-0.040038012 -0.034867216 -0.022218578 0.026496544 -0.0014331661 -0.049030732 0.043467507 0.018852146
-0.007755555 0.0078113223 -0.042403147 -0.00628666 0.028829647 -0.020488508 -0.006353612 0.021299774
0.026151137 0.03042926 0.049102888 -0.061988883 0.00878961 -0.012703575 0.010838005 -0.010273829
0.012188469 -0.041597784 0.04752546 -0.059668332 0.05589322 0.03322154 0.027994346 -0.027622089
0.047181927 -0.033927202 0.040477272 -0.04703078 -0.00031266065 0.04528444 -0.046561167 0.031275176
0.0017325968 0.051582374 0.0101766875 -0.0038331256 0.045625493 0.020381896 0.057671573 0.041792285
-0.055034474 0.049344044 0.034220185 -0.008460411 0.059018232 -0.038405593 0.044685837 0.052354623
-0.04523533 0.029828584 -0.016335383 -0.029044144 -0.05456204 -0.03398493 -0.019534707 0.05800786
0.019483693 0.04602763 0.02201676 -0.025287773 0.041869175 -0.022027686 0.059313115 -0.013265862
-0.015106609 0.032643598 0.03266871 0.032541715 -0.054720137 -0.055788796 0.057444297 -0.046479013
0.011704586 -0.010183896 -0.014073684 0.028029043 0.020532794 0.007952954 0.011132668 -0.025717301
0.0018847836 -0.05012752 -0.0034110008 0.04174204 -0.006050772 -0.017797139 -0.0045690443 0.01890066
0.005330083 -0.06439425 0.04912867 -0.034910418 -0.020597424 0.04171428 0.032707825 -0.044398822
0.009208601 0.027724607 0.04117989 0.05361094 -0.008980244 0.055418145 0.01790755 0.033327017
0.00039609434 0.00071686035 -0.031712208 0.0083216205 -0.050796017 -0.002060899 0.045582693 -0.04810391
0.0004889632 0.020422956 0.027281275 -0.027699685 0.035678525 0.01927243 0.027612947 -0.0004328593
-0.033506054 0.016781725 -0.051313758 0.062082108 0.056409925 -0.01484278 -0.021087037 0.059234053
0.0115632145 -0.012769919 -0.0018458724 -0.019450024 0.024039105 -0.007219039 -0.005444333 0.03329987
-0.009806438 0.0516046 -0.043440085 0.018246956 -0.043104995 0.058455825 0.0630963 -0.053590976
-0.013356499 -0.052981924 -0.047113173 0.018657142 -0.024676323 0.039594598 -0.022568692 0.048802268
-0.035588846 0.06123769 -0.028146343 0.032135822 -0.022835322 0.040349346 0.04312688 0.0488619
0.006081459 -0.033657487 0.019820148 0.049278367 -0.05051487 -0.017937398 0.014414781 -0.054227572
-0.050554477 0.0007799187 -0.030481828 -0.04445723 -0.03239008 -0.060559575 0.059563946 0.03453489
0.0454859 0.05131875 0.028510377 -0.0015091932 0.031311255 0.045794033 0.015176462 -0.043490868
0.005130164 0.038185623 -0.029095747 -0.028644782 0.023323635 0.021965444 -0.03749648 -0.02275061
0.012031373 0.047111917 0.036268156 0.022697346 0.049957782 -0.044353377 -0.060766652 0.035857223
-0.03899992 0.0073956517 -0.018603893 -0.008302684 0.051524933 0.0068929424 0.039922148 0.053972024
0.0052943844 -0.040704306 0.057758182 -0.019530864 -0.0049755825 0.0434993 0.054562848 -0.00044391205
-0.04201465 -0.01404945 -0.025242787 -0.030519553 -0.030122498 -0.029701496 0.04645675 0.0100547625
-0.02437371 -0.052739814 0.051492237 -0.036720797 -0.021475235 -0.02195523 0.0068049845 0.011837655
0.015028512 0.01502659 -0.058025006 -0.0152142225 -0.023453316 -0.039389577 -0.026439644 -0.022374783

fc3.bias f4 [256]
00000000: 6b0d 983c 2895 a2bc 80ef e9bc 2dad 243d
00000010: 3bc8 353b 634b 253d 3eef 9a3c ee45 d2bc
00000020: 25bc 0c3d 01c1 b8bc 4e3b f23b 938a 92bc
00000030: 3193 5cbd 1663 6e3d 34d9 283c 2c79 3f3d
00000040: 40f3 71bd aa61 33bc e0aa b43c e998 88bc
00000050: 3a83 1d3c cd29 e43c 4429 4bbd 56ae e2bc
00000060: d38f 7ebc f61b 973c 584a 99bc 9fe5 81bc
00000070: ba8f 71bb c600 303d 4f36 683d 381d be3c
00000080: 0314 2e3d dd80 b8bc cb77 ddbc 67d2 80bd
00000090: 8da4 ef3c 9c2e 95ba 17db 483d 72ae 31bd
000000a0: f8a5 a93c 0593 5ebc c7cd 293d d491 2cbd
000000b0: ecb2 80bd 188a 0a3a 3c26 623d 53dd a4ba
000000c0: 7474 4f3d 80cc 0fbd b6a5 0b3d 6c6e 573d
000000d0: 68bb 043d bd5a f0bc 32f7 13bd 12c1 793d
000000e0: 4984 8a3c f414 4e3d 0337 a9bc 06d1 993c
000000f0: 18ee 063d 772e 38bb 733a 62bb 94a2 713c
00000100: 3701 48bd 4071 ab3c a6cb 1b3d 0ca0 a53c
00000110: 6d23 6ebd 8098 7c3c 8235 68bd 5f1f 63bd
00000120: 94d4 eebb ace5 c03b 5463 3abd de18 653c
00000130: 462e 30bd a341 21bc 36e7 2d3d 4e85 903c
00000140: c53f febb e272 09bd f254 97ba 15f9 25bd
00000150: 5fd4 b13c fcf2 c8bc ef4a 1e3d 9621 57bd
00000160: 8cc6 593d d9f2 543d 6cb2 40bc 3c75 2e3d
00000170: 77fd bcbc 643b f33c 5a63 b03c fc8e 473d
00000180: 2bf3 f03c db7c 19bd 54b2 38bd da4f 263d
00000190: 0a24 073d 32a2 46bd c316 d9bc ad70 123d
000001a0: 33cd ca3c 3369 4bbd 3bb7 58bd c664 c43a
000001b0: 10ed 9f3c 5d9d 07bd ad46 dc3c a131 60bd
000001c0: af3a e4bc 50e2 a3bc 2c02 7e3d b9ba 52bd
000001d0: 4a5a b93c e95e b43c 3ca4 d5bc 0d15 163d
000001e0: 5866 6c3d 3130 483d 1e8f b33c fb4b 5abd
000001f0: 4b36 a5bc 9542 45bc 93ad c03c d038 6f3d
00000200: 9063 063a cf19 4d3d e0fb b53c 4821 4bbc
00000210: f627 6dbd 72bc 153d 2aac 58bd 4e13 2dbd
00000220: 9ad8 38bd 1995 c43c d5a6 4bbd 540a 85bb
00000230: cd71 13bd d462 163b c638 793b 7db4 6c3d
00000240: 39a6 153c 2cc7 f9bc a416 49bc cae6 f7bc
00000250: 6485 a8bc 1777 0f3c 34d6 363d 3c2c 68bd
00000260: 5102 cdbc ba9f 343b f74c b8bc b8c2 213d
00000270: 89be ebbc c752 5f3d ffa1 573d 7b8b e43b
00000280: 94c1 adbc ccda 99bc 25f3 2e3d e35d 22bc
00000290: 82ab 7aba 2351 4fbd 64e9 dc3c f0f3 40bc
000002a0: 34fa 903c ff85 7ebd d89b 613d c8f1 0b3d
000002b0: 24cc 6fbd 0d06 abbc d45e 72bd 0487 74bd
000002c0: d58a 513d c086 543d 76df 223c d753 45bc
000002d0: acc3 bb3c d4a0 583d a543 b03b 66ac 80bd
000002e0: 6918 063d 43a6 523d 3690 3abd 3806 41ba
000002f0: d8bc 823c a6fe 143d ce9e 87bd 6a66 65bd
00000300: 933a 0d3d 1108 d7bb 63d7 843c a751 0bbc
00000310: 2862 b7bc 381b edbc 3512 bb3c a59d 4fbd
00000320: 02cc 2c3d f00e e2bc e7e4 47bd 9e05 343d
00000330: 38ce 4abc 67d6 75bd dc07 c3ba 2364 ebbc
00000340: 692e 7abc fb7a 5abd 094c 1cbd b8a1 34bd
00000350: 230c 4f3d d66e 39bd 8ff3 34bd ea7f 6f3d
00000360: 1b7e 963c 2fc7 7abd e06d 313c a053 68bd
00000370: aa0b 31bd 7073 093d 03ac 0e3d 1a5a 1e3d
00000380: 4752 5fbb 9973 303d d29d 273c 48a4 ea3b
00000390: d418 53bd 4439 063d 535e d63c 9d39 0dbd
000003a0: 432f debc d89b cf3c 961f c13c 9025 693d
000003b0: cae5 583d 2970 6d3d e27c 72bd fd1d febc
000003c0: 0a5d 0cba 6a8e 0ebd 259d 3f3c 6e99 423d
000003d0: e91c 4cbd 59e7 5cbd 4ded 64bd b911 f93c
000003e0: 3ac8 76bd 8a71 6e3d f955 f3bc 2b0c 15bd
000003f0: 0bd5 7dbd b537 5ebc 2292 113d b43e 15bc
0.018561086 -0.019846514 -0.028556585 0.040204216 0.0027737755 0.040355098 0.018912908 -0.02566811
0.034359116 -0.022552969 0.0073923236 -0.017888343 -0.05385131 0.058199964 0.0103056915 0.046746418
-0.059069872 -0.010948578 0.022054136 -0.016674476 0.009613806 0.027851963 -0.0495999 -0.02767102
-0.01553722 0.01844595 -0.018712208 -0.015856562 -0.003685935 0.042969488 0.056692418 0.023207292
0.042499553 -0.022522384 -0.02703466 -0.06290131 0.029253269 -0.0011381689 0.049037065 -0.043379255
0.020709023 -0.013584857 0.04145601 -0.04213126 -0.06284127 0.000528486 0.055212244 -0.0012578167
0.050648168 -0.035107136 0.03409358 0.05259554 0.032405287 -0.029340142 -0.036124416 0.06097514
0.016908782 0.05031295 -0.020656114 0.018776428 0.032941908 -0.0028103867 -0.0034519702 0.014748234
-0.048829284 0.020928025 0.03803601 0.020217918 -0.058139253 0.015417218 -0.056691654 -0.05544984
-0.007288525 0.005886754 -0.045504883 0.01398298 -0.04301288 -0.009842309 0.042456828 0.01764169
-0.0077590668 -0.033556826 -0.0011545701 -0.040520746 0.021707712 -0.024529926 0.03864568 -0.052522264
0.053167865 0.05198941 -0.011761289 0.042592272 -0.02307008 0.029691406 0.02153175 0.048720345
0.029412827 -0.037472587 -0.045091942 0.040603496 0.032993354 -0.048494525 -0.026500111 0.035751987
0.02475605 -0.049660873 -0.052909117 0.0014983646 0.01952222 -0.033109058 0.02688917 -0.05473483
-0.027860014 -0.020005375 0.06201379 -0.051447604 0.022626061 0.022017913 -0.02607929 0.03664117
0.05771479 0.048874084 0.02191883 -0.053295117 -0.02016749 -0.0120398 0.023520267 0.05840379
0.00051265303 0.05007344 0.02221483 -0.012398072 -0.057899438 0.03655667 -0.052898563 -0.04225474
-0.045128442 0.023996877 -0.04971965 -0.004060069 -0.0359972 0.002294709 0.0038028224 0.057789315
0.009133869 -0.03049048 -0.012273464 -0.030261416 -0.020571418 0.008756421 0.044637874 -0.05668281
-0.025025519 0.0027561025 -0.022497637 0.03949234 -0.028777378 0.054522302 0.052644726 0.006974635
-0.02121047 -0.018781088 0.04271235 -0.00991008 -0.00095623 -0.050614487 0.026966758 -0.011776909
0.017697431 -0.062139507 0.055080265 0.034166127 -0.058544293 -0.020876909 -0.059172466 -0.059699073
0.05115779 0.05188632 0.009940973 -0.012043915 0.022920452 0.052887753 0.0053791576 -0.062828824
0.032738123 0.05142809 -0.045547687 -0.00073632924 0.015959188 0.036375664 -0.066220865 -0.056005873
0.03447969 -0.006562241 0.016215986 -0.008503354 -0.022385672 -0.028943643 0.02283583 -0.05068745
0.042186745 -0.027595013 -0.048802283 0.04395067 -0.012378268 -0.060018923 -0.0014879662 -0.028734272
-0.015269854 -0.05333994 -0.03815845 -0.04409954 0.050548684 -0.045271717 -0.044177588 0.058471598
0.018370679 -0.061225113 0.010829419 -0.056720376 -0.043224014 0.033557355 0.034832012 0.038660146
-0.003407614 0.043078993 0.010230498 0.007160697 -0.05153735 0.032769457 0.026168024 -0.034478772
-0.027122146 0.025342867 0.023574632 0.056920588 0.05295352 0.057968292 -0.05920113 -0.031020159
-0.000535444 -0.034803785 0.011695181 0.047509603 -0.04983226 -0.053931568 -0.05589037 0.030403959
-0.060249545 0.058213748 -0.02970408 -0.036388557 -0.06197075 -0.013563086 0.035539754 -0.009109188

output.weight f4 [4, 256]
00000000: 2bc6 68bd a5bc 9cbc 6c9c 57bd 480c a03c
00000010: e746 3f3d e20f 89bc abe7 4d3d 4079 1abd
00000020: 554e 4bbd 42b7 d83c ced2 343d 3715 cebc
00000030: c288 bc3a d540 efbc 5c3b 253d f325 2a3a
00000040: 3993 5d3d 0952 87bd da97 48bc 6e03 66bc
00000050: 7f08 90ba 73ca c13c 0883 2fbd 92a3 d33c
00000060: 6e39 80bd f4e9 4cbc 5dd3 b7bc e062 cdbc
00000070: a4d8 bdbc 3a08 963b f7a4 93bb 4f82 31bb
00000080: b807 943c 2841 b0ba f654 e73c 3728 523d
00000090: f828 cdbb 879b 0d3d 62aa 24bc 6839 443d
000000a0: ab32 3a3d 8512 e7bb 6b81 673d 4235 79bd
000000b0: a2d8 323c 64cc 413d 96b6 813c 9c64 7dbd
000000c0: 3f16 58bc bebf 6a3c f441 613d ef84 9c3c
000000d0: c2e7 8b3b f049 7e3c 09ac 3ebb 9ce8 4e3d
000000e0: 0f46 b53c 1971 95bc 4c7d 41bc d808 c0bc
000000f0: 13af 9c3c bddb 923b 8c62 60bd 4bc0 64bd
00000100: 48b5 7b3b 2245 513d 61d6 7fbd f67e f13c
00000110: 0360 20bd 3095 123d 0b00 263d f8a6 4abd
00000120: 9b2d 25bd c534 bf3c 3f06 383c c396 6a3d
00000130: 6431 1b3d eb62 ad3c 69be 523d 5f50 18bd
00000140: 3bae c03c f402 6a3d 542d 3fbd 4e2a 61bd
00000150: cde0 87bb b2bd 01bd 1752 e33c e0e7 3bbd
00000160: 4260 7f3b e882 073c 7ed9 583d c7f8 f6bc
00000170: ceef 583d d6aa 683d 0d9e 1abc a113 c4bc
00000180: 33d7 86bc 8238 87bd 8109 ba3c a74e fe3c
00000190: a2aa 433d 5433 33bd 7aa2 673d 7129 4bbd
000001a0: 4432 c5bb c6b7 c83b 3365 57bd 592a 363c
000001b0: 0c97 ccbc e396 513d 584b 6ebd 86a3 26bd
000001c0: 59df b33c 9915 b53c aed0 e53c 1b8e 9dbc
000001d0: 2d14 04bc 4eaf d53c ff21 23bd 5d06 63bd
000001e0: b6aa 0fbd 385a 6abd 4a21 4bbd e87e 323d
000001f0: 43ce 0e3d 0b45 d53c 72e4 623d 1aab 733d
00000200: 3b47 5a3d 8099 79bc c620 8e3c 8cdd b13c
00000210: a998 983b 67b1 123c 84fe 0ebd 978c 8ebc
00000220: 5eba 6d3d f6af f63c cd84 323c ad8c e13c
00000230: 18ea 11bd 8534 d9bc 1eeb edbb 447f aebc
00000240: eb4d 3a3d 49c6 8b3c 37fe e23c 03c4 e53c
00000250: 31d0 9a3c 7eab 7cbc fd41 033d 6fc8 d73c
00000260: 2855 14bd 4e6e a4bc b43c f93c 0cf1 72bc
00000270: 2990 973c 47b3 c3bc d977 b13c 7a49 4dbd
00000280: c863 d83b 8125 3c3d 0777 193d 3fb4 803c
00000290: 3ae8 dc3c 205b c5bc f9f0 713d 868b 0bbd
000002a0: 027e 25bd c8e9 d0bc f162 003d eb98 ae3b
000002b0: 6c48 0f3c 821a 65bd d4a5 563d 3213 42bd
000002c0: 774e 7e3b 86a1 673c 4569 d23c 912c 4cbd
000002d0: ce84 313d eebe 253d 7cd6 c43c 651d d83c
000002e0: 3611 ae39 c186 01bc ed13 9dbc 0a89 4bbd
000002f0: 31e3 8d3c 26f1 64bd a956 8d3c 8dc6 7b3b
00000300: e0eb 1ebd 7890 253d b5f8 663c 3418 36ba
00000310: 1422 6fbc 92eb 883c 8ac3 3f3d 9ab6 5a3c
00000320: b041 d93a 6ea8 023d 0608 cfbc d427 e4bc
00000330: 077c 01bd 2e57 88bc b6b1 cfbc 89b6 14bd
00000340: 8a80 103d 05bf b8bb e0bc 863c ff20 993b
00000350: 081e fb3c 2d68 293d df75 1e3c 5b2e 78bd
00000360: 566e 153d e22f d63b adc3 2e3d ebee 163d
00000370: e97f 99bc 086d e6bc 08f0 4bbc a474 ae3c
00000380: 3442 473d 1f13 563d bf80 39bc c107 093d
00000390: a206 1cbd 14de ac3c 7782 3c3d 738a 5c3c
000003a0: a268 243c 7b50 2d3b ca7f d33b a113 3a3c
000003b0: aa1e 613d b003 6c3d 7a9d 8ebc 816c 77bd
000003c0: 3243 3fbd 1b3b 2fbd 974c 673d c995 2b3d
000003d0: d397 02bc 4175 203d db5a 9e3c 7da2 3ebd
000003e0: f525 42bd 8fee 023d 6f60 3e3d 3962 32bd
000003f0: c68d f23b ad3c 6fbd b090 6e3c c76e a33c
-0.056829613 -0.019132921 -0.05263941 0.019537106 0.046698477 -0.016731206 0.050269764 -0.03771329
-0.04963525 0.026454572 0.04414635 -0.0251566 0.0014384019 -0.029205719 0.040339813 0.000649064
0.05409548 -0.06607444 -0.0122432355 -0.014038904 -0.001098886 0.023656106 -0.04284957 0.025834832
-0.06260954 -0.012506951 -0.022439653 -0.025071561 -0.023174591 0.0045786174 -0.0045057493 -0.0027085727
0.018070087 -0.0013447152 0.028238755 0.051307883 -0.0062609874 0.03457215 -0.010050388 0.04790631
0.045458477 -0.0070517682 0.056519907 -0.060841806 0.010915907 0.047314063 0.015834134 -0.061863527
-0.013188898 0.014327941 0.05499454 0.019106356 0.004269571 0.015520558 -0.002909424 0.050514802
0.022128133 -0.018242406 -0.011809658 -0.023441717 0.01912645 0.0044817613 -0.05478148 -0.055847447
0.0038407613 0.05109132 -0.062460307 0.029479485 -0.039154064 0.035786808 0.040527385 -0.04947564
-0.040326696 0.023340592 0.011231958 0.057272684 0.0378889 0.021165332 0.05145112 -0.037186023
0.02352058 0.057131723 -0.046674088 -0.054971986 -0.0041466714 -0.03167505 0.027749104 -0.04587543
0.0038967286 0.008270957 0.05294179 -0.030147923 0.05296307 0.056803547 -0.009437096 -0.023935141
-0.016460037 -0.06602575 0.02270961 0.031043364 0.04777015 -0.043750122 0.056551434 -0.04960007
-0.006017955 0.006125423 -0.052586745 0.011118495 -0.024974369 0.051169287 -0.058177322 -0.04068329
0.021957086 0.022105025 0.028053608 -0.0192328 -0.008061451 0.026084568 -0.039827343 -0.05542599
-0.035074912 -0.057214946 -0.049592294 0.04357806 0.034864675 0.026033899 0.055393644 0.059489347
0.053290587 -0.015234351 0.017349612 0.021712087 0.0046568704 0.008953429 -0.034910694 -0.017401023
0.05803906 0.030113202 0.01089592 0.0275329 -0.03562364 -0.026514301 -0.007260694 -0.02130092
0.045484465 0.017062323 0.02770911 0.028047567 0.018898102 -0.015421746 0.032045353 0.026340691
-0.036214024 -0.020072129 0.030424453 -0.014827978 0.018501358 -0.023889197 0.021663593 -0.0501189
0.0066036917 0.045934204 0.03746703 0.015710948 0.026966203 -0.024091303 0.0590677 -0.034068607
-0.040403374 -0.0255021 0.031344358 0.005328288 0.008745294 -0.055933483 0.05240424 -0.047381587
0.0038804093 0.014137631 0.025684962 -0.04984719 0.043339543 0.040465288 0.024028055 0.026381204
0.0003320069 -0.007905663 -0.01917454 -0.049691238 0.017320247 -0.05589404 0.017253237 0.0038417906
-0.038799167 0.04042098 0.014097382 -0.00069463556 -0.014595527 0.016713891 0.04681734 0.0133492
0.0016575363 0.03189891 -0.02527238 -0.027851023 -0.031612422 -0.016643133 -0.025353294 -0.03630689
0.035278834 -0.0056380057 0.016447484 0.004673123 0.030653968 0.041359115 0.009671657 -0.060591083
0.036482178 0.00653647 0.04266708 0.036848944 -0.01873775 -0.028128162 -0.012447365 0.021295853
0.04864712 0.05226433 -0.011322199 0.03345466 -0.038092263 0.021101989 0.04602286 0.013460743
0.010034712 0.0026445675 0.0064544426 0.011357219 0.054960884 0.057620704 -0.017409075 -0.06040621
-0.04669494 -0.042780977 0.056469526 0.041890893 -0.007970768 0.039174322 0.019330433 -0.04654168
-0.04739948 0.03196579 0.046478685 -0.043550704 0.0074021546 -0.058407474 0.014560863 0.019950284

output.bias f4 [4]
00000000: 38ed 08bd 2f91 ee3c 46e1 623d b4b0 9d3c
-0.033429354 0.029121963 0.05539062 0.019249298
