DDPG-HER/Pre-trained models/FetchPush-v2.pth (torch, 563763 bytes, 8 tensors)

fc1.weight f4 [256, 28]
000000 89 5d 0c bc a0 f0 e7 3d e2 29 00 3e 81 bb d3 be
       -0.008567222 0.113251925 0.12515977 -0.41353992
000010 3a 7a 38 bf 7f 14 36 bf 46 62 f9 be 57 50 24 bf
       -0.720615 -0.71125025 -0.4870779 -0.6418509
000020 6f df bd be d2 69 6d be 3a 7a 36 3f 59 05 03 be
       -0.3708453 -0.23184898 0.7128025 -0.12795009
000030 7b f4 30 be e1 18 fc 3d ec bc ec bd 94 30 79 3e
       -0.17280762 0.12309433 -0.115594715 0.24334937
000040 d1 2d a3 be 50 aa 94 bb b6 3c 25 bd 0c d4 eb 3d
       -0.31870893 -0.0045369044 -0.0403411 0.11515054
000050 d2 9e 0c be f7 e4 4b 3e 60 2a c4 be 1b fe eb bc
       -0.1373246 0.19911562 -0.3831358 -0.02880769
000060 ef 48 dc 3e a8 e9 29 3f 77 2a fc 3e e1 d3 59 bf
       0.43024394 0.66372156 0.49251148 -0.85088927
000070 17 66 11 be 6e 24 fc 3d 84 95 70 be ad 02 10 3f
       -0.141991 0.12311636 -0.23494536 0.5625408
000080 5f 5f 71 be 78 71 76 be 32 a4 d6 3e 6c ff d4 be
       -0.23571537 -0.24066722 0.41922146 -0.4160112
000090 0d 1e 86 3c d0 29 c8 3e f9 5d 9a bd c7 07 a1 bc
       0.016371751 0.390944 -0.07537455 -0.019657029
0000a0 ba a5 98 be e6 35 b9 3c cb cc 1f bd b5 95 3e be
       -0.2981394 0.022608709 -0.039013665 -0.18611796
0000b0 05 ac 90 be 6f 78 8d bd 58 42 0f bd 9a c8 17 3d
       -0.2825624 -0.069077365 -0.03497538 0.037056543
0000c0 7a 88 8b 3d 5a e4 60 be d9 d2 72 be ad 9d be be
       0.0681314 -0.21962109 -0.23713244 -0.37229672
0000d0 0e 59 20 bf b0 6c f3 3e f1 7b b1 3e fe b8 78 bf
       -0.62635887 0.4754386 0.34664872 -0.97157276
0000e0 98 1d 8d 3d 1d 96 4c bf 76 2d 4f be ee 47 0f bf
       0.0689041 -0.79916555 -0.20232186 -0.5596913
0000f0 05 ab 37 3e 19 fb ad 3e 06 89 80 bf fe 76 7d 3f
       0.17936333 0.33980635 -1.0041816 0.9900969
000100 33 4b 86 3e c1 0a c4 3c 7a 04 eb bc 9f 21 7e bd
       0.26229247 0.02393091 -0.028688658 -0.062043782
000110 da 2b b7 3d b7 0e 01 3d bb 2f 81 be cd 8e 45 bd
       0.08943911 0.031508174 -0.25231728 -0.04823189
000120 e1 7a 2d 3d fe 14 6f bc 92 eb 23 bd 51 8e e8 bc
       0.042353515 -0.014592407 -0.04001958 -0.028388174
000130 cf f9 87 be 4c 03 ad bd 42 b3 ac 3c 97 69 9c 3d
       -0.26557776 -0.084478945 0.02108157 0.07637327
000140 24 6f df 3d c0 56 e8 3e 4b 27 1c 3f 55 c5 41 bf
       0.1090987 0.45378685 0.60997456 -0.7569173
000150 e2 c0 e8 3e 07 87 c9 be 7c 63 89 bc 58 a9 22 3d
       0.45459658 -0.3936083 -0.01677107 0.03971228
000160 df 0e 47 3f 20 8a 04 bf 74 e4 97 be 14 c7 d8 3f
       0.77757066 -0.5177326 -0.29666483 1.6935754
000170 95 c9 6a 3d ec de 67 3e 6e 59 b8 be aa 46 65 3c
       0.05732115 0.22643632 -0.3600573 0.013993898
000180 38 3e ab bc 88 6b c8 3d 40 ae 5d be a4 4e 86 3e
       -0.020903692 0.09786135 -0.21648502 0.26231873
000190 27 c4 57 3d 54 4e 84 3d 21 a2 87 bc 93 0d 91 bc
       0.0526773 0.064602524 -0.016556801 -0.017706668
0001a0 6f 5a 23 be 11 9c 61 3e 83 91 96 3d 4a 2c 62 be
       -0.15952466 0.22032191 0.07351973 -0.22087207
0001b0 ae 11 70 bd 68 f4 99 be 38 f3 a6 be be bf 64 bf
       -0.05861061 -0.3006928 -0.32607436 -0.89355075
0001c0 0c ea 97 bd 58 4c 1b ba b9 98 2e 3e e4 81 d2 be
       -0.07417688 -0.0005924157 0.17050447 -0.41114724
0001d0 f8 0d 0e 3e 9a 5d a2 bf 92 f7 f0 be f2 2e ea 3e
       0.13872516 -1.2684815 -0.4706388 0.4573894
0001e0 09 f9 8c bd 56 8a 54 3e d8 f6 39 bf dd 5f 00 bd
       -0.06883437 0.20755896 -0.7264228 -0.031341422
0001f0 ca bf ac bc e6 44 a7 bd ea 3a 2d be d8 f8 90 3c
       -0.021087546 -0.08167438 -0.16917005 0.017696783
000200 5e 34 d4 3e 35 1b 83 3e 2e bf 5b 3e 38 df 01 be
       0.41446203 0.25606695 0.21459648 -0.12682807
000210 b0 b0 f0 bd 8f 40 24 3d 89 cd 91 3e be 5c 2f bf
       -0.117524505 0.04010063 0.28477123 -0.6850089
000220 81 bb c6 be 66 d1 07 3e 51 82 d4 3d 2e a6 a1 3f
       -0.3881493 0.13263473 0.103764184 1.2628839
000230 c2 41 e6 3e 00 d9 43 3c a7 5b d8 3d f9 d9 da 3e
       0.44972044 0.011953592 0.10564356 0.42744425
000240 b2 79 91 bd fd 1f 21 be fe 72 a5 3e 77 42 19 3e
       -0.0710329 -0.15734859 0.32314295 0.1496676
000250 03 60 22 3e c0 61 cc 3e 3f 35 11 bf 2d d0 4b bd
       0.15856938 0.39918327 -0.5672187 -0.04975908
000260 89 a1 80 3c 30 2e 3b 3c 16 44 b5 3e b1 03 08 be
       0.015702026 0.011424586 0.35403508 -0.13282658
000270 bb c1 ab 3d 6d e5 a9 bb e6 85 ae be 6e e1 4d 3d
       0.083865605 -0.0051848204 -0.3408653 0.050263815
000280 23 cc 96 3e c1 1b 59 3d ed 66 0e 3e 21 b6 47 3e
       0.2945262 0.053004984 0.1390645 0.1950307
000290 e0 54 0d be fc bf a4 3d 63 d9 bb bd 58 55 1b 3f
       -0.13801908 0.080444306 -0.091723226 0.606771
0002a0 8a 20 d7 be 34 91 27 3f c0 0e 80 3d c0 79 0f bf
       -0.42017013 0.6545594 0.06252813 -0.5604515
0002b0 d2 3f 85 3f 45 2d e2 bd d8 53 cc be 60 e4 fa 3e
       1.0410101 -0.11043791 -0.39907718 0.4900236
0002c0 01 7a 75 3d 73 cc 08 be 70 eb 59 3e 49 77 2c 3b
       0.059930805 -0.13359241 0.21281219 0.0026316217
0002d0 ad 09 35 3d c8 1e 24 bb 6e 21 01 be 44 70 3e 3e
       0.04419868 -0.002504276 -0.12610409 0.18597513
0002e0 73 16 88 3d 0b b4 4a 3c 3e 10 1e 3d 41 a1 25 bb
       0.06644907 0.012372027 0.03858971 -0.0025273117
0002f0 fb 6d 11 be 43 90 27 3e 09 fe 34 3d 4d ac 59 3c
       -0.1420211 0.16363625 0.04418758 0.013285709
000300 76 ee a7 bc 64 c4 73 3f eb 2c cc bf c4 83 cb 3e
       -0.02049945 0.95221543 -1.5951208 0.39748967
000310 ff db d3 be 61 4a 21 be 84 82 d7 bd 4d 76 19 bf
       -0.4137878 -0.1575103 -0.10522941 -0.5994614
000320 c9 f9 cf be 08 84 39 be 2f 47 31 bf 44 53 ed be
       -0.40620258 -0.18116772 -0.6924924 -0.4635259
000330 ce f8 3b be 94 0e e5 be 40 fa 42 3f 45 b6 8c 3d
       -0.1835663 -0.44737685 0.761631 0.06870703
000340 9f a4 18 bd d3 1c 92 bb 11 55 32 be f7 fb f2 bd
       -0.03726637 -0.0044590025 -0.17415263 -0.11864465
000350 60 ab e7 bd 7f 0d 3e bd c0 92 82 3d 94 c8 ad 3c
       -0.11311984 -0.04639959 0.063756466 0.021213807
000360 db 86 44 be 64 9d 00 be f5 3b d3 bd fc c8 28 bd
       -0.19192068 -0.1256004 -0.1031417 -0.0412073
000370 2b 44 c1 3d 56 5a 80 3f 54 da e7 3e 11 95 99 bd
       0.0943683 1.0027568 0.4528376 -0.07499135
000380 d5 1f 96 3e 42 87 63 3e 4c af 17 be fe 34 23 3e
       0.2932116 0.22219566 -0.14812964 0.15938184
000390 c1 ba 01 3f 36 78 44 be 05 a4 5e be e0 f7 78 3f
       0.5067559 -0.19186482 -0.21742256 0.9725323
0003a0 a6 76 ce 3b 5d 2c 2c 3f 0b bb a6 bd 25 f0 f4 3d
       0.006300765 0.67255193 -0.08141144 0.119598664
0003b0 c9 f2 85 3d fe 35 54 bc a8 a8 8a 3d 73 b9 50 3e
       0.06540448 -0.012952326 0.0677045 0.20383243
0003c0 e3 03 f0 3c f7 bd 14 be 01 1c 68 3e e1 00 d5 bd
       0.029298728 -0.14525591 0.22666933 -0.10400558
0003d0 4b f0 e1 3d 01 73 d3 3d 59 28 da 3d 82 57 c4 3d
       0.1103216 0.1032467 0.10652227 0.09587003
0003e0 6a 6e a4 bd ce c8 bc bd 6d ce 01 bf cd 3b db bf
       -0.08028872 -0.09217988 -0.50705606 -1.7127625
0003f0 8c 34 46 3f d6 2a 38 be 65 a6 21 bf 07 13 b5 be
       0.7742393 -0.1798509 -0.6314452 -0.3536608

fc1.bias f4 [256]
000000 bd 34 ab bf bd 90 a1 bf bf 74 a9 bf fe d8 a3 bf
       -1.337547 -1.2622296 -1.3238753 -1.2800596
000010 cc cd 8a bf 35 5a f8 bf de a0 38 be 65 85 62 3f
       -1.0844054 -1.9402529 -0.18030116 0.88484794
000020 8d 3e a5 bf 16 8a 94 bf 07 a4 fc bf 28 8f d7 bf
       -1.2909714 -1.160464 -1.9737557 -1.6840563
000030 b4 7e 03 bf 7d 51 ca bf 4c 2d 94 bf cc 3c a4 bf
       -0.5136521 -1.5806118 -1.1576324 -1.2831054
000040 e7 ad 81 bf 03 92 c3 bf 25 c3 a8 bf de 90 ac bf
       -1.0131196 -1.5278934 -1.3184553 -1.348171
000050 2d 94 bf bf 2e 48 ad bf 1d ef c2 bf 4a ba b2 be
       -1.4967095 -1.3537652 -1.5229222 -0.34907752
000060 11 bd a1 bf 80 31 b9 bf 13 1b 38 bf 64 84 80 3e
       -1.2635823 -1.4468231 -0.7191631 0.25101006
000070 4a 55 2e bf 90 ab ea bf bf f3 68 bf 29 3e eb bf
       -0.6809889 -1.8333607 -0.9099693 -1.8378345
000080 94 e8 58 3f 50 7a 09 c0 38 24 98 be da 1b 89 be
       0.84729886 -2.1480904 -0.29715133 -0.26779062
000090 0f 50 44 bf 64 82 e0 bf 39 fd c6 bf 44 66 af bf
       -0.7668466 -1.7539792 -1.5546027 -1.3703084
0000a0 3c e9 40 bf 2a 24 a5 bf 1d 3c 97 bf 55 90 27 3f
       -0.7535589 -1.2901661 -1.181522 0.6545461
0000b0 4a 6d cc 3d 02 79 fb bf 7b 06 d2 bf 8e 1d 7a bf
       0.09981783 -1.9646304 -1.6408228 -0.97701347
0000c0 94 2d 70 bf 63 c8 8f bf 95 3f c8 bf 9f e8 d6 bf
       -0.93819547 -1.1233028 -1.5644404 -1.678974
0000d0 a1 d4 6b bf f1 48 77 bf 63 ae e6 bf 98 cd e5 bf
       -0.9212132 -0.96595675 -1.8021969 -1.7953367
0000e0 a5 18 d7 be a4 49 b5 bf 23 b2 cc bf 2f be 01 bf
       -0.4201099 -1.4163098 -1.5991863 -0.5068082
0000f0 d6 81 f4 bf 95 73 b6 be fc b5 c4 bf 69 13 af bf
       -1.9102123 -0.35635057 -1.5368037 -1.3677799
000100 ab 9c 41 bf 87 a2 69 bf 8d ad b2 bf a3 36 e2 bf
       -0.7562968 -0.9126362 -1.3959213 -1.7672924
000110 81 ac 2c 3e 47 68 34 bf d7 f4 f5 bf 6a b1 9b bf
       0.1686268 -0.70471615 -1.9215344 -1.2163517
000120 ce 77 ee bf 05 95 dd bf 97 f4 9d bf ed 3a 23 bf
       -1.8630311 -1.7311102 -1.2340268 -0.6376179
000130 15 e5 ec bf 6f 3b 41 bf 11 5a a0 bf a9 b7 92 bf
       -1.850741 -0.75481313 -1.2527486 -1.1462299
000140 0c 07 86 bf 7c f1 06 c0 74 39 32 bf 4f 1d 9e bf
       -1.04709 -2.108489 -0.69618917 -1.2352694
000150 1a 7d 62 bf 8f 46 dd bf 2c 06 6e bf 85 7e c4 bf
       -0.8847214 -1.7287158 -0.9297817 -1.5351111
000160 07 05 0c c0 49 ed 90 bf 85 1e 0b bf 1e df 40 bf
       -2.1878068 -1.1322414 -0.54343444 -0.7534045
000170 c9 c9 be bf 11 a8 af be e9 b4 89 bf ca d5 9c bf
       -1.490533 -0.34307912 -1.0758334 -1.2252743
000180 cb 52 c0 bf c3 fd 8f be cd 00 6a bf 79 04 a9 bf
       -1.5025266 -0.28123292 -0.9140747 -1.320449
000190 e6 b9 6d bf 7b 6d fb bf 41 1f d0 bf 88 ed aa be
       -0.92861784 -1.9642786 -1.6259538 -0.33384347
0001a0 90 9b fb ba 28 f9 c5 bf c3 ef bf bf 67 3c bf bf
       -0.0019196142 -1.5466661 -1.4995044 -1.4940308
0001b0 e6 93 c5 bf 1a 16 dd bf 25 05 52 be 63 9a cd bf
       -1.543576 -1.727237 -0.20509775 -1.606274
0001c0 fe 8d 70 bf 10 a2 e1 be 5d 3a 64 bf 5f a3 74 bf
       -0.9396666 -0.44068956 -0.89151555 -0.95561785
0001d0 69 4a 89 bf dc 2b a7 bf 30 51 c3 bf 55 ac 2b bf
       -1.0725833 -1.306026 -1.5259151 -0.6705983
0001e0 ea ec 96 bf a4 54 9c bf 41 78 ec bf 83 16 b5 bf
       -1.179105 -1.221333 -1.8474199 -1.4147495
0001f0 3d ad a0 bf ff 67 65 bf ac 29 d7 bf cd 72 93 bf
       -1.2552868 -0.8961181 -1.6809592 -1.151941
000200 d2 c0 92 bf 55 0c 98 bf 7c a8 bb bf 44 03 de bf
       -1.1465094 -1.1878763 -1.4660792 -1.7344747
000210 49 51 9d bf 98 43 ef 3e 6a e8 c5 bf 81 45 e6 be
       -1.2290431 0.46731257 -1.5461552 -0.44974902
000220 28 f9 ed bf 88 62 89 bf 76 88 9c bf 49 4b b0 bf
       -1.8591661 -1.0733194 -1.2229145 -1.3772975
000230 25 34 a6 bf 5d e4 d9 be e7 3d a7 bf c7 a1 92 bf
       -1.2984663 -0.4255704 -1.3065766 -1.145562
000240 9b 3a 34 3e 0d 4c bc bf f7 13 c0 bf 27 b9 1d bf
       0.17600481 -1.4710709 -1.5006093 -0.61610645
000250 7e f4 9b be 11 93 bf bf bf 67 e5 bf a7 80 a8 bf
       -0.3045997 -1.4966756 -1.7922286 -1.3164262
000260 16 4f a0 bf 96 8c 7e bf 83 5b 98 bf 93 c5 ba bf
       -1.2524135 -0.9943327 -1.1902927 -1.4591545
000270 ad 4d ad be 51 b6 92 bf 41 8b aa bf 37 48 de bf
       -0.33848324 -1.1461889 -1.3323747 -1.7365788
000280 5b 57 ee bf 42 18 d2 bf a8 69 af bf 86 b3 3a bf
       -1.8620409 -1.6413653 -1.3704119 -0.7293018
000290 18 cc f0 bf 76 6c e0 bf 7b 71 c7 bf e0 31 c0 bf
       -1.8812284 -1.75331 -1.5581506 -1.5015221
0002a0 8b 7d 8b bf 78 f4 7e be 9d 61 9a bf 28 77 98 bf
       -1.0897688 -0.24897945 -1.2061039 -1.1911364
0002b0 b1 7c f6 bf 6b 32 8a bf a3 f7 e0 bf 5d 92 cc bf
       -1.9256803 -1.0796636 -1.7575573 -1.5982167
0002c0 e5 f6 2d 3f 27 15 a3 bf a9 cf ae bf 26 75 b1 bf
       0.67954856 -1.274083 -1.3657123 -1.3863876
0002d0 3a 7d 9c bf 98 32 e1 be 77 09 bb be 56 37 f5 bf
       -1.2225716 -0.43983912 -0.3653066 -1.9157512
0002e0 8c 85 9a bf 19 6e a3 bf 97 f2 36 bf 6c 36 e5 bf
       -1.2072005 -1.2767974 -0.7146391 -1.7907233
0002f0 0a 91 08 bf 49 aa bd bf b8 8b c1 bf f8 40 81 bf
       -0.5334631 -1.4817592 -1.5120764 -1.0097952
000300 4a c8 85 bf 87 ec ce bf ff 72 e6 bf 9f fe d8 bf
       -1.0451748 -1.6165932 -1.8003844 -1.6952704
000310 50 1c 85 bf 5c 5b 9e bf 0b e9 3d bf 9b d2 af bf
       -1.0399265 -1.2371631 -0.7418372 -1.3736147
000320 f3 da 88 bf 4b d7 8d bf 86 a2 96 bf 18 c9 ef bf
       -1.0691818 -1.1081327 -1.1768348 -1.8733244
000330 2f 89 03 c0 3a ab a8 bf 5f 4c c1 bf 80 14 58 bf
       -2.055248 -1.3177254 -1.5101432 -0.8440628
000340 05 aa 9d bf 9c b6 e5 bf 2c 11 a1 bf e5 6b cf be
       -1.2317511 -1.7946353 -1.2583365 -0.40512004
000350 1e 0f e3 bf d4 85 c2 bf 35 49 15 3f ed e5 a2 bf
       -1.7738988 -1.5197091 0.5831483 -1.2726418
000360 14 fc f1 bf 7f e8 d0 bf 10 55 cb bf 37 f9 b0 bf
       -1.8905053 -1.6320952 -1.5885334 -1.3826054
000370 22 59 cb bf 18 dd 9a bf 27 e3 7c 3f 8a 90 b6 bf
       -1.5886576 -1.2098722 0.98784107 -1.426286
000380 19 11 b8 bf d2 af 36 bf d8 3c c1 bf 0b 50 ac bf
       -1.4380218 -0.7136203 -1.5096693 -1.3461927
000390 ad 88 10 3e 48 5f 8e bf ed 9a b2 bd d3 fb e5 bf
       0.14114638 -1.1122828 -0.08720956 -1.7967476
0003a0 71 b7 aa bf 9d 75 09 bf 8a 55 67 bf 85 50 13 bf
       -1.3337232 -0.5369509 -0.903649 -0.5754474
0003b0 13 db ef bf 17 36 07 bf d8 08 4f bf e4 bc 6d be
       -1.8738731 -0.5281691 -0.8087287 -0.23216587
0003c0 9f 14 04 c0 79 ad c1 bf 69 f5 45 3f bd 0f b7 be
       -2.0637586 -1.5131065 0.7732759 -0.35754195
0003d0 71 e6 a3 3e 34 31 de bf 2a d2 86 bf 78 16 e5 bf
       0.3201175 -1.7358766 -1.0532887 -1.7897482
0003e0 14 d2 15 be d0 c8 64 bf 1f df 9e bf 63 a6 0a c0
       -0.1463092 -0.89368916 -1.2411841 -2.1664054
0003f0 46 f9 e4 3d 24 74 ce bf 7e 47 82 bf b8 c3 7a bf
       0.11180358 -1.6129193 -1.0178068 -0.97954893

fc2.weight f4 [256, 256]
000000 31 e2 69 3b 43 bc 0f bc 6c e1 a4 3c 49 ff 5f bd
       0.00356878 -0.008772912 0.02012702 -0.05468682
000010 b4 ac 18 bc f9 ef 92 3c 2f 84 4e bd 2c f6 2d bb
       -0.009318519 0.017936694 -0.05041903 -0.0026544435
000020 f0 03 80 bd f1 38 86 bd 67 31 6d bd ad 82 4d 3d
       -0.06250751 -0.065538295 -0.057908442 0.05017345
000030 18 74 fe bc da 12 57 bd 5d 29 b6 3c f7 5f 55 bd
       -0.031061217 -0.052508213 0.02223652 -0.052093472
000040 6f 51 93 bc 20 05 64 3d f6 56 80 bc 7d 4d c8 3c
       -0.017983167 0.05566895 -0.015666466 0.024451012
000050 ac 09 3b 3c ed 09 88 bd 1d 49 25 bd 1b fb 00 bd
       0.01141588 -0.06642518 -0.04035293 -0.031489473
000060 3a b6 9d bc 6b a1 52 bd e5 23 73 bd 1c 6c cf bb
       -0.019251931 -0.05142347 -0.059360404 -0.0063300263
000070 55 bb 68 bd 50 6b bf bd 91 a7 68 3c d4 71 8f bd
       -0.05681928 -0.0934664 0.014200107 -0.07004133
000080 2f b4 89 bd 89 b2 f8 bc 54 0e 3e 3d fe 41 d6 bc
       -0.067238204 -0.03035857 0.046400383 -0.026154514
000090 52 77 0e 3d 3a c7 00 bd 4a bc 22 3d b1 28 7c bd
       0.03478176 -0.031439997 0.039730348 -0.061562244
0000a0 51 bf c2 3a a9 7a e3 bb 7f 91 e9 bb de 6e 6c 3c
       0.0014858042 -0.0069421125 -0.00712794 0.01443073
0000b0 f8 e5 ba bb 71 72 17 bd 0c 32 0d bd dc 4f 2f ba
       -0.005703684 -0.036974374 -0.034471557 -0.000668762
0000c0 bd 35 81 bd 51 54 9e 3c 08 69 6a bd 17 2d 61 bd
       -0.06309078 0.019327315 -0.05722907 -0.05497464
0000d0 73 e9 4b 3d 59 70 03 bd 84 19 9e bd c9 3a 0c 3d
       0.04978318 -0.032089565 -0.077197105 0.03423575
0000e0 f4 18 e3 bc 98 30 e7 bc 30 78 fa 3c e9 0f 55 3c
       -0.02772186 -0.028221413 0.030574888 0.013004282
0000f0 91 ad b9 bd 3f 4a 93 3b e0 e4 4c 3d 0b 9f 63 bc
       -0.09066308 0.004494935 0.05002296 -0.013892899
000100 9c b4 07 3d 7f 4d 3f 3d 07 f0 c4 3b c6 5c 6c bd
       0.033131227 0.046704765 0.006010059 -0.057705663
000110 74 63 81 3c 38 a1 00 3c 59 2e 3c 3c 25 40 30 bc
       0.015794493 0.007850938 0.0114856595 -0.010757481
000120 24 61 aa bd 02 4f 53 3b 77 af 82 bd 23 b0 88 3c
       -0.08319309 0.0032243137 -0.063811235 0.016685551
000130 2c b8 87 bd 9e 6b 49 3b 30 d7 3e bd 8d f4 fb bb
       -0.06626925 0.003073431 -0.046591938 -0.007689065
000140 38 2b 7a bc a7 63 a6 3c 4d b5 73 bd 13 38 f7 3a
       -0.015269093 0.02031119 -0.059499074 0.0018861316
000150 29 24 4c bd a8 ce 9f bc 40 5c 6d bc ed 9b cc ba
       -0.049839173 -0.019507721 -0.014487326 -0.0015610434
000160 77 16 a1 bb 36 4d 8d bd 5b b8 64 bd e0 08 12 bd
       -0.004916008 -0.068994924 -0.055839878 -0.035652995
000170 44 bd 05 3c 25 0d 2c bd 8b d2 27 3b 96 30 70 bd
       0.0081628 -0.042004723 0.002560767 -0.058640085
000180 1e 5d d7 bb 3d 21 95 bc 46 cb 7f bd 1f 11 55 bd
       -0.0065723797 -0.018204326 -0.062449716 -0.05201828
000190 1c 84 b3 bc 31 8b ee 3c 57 57 2c 3c 80 d8 00 bd
       -0.02191358 0.029119106 0.01051887 -0.03145647
0001a0 56 40 e5 3a 33 74 a7 3c 2f 81 02 3c 05 c0 f7 bc
       0.0017490487 0.02044115 0.00796537 -0.03024293
0001b0 0c f2 74 3c 58 29 c5 bc 0b 05 85 bd 75 8e e9 bc
       0.014950287 -0.024067566 -0.064951025 -0.028510312
0001c0 c2 f5 95 bb 0f 67 8f bd 20 8a 5d bd 52 e1 63 ba
       -0.0045764158 -0.07002079 -0.054086804 -0.0008692938
0001d0 93 07 53 3c 47 62 96 bd 4a b7 b6 3c 9b a9 94 bd
       0.012880224 -0.07342964 0.022304196 -0.07258912
0001e0 2b 4d 55 3b 75 1e 91 3c 1d 38 35 bd b2 22 0f bd
       0.0032547216 0.017714718 -0.044242967 -0.034945197
0001f0 b2 d6 09 bd 76 b7 a5 bd 14 09 11 bd 18 3f 94 bd
       -0.033652015 -0.08091633 -0.03540905 -0.07238597
000200 93 f8 cc bb eb 69 ce 3c bc 70 15 3c 17 a8 a9 bc
       -0.0062552183 0.02519699 0.009121116 -0.020710034
000210 34 2d be 3c f2 8f 04 3d b6 6e 20 bd 4a 62 e2 3c
       0.023214914 0.03236384 -0.039168082 0.027634759
000220 6b c9 bb bc bd 4e 19 bc 1d d1 48 bb 17 3a 1b 3b
       -0.022923192 -0.009357152 -0.003064222 0.0023685747
000230 71 9f 3c bd f4 16 20 bd 6a 42 2b bd a2 67 9a bd
       -0.046050493 -0.03908439 -0.041811384 -0.07539298
000240 bc 06 8a bd 41 fd c3 3b a7 57 38 3c 7d 9c 60 bc
       -0.06739566 0.005981118 0.011251367 -0.013709185
000250 66 61 8f bb 5d 84 1f 3d 7d 84 2d 3d 3e fc d7 3c
       -0.0043756245 0.03894459 0.04236268 0.026365396
000260 9a d7 12 bc 44 a1 ab bc 52 3f 49 bd fe 98 91 bb
       -0.008962536 -0.02095092 -0.049132653 -0.004443287
000270 cf 72 0f ba 6f 80 80 bd e2 31 39 3d 33 94 ff bc
       -0.0005472125 -0.06274497 0.045213588 -0.031198597
000280 3d 99 09 3d 7a b8 b8 3c ea 6d 23 bd 3e 94 9a bc
       0.033593405 0.022548903 -0.039899744 -0.018869516
000290 11 8b 82 bd f7 6e 32 bd 6d a5 fa bb 54 f0 be 3c
       -0.06374181 -0.043562856 -0.007649115 0.023307957
0002a0 69 ef 9e bd 8f e4 2f bd d7 c2 e5 3c 88 19 01 bd
       -0.077605076 -0.04294258 0.028047008 -0.03151849
0002b0 8e e3 85 bd 61 e0 70 bd ce 95 a7 3c d5 21 07 3d
       -0.06537543 -0.058807734 0.020457175 0.03299125
0002c0 8b b6 cf 3c 7d e4 62 bd b9 d2 ec 39 a3 46 92 3b
       0.025355598 -0.055393685 0.00045170428 0.004463987
0002d0 2a 82 35 bb 0d 93 35 3b c1 dd 9a bd 8e 19 76 bd
       -0.0027695992 0.0027706057 -0.075618275 -0.060082965
0002e0 78 73 91 bd 57 13 9d bb 78 58 82 bb cd 14 d3 bc
       -0.07102102 -0.0047935653 -0.0039778315 -0.025766755
0002f0 00 bc 91 bd 5e 77 fe 3a 42 03 4c bd df d7 e5 3b
       -0.07115936 0.0019414236 -0.049807794 0.007014259
000300 dd 64 6e bd 81 f8 24 3d 95 9c 30 3d 54 d2 2f bd
       -0.05820166 0.040276054 0.04311808 -0.042925194
000310 5f b8 47 3d af 14 f6 bc c5 51 8f bd 8e b4 36 bd
       0.048759814 -0.03003916 -0.06998018 -0.044605784
000320 35 61 b5 bd 37 3b 94 bc a2 a1 d3 3b e2 00 09 bd
       -0.088564314 -0.018094642 0.006458477 -0.033448108
000330 d0 d3 c0 bc c5 a0 af bc 2b ef 82 bd a1 3e 70 3c
       -0.0235385 -0.021438966 -0.06393274 0.014663369
000340 1f 2e c3 bd e4 d0 c0 3c 41 dc 23 bd 65 31 7d bd
       -0.09530281 0.023537107 -0.040004972 -0.061814684
000350 93 45 dc bc ad 22 bb bb bc 8e 51 bd 10 7d 28 3c
       -0.026888644 -0.005710921 -0.051161513 0.0102837235
000360 a9 a3 07 bd 67 96 01 3d cc 62 c9 bc 2c ea be 3c
       -0.033115063 0.031637575 -0.024583243 0.023305021
000370 63 6e 25 bd 31 28 cd bd 97 63 b6 bd 54 61 1e bd
       -0.040388476 -0.100174315 -0.08905714 -0.038667038
000380 91 5e 24 bd 75 f4 8c 3c 33 0b a3 bd 7f 20 9c bc
       -0.040129248 0.01720641 -0.079611205 -0.019058464
000390 57 ba 81 bd 5a 4b 07 bd b3 e0 4a bd 3a 94 d2 3c
       -0.0633437 -0.033030845 -0.049530696 0.025705446
0003a0 e2 1e 12 bd 8e 8e 72 bd 3c c2 21 3b a0 96 31 bd
       -0.035673983 -0.059217982 0.0024682423 -0.043356538
0003b0 31 97 37 3c 02 9a 62 bc 75 d4 84 bc cd fa 50 3c
       0.01120548 -0.013830664 -0.016214589 0.012755108
0003c0 ff ad 05 3b 14 66 7b bd b1 e7 c8 bd 3f 0e 92 bd
       0.00203979 -0.061376646 -0.09809817 -0.071316235
0003d0 4f 23 8a bd 9f 48 6e 3c cf 67 8d 3b d4 a2 90 3c
       -0.06745016 0.014543681 0.0043153535 0.017655768
0003e0 44 b4 89 bd d1 48 f9 3c 57 0f 26 3d c4 f7 c8 3c
       -0.06723836 0.03043023 0.040541973 0.024532206
0003f0 78 e0 53 bd 41 e6 7e bd eb 12 b3 3c 94 db a8 bb
       -0.051727742 -0.062231306 0.021859607 -0.005153129

fc2.bias f4 [256]
000000 19 f3 ce bd 36 3a 20 be 67 02 4b 3f f5 67 f1 3e
       -0.10104961 -0.15647206 0.7930054 0.47149625
000010 0c c8 ec bf e8 bd 00 bf f2 45 24 be e4 8d 1f be
       -1.849855 -0.50289774 -0.16042307 -0.1558147
000020 73 f4 a4 3f d7 67 15 3e cf 28 a8 3f 99 7d 50 3e
       1.28871 0.14590393 1.3137454 0.20360412
000030 af a1 02 3f ae b5 12 3e 47 9f 75 bd 3a 24 65 bd
       0.5102796 0.14327118 -0.05996635 -0.05594275
000040 73 f4 11 3e 6f c4 53 bd c6 10 30 3e 70 94 92 bd
       0.14253406 -0.051701006 0.17193899 -0.071572185
000050 5a ce 88 bd 8a d6 a2 bd e9 cb 35 bf 07 5f 9b 3e
       -0.066799834 -0.07951076 -0.7101427 0.30345938
000060 20 3a aa 3f 57 ab 6a bd 33 dd 82 3b 6b 00 9e be
       1.3298988 -0.05729231 0.003993654 -0.30859694
000070 10 0d 47 be 83 ab ef bd 2d 89 b9 3d 8f 9c 39 3f
       -0.19438577 -0.11702635 0.09059367 0.72504514
000080 53 eb 54 3e 84 55 29 bc 26 49 e1 bd 11 69 d9 be
       0.20792894 -0.01033533 -0.1100028 -0.42462972
000090 1b 2a ff bf f2 78 f0 bd 58 e5 3a 3e df b7 4a bc
       -1.9934725 -0.117418185 0.1825155 -0.01237294
0000a0 6e ef 53 be 25 d2 17 bd 33 68 a7 bd 62 e7 6c 3e
       -0.20696804 -0.037065644 -0.08174171 0.2313514
0000b0 88 c1 20 3f a1 85 0c 3f e7 53 a7 be bd e8 32 bf
       0.62795305 0.548914 -0.326812 -0.6988638
0000c0 c6 e8 82 be 5a 95 ae bf b5 9b 45 3f e3 d9 21 bd
       -0.25568217 -1.3639328 0.77190715 -0.039514434
0000d0 c0 2c 8a bd 4f c8 4a 3f 15 35 e0 3e 2f 31 1b bf
       -0.06746817 0.79211897 0.43790498 -0.60621923
0000e0 a0 88 dc 3e fd 46 d7 bd 80 63 66 3f 28 54 41 bd
       0.43072987 -0.10511587 0.89995575 -0.0471994
0000f0 34 57 20 be ba 7b af be 04 67 90 3f b4 c1 3a 3f
       -0.15658265 -0.34274083 1.1281438 0.7295182
000100 a0 64 96 bd 1a da 87 bd 9a 3d a5 3f 6d 11 d2 bd
       -0.073434114 -0.066333964 1.2909424 -0.1025723
000110 68 b1 86 bd 3e 76 e4 3e f9 4c 9c bb 55 d5 f8 3d
       -0.06576806 0.44621462 -0.004769918 0.12150065
000120 1e e5 28 3f 8c ec 9f bd a4 dd 60 be d7 ff 8d bd
       0.65974605 -0.078087896 -0.21959549 -0.06933563
000130 da 35 17 3e 89 05 9e bc 84 98 80 3d 5b 1b 01 bd
       0.14766636 -0.019289749 0.0627909 -0.03152023
000140 5d 7a a8 bd 65 6f 80 3e d0 cb ff be 45 54 db bd
       -0.08226464 0.25084987 -0.49960184 -0.107094325
000150 f0 a7 45 bf 3a eb cc bd 61 6f 4d bf 3f 08 04 bf
       -0.7720938 -0.100058034 -0.80248076 -0.5157508
000160 8b 67 71 be 34 89 ef 3e c2 b9 55 3e a0 dd 09 bd
       -0.23574655 0.46784365 0.20871642 -0.033658624
000170 03 aa ca 3e 27 34 b2 3f d5 bd f5 3e c6 6b 8e 3e
       0.39582834 1.3922166 0.47996393 0.278166
000180 b0 8b b2 bd c2 14 92 bd c9 b2 e0 3d d0 bb fc bf
       -0.087180495 -0.071328655 0.109716006 -1.9744816
000190 8a 00 03 3f b8 dc 8c 3f 4a 14 df bc f2 dc e9 3e
       0.511727 1.1004858 -0.027231354 0.4567638
0001a0 08 03 24 3f 73 a8 9e 3f c4 7e b7 3c 7a 50 e9 bd
       0.64067125 1.2395157 0.022399314 -0.11392303
0001b0 9e b7 db 3e a6 13 b2 be dd 3a 55 3e 4c 2a 23 3f
       0.42913526 -0.34780616 0.20823236 0.63736415
0001c0 b8 6e d6 bc f1 e1 b5 bd 46 d8 89 bd f0 55 d2 3c
       -0.026175842 -0.088809855 -0.06730704 0.025675744
0001d0 8f 7a 1f 3f cd 30 58 be 5d d7 26 bf 89 99 1b 3c
       0.62296385 -0.21112366 -0.6517237 0.009497055
0001e0 05 da fc 3b 6d 18 c6 bd 0e 20 e5 3e 93 09 8c bf
       0.0077164196 -0.096726276 0.44751018 -1.0940422
0001f0 89 c2 dd bd 12 0a 42 bd 52 ee c7 bd 44 d3 e0 be
       -0.1082812 -0.047372885 -0.09762253 -0.43911183
000200 95 a4 32 bd 5e e0 a3 bd 45 1d 0f bd e5 c2 e3 bc
       -0.04361399 -0.08001779 -0.034940023 -0.027802894
000210 63 82 34 bd b2 ec 99 3e 2d 70 bf 3e 29 07 d9 be
       -0.04406966 0.30063397 0.3739027 -0.42388275
000220 c6 b5 2d bc e4 01 d0 be 81 4d 02 3f 6c e4 33 bc
       -0.01060242 -0.40626442 0.5089951 -0.010979753
000230 13 bf 20 3f b8 c0 72 3f e5 d6 f7 bd 0c 71 54 3f
       0.62791556 0.94825315 -0.12101535 0.82984996
000240 2a c6 a7 bd d8 59 d4 3d 8a 41 32 bd 76 e9 f8 3e
       -0.08192094 0.10368699 -0.043519534 0.48615617
000250 9c 77 85 3d 46 f4 0e bd b8 c5 82 3e f9 59 d7 3e
       0.06516954 -0.034900926 0.25541472 0.4206083
000260 25 3e 06 3f f7 b0 d8 be 12 de 8a bc 8d 84 ca bd
       0.52438575 -0.42322513 -0.016951595 -0.09888563
000270 e8 f4 a0 bd 71 c5 1f 3f fa 08 96 bd 7c ea 99 3e
       -0.07859212 0.62410647 -0.07325931 0.3006171
000280 37 6f c9 bd e3 e9 08 be 49 70 79 3e c0 a9 54 3e
       -0.09835666 -0.1337047 0.2435924 0.2076788
000290 af c1 b5 3e 89 2f d8 bf 7d 03 88 bf f3 c7 e1 bd
       0.3549933 -1.6889507 -1.0626065 -0.110244654
0002a0 1f 44 92 3f b0 2b 94 bd c1 6a 3b be 14 d4 c0 bb
       1.1427039 -0.07234895 -0.18302442 -0.0058846567
0002b0 c4 f4 b0 3d 32 05 01 bd 70 32 63 3e 35 5f 59 bf
       0.08640435 -0.031499095 0.22187209 -0.849109
0002c0 f1 97 86 bd 20 0a 0d 3d d3 2a 33 bf 18 45 af bd
       -0.06571949 0.034433484 -0.6998722 -0.085581005
0002d0 61 67 57 bd 9d 57 cf 3e f2 09 69 bd b5 80 34 be
       -0.052588824 0.4049653 -0.05689425 -0.17627223
0002e0 9e 43 a4 bd 92 63 58 3e 7c 44 9e bc 17 b8 9b be
       -0.080207095 0.21131733 -0.019319765 -0.30413887
0002f0 04 3e d6 bd 25 3f cd bd cb 40 21 be 1d 66 c5 bd
       -0.10461047 -0.100218095 -0.15747373 -0.09638617
000300 7a 12 e1 3b f1 47 05 bf 05 b7 8c 3d c7 66 a9 bc
       0.0068686577 -0.520629 0.06870846 -0.02067889
000310 c8 07 f6 bd 8a 6f 4c 3f d2 26 48 3f dd e8 ab 3d
       -0.12013203 0.79857695 0.78184235 0.083940245
000320 cf d6 d0 3f dd 54 b7 3c 09 d8 36 3f 77 40 b7 bf
       1.6315554 0.022379333 0.71423393 -1.4316548
000330 6d 5b 48 3d 34 3c bf bd a8 ec a5 bc 1b 52 98 bd
       0.048915315 -0.09337655 -0.020254448 -0.074375354
000340 14 24 d1 3e d4 57 05 be 80 07 0a bd 5c f1 32 3e
       0.40847838 -0.13021785 -0.03369856 0.17474884
000350 57 7b 8c bd 19 23 ff bb e6 d9 0c bc 88 56 12 3f
       -0.06859463 -0.0077861664 -0.008596873 0.57163286
000360 9e 67 77 3f 5b 02 0f bd 81 7b bd bd cb 4c ed bd
       0.9664248 -0.034914356 -0.09252072 -0.11586913
000370 d9 86 2b 3e 09 1b 5c bd 29 68 48 3c de 49 60 bc
       0.16750659 -0.05373672 0.012231865 -0.013689486
000380 cb 0d 07 be c5 f8 4a bf 6c c7 dd 3f 39 f4 dd bd
       -0.13188855 -0.7928584 1.7326484 -0.108375974
000390 57 94 5c 3f b9 7b e5 3e 42 7d d6 bc 14 c1 97 3e
       0.8616385 0.44820955 -0.026182774 0.29639494
0003a0 20 af 85 bd e3 d5 b4 3e a1 d3 91 3e aa dc a1 bb
       -0.06527543 0.35319433 0.28481773 -0.0049396353
0003b0 f6 60 bf be 5d 52 9f 3f ff 12 a4 3e c2 00 b0 be
       -0.37378663 1.244701 0.32045743 -0.34375578
0003c0 1b 64 27 3d ce 79 a6 bd b5 ea d1 bc 96 8f c7 3e
       0.040866952 -0.08128701 -0.025624612 0.38976735
0003d0 ce cb 09 bf 94 49 ec bc 6b 1b 22 bd c3 99 dc bd
       -0.53826606 -0.028843679 -0.03957693 -0.10771515
0003e0 34 1f 7c b9 98 29 eb bc 2d cb 05 bd d9 d0 c9 bc
       -0.00024044217 -0.028706357 -0.032664467 -0.02463572
0003f0 7f a7 17 3e e2 5c 0d 3f c1 8c b4 3f 46 51 7c be
       0.14809988 0.5521985 1.4105455 -0.24640378

fc3.weight f4 [256, 256]
000000 6a 09 be 3c 84 a4 de 3a b6 c7 ca bd 59 10 01 be
       0.023197848 0.0016986285 -0.09901373 -0.12603892
000010 50 6a b4 be f2 b1 5d bf e9 af 34 3e 06 29 74 3e
       -0.3523736 -0.8659965 0.1764523 0.23843774
000020 7d f4 0c bf 73 7e f8 3c cd 30 2e 3c 06 af 00 bb
       -0.5506056 0.030333733 0.010631752 -0.0019635572
000030 3f 9b 82 bf 61 a5 8f 3c ab f1 a0 3c d3 e5 94 3c
       -1.0203627 0.017534913 0.019646486 0.018175995
000040 6d f9 ac be 6e ee a5 3b 4d a6 bb be 8a cd 70 bc
       -0.33784047 0.0050638234 -0.36650315 -0.014697442
000050 0e 63 20 bc a0 f1 82 bc bb 61 4a bf 8b 2c a2 3e
       -0.0097892415 -0.015984356 -0.79055375 0.3167461
000060 81 ad ff be 7b dd ec 3c d8 53 1d 3d 65 4c c6 3d
       -0.4993706 0.028914204 0.038410038 0.0968254
000070 ee 14 f9 bd 01 09 84 bb df 61 32 be 7f 3c b2 3e
       -0.12162195 -0.0040293937 -0.17420147 0.3481178
000080 46 d8 99 bd 93 03 91 bd 03 2c 98 3e 1d 3a ea 3c
       -0.07511954 -0.0708076 0.29721078 0.028592164
000090 88 a8 8a be 02 6b 01 3d 0b 84 86 be 31 4c 39 3c
       -0.27081704 0.03159619 -0.26272616 0.011309669
0000a0 c8 fb 91 3c 48 fb 12 bd d5 ba 61 3d 27 c6 b2 3e
       0.017820254 -0.03588417 0.055109818 0.34916803
0000b0 00 55 94 bc 0e 49 ac 3e 11 e8 8e be e5 81 64 bf
       -0.018106937 0.33649486 -0.27911428 -0.89260703
0000c0 c2 fa 08 be 3f c4 9d 3d 9b 40 6f 3d e3 90 ed bc
       -0.13376907 0.077034466 0.058411222 -0.028999751
0000d0 ff 4d 2f 3d 80 6e 3e be 27 49 d4 3e 2d 29 e2 be
       0.042798992 -0.1859684 0.4146206 -0.4417204
0000e0 ce df aa bf 5a 95 52 3d 17 c4 01 be 52 75 d8 3c
       -1.334955 0.051411964 -0.12672459 0.02642313
0000f0 ab bb fc 3c 49 e0 fd bb e4 a2 7d bf e5 0b 00 3f
       0.030851206 -0.007747684 -0.99076676 0.5001815
000100 f5 73 39 bd 97 e7 e0 3c bc 0e 61 be bb c8 71 bc
       -0.0452766 0.02745418 -0.21978277 -0.0147573305
000110 fb c6 4a bd 0f 34 0a bf 4b b8 27 bd 6d 71 07 3e
       -0.04950617 -0.53985685 -0.04094724 0.13226862
000120 de 31 74 bd 31 ad 2b 3d 37 ac 10 3d 78 9f f8 bc
       -0.05961787 0.041913215 0.035320487 -0.030349478
000130 03 f2 77 be b5 d3 8b bd de e4 5b be 49 af 23 bc
       -0.24213414 -0.06827489 -0.21474025 -0.009990522
000140 75 ad 89 bc 0f 3f 77 bd 41 b0 ea be 68 d8 fa 3c
       -0.016806344 -0.06036287 -0.45837596 0.030620769
000150 fc 3a a7 be ef ed 6f bd ee 2d a6 be e4 12 bb be
       -0.3266219 -0.05857652 -0.32456917 -0.3653785
000160 1f 09 37 bf 81 21 82 3e 13 b0 ff be 43 a5 12 bf
       -0.7149829 0.25416186 -0.4993902 -0.5728342
000170 f8 f9 ab 3d a9 cd a8 be 9f 57 c9 bd a1 32 17 be
       0.08397287 -0.32969406 -0.098311655 -0.14765407
000180 db c0 f8 ba 18 21 58 bd a5 7b ec be 1e 3f b4 be
       -0.0018978374 -0.052765936 -0.46188083 -0.35204405
000190 fb 9c fb be d1 0c dd 3c 5d bd b4 bb 85 08 30 be
       -0.49143204 0.02698365 -0.005515738 -0.1719075
0001a0 3e b4 51 3a 9e 45 21 3f b8 a5 a1 bd 9b 66 18 bd
       0.00079995755 0.6299685 -0.078929365 -0.037207227
0001b0 ff 0c 49 be 2d e7 1d bf 1e 70 b4 be 78 42 fd 3e
       -0.19633864 -0.6168087 -0.3524179 0.49464774
0001c0 bb e8 41 bf 1d 5c c7 3c 1a 2b 25 3d 71 e4 62 bd
       -0.75745744 0.024335915 0.040324308 -0.05539364
0001d0 b0 db de 3d d7 6e 05 3e cb e9 20 be a9 75 63 bf
       0.10881746 0.13030563 -0.15714185 -0.8885141
0001e0 f5 8e 5c ba 08 e7 23 3a c2 a0 61 3e c4 36 84 be
       -0.0008413636 0.0006252383 0.2203398 -0.25823033
0001f0 5c b7 40 bd 88 ff 3a bc f1 43 2c 3d b4 1e ad be
       -0.047049865 -0.011413462 0.04205698 -0.33812487
000200 96 b1 d7 bb d6 ac 89 3c 14 b7 cc 3c ac bd 06 bd
       -0.006582449 0.016806047 0.024989642 -0.03289573
000210 3f a2 02 3d 2a 92 48 be ed a5 09 3e b0 93 94 bd
       0.03189301 -0.19587007 0.13442202 -0.07254732
000220 b4 3f 19 bd c7 56 97 be ba e6 57 bf 66 b7 32 3d
       -0.037414268 -0.29558393 -0.84336436 0.043631934
000230 03 fe 88 3e 5b d6 5b 3e 50 23 f1 bc 67 25 23 be
       0.26756296 0.21468489 -0.029435784 -0.15932237
000240 b1 af 0f 3c ff 7b d6 3e 01 5f 04 bb bf ab 42 be
       0.008769915 0.41891477 -0.0020198228 -0.19010828
000250 a2 43 2f 3e d3 20 2e bc 52 b8 e1 be 19 d3 8d 3e
       0.17115644 -0.010627943 -0.44085938 0.27700117
000260 8a 56 b1 be cb 54 21 3e 13 0c ff be 7a 73 64 3c
       -0.34636337 0.15755002 -0.498139 0.013943547
000270 d9 c6 2e bd dd c8 69 be e9 74 88 3d a8 58 1e be
       -0.042670105 -0.2283053 0.06662924 -0.15463507
000280 d9 37 60 bd f7 c3 27 bf e0 37 09 3d 1b d5 9b be
       -0.05474076 -0.65533394 0.033500552 -0.30436024
000290 00 a7 2c 3e 75 cc 46 be 7d 21 0e bf 2e 4f 6c 3d
       0.1686058 -0.19413932 -0.5551985 0.0576927
0002a0 cb c9 29 bf 10 24 f0 b9 85 f0 ac bd 53 c6 c3 3c
       -0.66323537 -0.00045803236 -0.08444313 0.02389828
0002b0 03 7f 54 bd 36 b6 31 3d 78 1b 54 bc 98 a7 df be
       -0.05187894 0.04338666 -0.012946002 -0.4368255
0002c0 ba 23 fd ba a1 7a c4 3d 51 d3 a2 be e8 3e 4a 3d
       -0.0019313016 0.09593702 -0.31801847 0.0493764
0002d0 c6 c6 70 bd 01 b2 98 3e 14 57 b0 bd 7e d4 aa bd
       -0.058783315 0.29823306 -0.08610359 -0.08341311
0002e0 e6 7c 3f bd bc 85 a6 3e 7b 19 91 bd 19 6c ad be
       -0.04674997 0.32523906 -0.07084938 -0.33871534
0002f0 5c 38 ef bc 0f f9 73 bd 8e c9 38 be 24 fb 02 3d
       -0.029201679 -0.059563693 -0.18045637 0.031977788
000300 26 ce 92 b9 8c fb a7 be 7f bc 3b 3e 0a 8e e9 bb
       -0.00028000883 -0.32809103 0.18333624 -0.007127528
000310 6a cc f0 3c 06 96 28 bf a9 3c 30 be 84 e4 07 bf
       0.029394347 -0.6585392 -0.1721064 -0.5308306
000320 12 79 95 3d da 31 92 bd f4 fa 99 3d 6b 30 2b bf
       0.07298483 -0.07138415 0.07518569 -0.66870755
000330 2f c6 18 bd 38 43 d1 3c ea 7e 6c bd 5d 0f b2 bd
       -0.037298378 0.025544748 -0.057738222 -0.086943366
000340 d0 d4 9f be de 6b 3b 3d 63 46 2a 3d 41 ae f2 be
       -0.3121705 0.045757167 0.041571032 -0.4739857
000350 5d 96 41 3d 94 1c 3f bd f6 9b 6f bd 96 29 28 3e
       0.04726254 -0.046658114 -0.058498345 0.16422114
000360 98 f8 52 3e 6d ab b1 3b 99 a4 25 bd 33 1e 7f bd
       0.20602643 0.005422047 -0.040440176 -0.06228466
000370 89 d9 d3 3c 25 a3 6b ba 8c cd 9d 3d 6f 76 3c 3d
       0.025860565 -0.0008988849 0.077052206 0.046011385
000380 45 6e 42 be b1 70 bf be cc 17 00 be e8 57 b2 bc
       -0.18987377 -0.37390664 -0.12509078 -0.021770433
000390 59 db 9a be ef c4 c7 be e6 cb 56 3d 56 31 8b 3c
       -0.30245474 -0.39017436 0.052440546 0.016991299
0003a0 df 96 fe bc 7d f7 b2 bd 9a 88 13 bd ad ee d5 bb
       -0.0310778 -0.08738611 -0.036018945 -0.0065286965
0003b0 fb de 18 3e 47 66 e3 be e8 92 05 3f 36 dd c0 be
       0.1492881 -0.4441397 0.52177286 -0.3766877
0003c0 8e 23 a2 3d 0a 81 54 bd f0 17 42 3d 00 fb c5 be
       0.07916938 -0.051880874 0.04738611 -0.3866806
0003d0 8b b1 0a bf 86 e7 ae bc 22 d5 10 3c 08 c8 10 3c
       -0.5417716 -0.021350633 0.008839877 0.008836754
0003e0 ee 33 7b 3c e0 a4 3d 3c 84 29 6a be be ca b8 bc
       0.015332205 0.011574954 -0.228674 -0.022557613
0003f0 79 ef 03 be 62 81 d4 bd 61 c3 33 bf d1 15 71 be
       -0.1288432 -0.1037624 -0.7022 -0.23543479

fc3.bias f4 [256]
000000 de d4 b5 bd 5c ce d0 3c f9 56 1e 3f f0 e4 01 bf
       -0.08878492 0.025489025 0.6185146 -0.50739956
000010 6c 82 a5 bb 50 81 2c 3e 45 93 3a be 2d a7 0b bf
       -0.005050948 0.16846204 -0.18220241 -0.54551965
000020 9e 5c 9f 3e 8c 8b 48 3f 2d c4 67 be de c5 4a 3e
       0.3112535 0.7833793 -0.22633429 0.19802043
000030 12 13 b2 be a3 0f 21 3d b4 0a 12 be 9f e5 1a be
       -0.34780174 0.039321553 -0.14261895 -0.15126656
000040 ba 86 b8 be 64 0a 53 bd 3d 16 4d be 27 a0 4b 3e
       -0.36040288 -0.05152358 -0.20028014 0.19885312
000050 24 d9 16 3f ec ba 9a be 39 8b 93 3e 2f ac 99 be
       0.5892508 -0.30220735 0.28817156 -0.30014178
000060 d6 5f b5 3e d5 81 38 be f0 0f 80 3e 67 97 16 be
       0.3542468 -0.18018277 0.2501216 -0.14706193
000070 59 ed d0 bd ba 0f ab bd 88 ab 1a 3e 27 af 18 bf
       -0.102015205 -0.08352609 0.15104496 -0.5964226
000080 a9 e0 01 3f c6 ea b6 be 6c 2d f9 be d1 d9 cf be
       0.5073343 -0.35725993 -0.48667467 -0.40595868
000090 62 0b a2 3e fb 5f 88 bd d8 13 43 3e 50 b6 8c be
       0.3164931 -0.06658932 0.19050539 -0.27482843
0000a0 5b 46 29 be 7a 3a 69 3d 2b a6 4d be 7a 3e 78 3f
       -0.16530745 0.056940533 -0.2008292 0.9697033
0000b0 ed bc e4 be e0 33 7b 3d 92 45 34 3f aa 9e 22 bf
       -0.4467539 0.06132877 0.70418656 -0.6352335
0000c0 83 7c 5c be 47 37 2b be dd ae 34 3e 96 65 09 be
       -0.21531872 -0.16720305 0.1764483 -0.13417658
0000d0 40 a4 ad be 52 f8 23 bf 97 87 06 bf 53 d1 4a be
       -0.33914375 -0.6405078 -0.52550644 -0.19806413
0000e0 13 78 b8 be 01 d1 e0 be e2 cb e5 be ee b4 16 bd
       -0.3602911 -0.43909457 -0.44882113 -0.03679364
0000f0 3e 16 dc be 4b dd 43 3f ec e5 9a 3d 76 2e 69 be
       -0.4298572 0.7650954 0.07563385 -0.2277163
000100 2c b3 33 be 3b 45 d8 be 7a cb 11 3f af aa 03 bf
       -0.17548817 -0.4224032 0.56951106 -0.5143232
000110 c8 9e 13 bf cf 8a 82 3c fb 89 97 bd cb 76 e3 bd
       -0.57664156 0.01593533 -0.073993646 -0.11106642
000120 dc d8 df bd c8 df 81 be bf f1 80 3f 49 97 31 be
       -0.109300345 -0.25366044 1.0073775 -0.17342867
000130 7f 84 d3 3e a9 56 35 be 89 ad 1b 3d 47 32 a0 bd
       0.41312024 -0.1770884 0.038007293 -0.0782209
000140 67 17 40 be 98 d1 b9 be 73 9a 2a be bb 41 6b bf
       -0.18758927 -0.3629272 -0.1666048 -0.9189717
000150 be 56 f7 3d c7 92 0c be 09 d5 0f be 6d b5 28 be
       0.12077092 -0.13727866 -0.1404611 -0.16475458
000160 6d 95 2f be af 7a 23 3e d7 e3 48 be 84 02 25 be
       -0.17146845 0.15964769 -0.19618164 -0.16114241
000170 8c bf 9b be b3 4d a9 be 45 e4 e0 3e 04 f5 f4 bc
       -0.30419576 -0.33067092 0.43924156 -0.029901989
000180 d8 c5 4a be 07 19 b7 3e 59 24 b7 be 90 99 19 be
       -0.19802034 0.35761282 -0.3576992 -0.14999986
000190 2f 83 37 3d 27 f9 dd be 3b e5 e4 3d 6a 97 bb 3e
       0.04480284 -0.4335415 0.11176535 0.36638957
0001a0 7c f0 45 be 9c b7 c0 be 54 a4 04 bf 7e 77 46 be
       -0.19330019 -0.37640083 -0.51813245 -0.1938152
0001b0 fd 5f d7 be 18 72 0c bf a5 3a a9 3e 25 4d 84 be
       -0.4206542 -0.54861593 0.33052555 -0.25840107
0001c0 d9 b3 32 3d 1d 25 7f be bc 42 be be 45 0f 87 be
       0.043628547 -0.24916501 -0.3716029 -0.26378837
0001d0 24 e6 5f be 04 7c 43 3b 52 7a 8d be c1 9f 4a 3e
       -0.21865135 0.0029828558 -0.27632385 0.19787504
0001e0 d2 be ff bd 12 f6 9a 3c e6 fe f7 3e 1e 77 61 bd
       -0.12487568 0.018916164 0.4843666 -0.05504524
0001f0 2e 91 92 3d 3a e3 f7 be 9f a1 04 bf e1 cb 88 bc
       0.07156597 -0.48415548 -0.51809114 -0.01669878
000200 05 aa 00 be 2c f5 a9 bd c2 9e 06 3e 3b 89 2a be
       -0.12564857 -0.08298716 0.13146499 -0.16653912
000210 61 dd a9 bd 73 79 99 be 84 ec 9a be e1 6b b6 3d
       -0.08294178 -0.2997547 -0.30258572 0.08907295
000220 46 d6 a3 bf 6d cb 2c 3d 97 2f a4 be e8 c8 2b bf
       -1.2799766 0.04218619 -0.32067558 -0.67103434
000230 93 46 59 be 75 1f 83 be 69 b6 68 be 63 89 f6 3e
       -0.21218328 -0.25609937 -0.22725834 0.48151693
000240 47 a2 bc ba c5 6d 64 3e f5 9c 8d 3e 52 30 54 3e
       -0.0014391624 0.22307499 0.2765881 0.20721558
000250 99 0d c8 3d 3f a0 45 be 73 40 9f 3e 6b 39 d3 bd
       0.097682185 -0.1929941 0.31103858 -0.10313686
000260 13 ae 73 be e4 11 5d 3e c7 42 4c be 36 b8 c6 be
       -0.23796873 0.21588856 -0.19947349 -0.38812417
000270 13 84 bb be a0 11 f8 bd 22 3b 6a be f4 c9 7a 3e
       -0.36624202 -0.12112737 -0.2287412 0.24491102
000280 05 38 80 be 6a f3 5a 3e 01 82 08 bf 76 2a 98 be
       -0.2504274 0.21381918 -0.5332337 -0.29719895
000290 ca 5e 12 3f 4a e8 e0 be 84 54 d6 bb af 8b 30 bf
       0.57175887 -0.43927222 -0.0065408368 -0.6896314
0002a0 d0 fd 22 be e2 f6 10 3e d7 7f 21 bf 31 50 db be
       -0.15917134 0.14156678 -0.63085693 -0.4283462
0002b0 c8 6b b7 3e dd 87 36 bf 84 77 55 be fb c2 d0 3e
       0.35824418 -0.7130106 -0.20846373 0.40773758
0002c0 63 53 ab be d8 62 41 3e ba 77 24 bf 98 7d a2 3e
       -0.33462057 0.18885362 -0.6424519 0.31736445
0002d0 27 83 16 bf 78 41 74 be ef 16 92 be 50 75 9c be
       -0.5879387 -0.238531 -0.28533122 -0.30558252
0002e0 75 e2 7b be 82 02 b2 be ce 46 7e be b6 d3 57 be
       -0.24598105 -0.34767538 -0.24831697 -0.21076855
0002f0 fd 9c a9 be 2d f6 70 3e 4a 2b db be de 3e 11 3e
       -0.33127585 0.23531409 -0.42806464 0.14184138
000300 9c ce f8 bd ab e1 36 be 80 20 87 be 74 89 c4 be
       -0.121487826 -0.17859523 -0.26391983 -0.38386118
000310 4f 87 8c be 60 a5 92 be 8b 9b 57 be e9 3b c5 be
       -0.27446982 -0.28641796 -0.21055429 -0.3852227
000320 1c fd 97 3e b0 37 15 3f 53 63 4e be 2c f3 53 be
       0.29685295 0.582881 -0.20155077 -0.20698231
000330 09 0f 8e be ab f3 d0 3d 00 ac 42 3f 44 66 0d bf
       -0.27745846 0.10202726 0.760437 -0.5523417
000340 04 fb 9d be 9c 30 a7 3d 79 2f 23 3e 6e 87 6c be
       -0.30855572 0.081635684 0.15936078 -0.23098537
000350 db e4 67 be 53 17 97 be b5 07 6e 3e b1 c3 64 bd
       -0.22645895 -0.29509982 0.23245127 -0.05585069
000360 1b ba 8f be e4 de bd be a8 53 fa bd 1f 68 3a 3e
       -0.28071675 -0.37084115 -0.122229874 0.18203782
000370 5a 67 71 be 56 b1 83 3e 03 f5 37 be a5 29 d5 be
       -0.23574582 0.25721234 -0.17964558 -0.41633335
000380 d9 3c 72 3f cf 08 fb 3d 50 de c4 be 9a b1 0a 3d
       0.94624096 0.122575395 -0.3845086 0.03386078
000390 bb 19 8d 3e ba db 35 bf 7f 50 47 be af c1 2e bf
       0.27558693 -0.710384 -0.194643 -0.6826429
0003a0 19 31 90 be 47 2a 81 be 89 e1 2c be 1b 06 89 be
       -0.2816246 -0.25227568 -0.1688291 -0.2676247
0003b0 46 7c 7f bd 3f e0 97 3d 71 35 80 be bc f3 dd bc
       -0.062374376 0.074158184 -0.25040773 -0.02709376
0003c0 00 60 f6 3e 52 79 1b be 4e 28 d0 3d 16 30 c9 be
       0.48120117 -0.15182999 0.101639375 -0.392945
0003d0 40 f7 3b be ce 68 5d be 40 07 99 be 18 7e 41 be
       -0.18356037 -0.21622011 -0.29888344 -0.18895757
0003e0 4a 9a ac bb 9a 95 dc 3d ca a9 94 3d 9a 82 2e 3e
       -0.005267416 0.10770722 0.07258947 0.17042008
0003f0 93 a6 c1 bd e5 ca 30 bf b5 76 e9 be a8 19 ce be
       -0.094556 -0.6905959 -0.4559838 -0.4025395

output.weight f4 [4, 256]
000000 49 6f 36 bc 3f d9 37 3e 83 75 06 3d ad 5a 4e 3e
       -0.011134931 0.17953967 0.03282691 0.20151778
000010 40 51 90 bd 71 34 6d 3e 64 ea 87 3e 28 3f 9d bc
       -0.07046747 0.23164536 0.26546013 -0.019195154
000020 07 d1 ad bd ca 48 c7 3c 50 02 f1 3d ab e9 1b bb
       -0.084871344 0.0243267 0.11768019 -0.00237904
000030 41 46 0f bf ef 55 76 be 40 77 56 3d 22 eb 35 3d
       -0.55966574 -0.24056219 0.05235982 0.044413693
000040 1a 9b 3c 3d 60 f4 a8 bc 31 1c c2 3c a8 07 2d 3c
       0.046046354 -0.02062434 0.023695083 0.010560907
000050 5f 24 7f bd 33 c2 de be 8f 04 b2 bd a4 6b fc 3c
       -0.062290546 -0.43507537 -0.08692276 0.030813046
000060 9a f8 83 bc 38 8a 18 3d ae 1c bc 3d 3b 1d 86 be
       -0.016109753 0.03724119 0.09185158 -0.26194176
000070 b4 e4 e7 3c 2a 49 08 be da af b1 bc 8b 5b 9c 3a
       0.028307296 -0.1330916 -0.021690298 0.0011929137
000080 1d bb 77 3d 99 bc c4 3b 36 00 a4 bc b7 49 6c be
       0.06048118 0.006003928 -0.020019632 -0.23074995
000090 05 d2 0c bd 77 47 91 bd b0 9f e8 bc 4f 9e 8f 3d
       -0.034379978 -0.07093709 -0.028396457 0.07012617
0000a0 f4 e7 dd 3c 69 d2 42 3d 3e 75 8a be 83 12 0b bd
       0.027088143 0.047563944 -0.27042574 -0.0339532
0000b0 8e 35 b2 3d d6 97 5b 3e 00 90 80 bd b9 1f 3b 3d
       0.08701621 0.2144464 -0.06277466 0.04568455
0000c0 b7 7b 51 3f 3f 89 b8 3c f3 af 8f 3d 4a 4b 91 3e
       0.818294 0.022526382 0.070159815 0.28377753
0000d0 73 e2 89 3e 1f 40 2a bc 3a b1 80 3c bb c1 71 3c
       0.2693058 -0.010391264 0.015709508 0.014755662
0000e0 a0 ad 85 bc 3f ee 3f bf a9 83 b4 bd fa 1b af 3c
       -0.016318142 -0.7497291 -0.08814175 0.021375645
0000f0 50 5c 0f 3e 07 51 f9 3d 8d e5 1a be 2d 87 d5 3e
       0.14000058 0.12173658 -0.15126629 0.41704693
000100 b3 d7 0b 3d d1 db 81 bd f0 b9 74 bc 3f 1a 6a 3d
       0.034141254 -0.06340755 -0.014936909 0.057153936
000110 fc 37 41 3f 65 d9 93 3c 3a dd c5 bc 12 aa 96 bd
       0.7547605 0.018047998 -0.02415334 -0.07356657
000120 14 cc 1d be 03 93 80 be d8 07 17 3d d9 6d ca 3d
       -0.15409881 -0.2511216 0.036872715 0.09884233
000130 40 7a 6a 3d ca 02 a6 bd 1f d6 f5 3d e1 0c 82 3d
       0.057245493 -0.08106001 0.12003731 0.06350113
000140 6f dc 09 bd 3b d7 92 3d 9c 81 4a bd 24 df b5 bf
       -0.033657487 0.07169958 -0.04944001 -1.4208722
000150 ad 09 78 3c bd be 7d 3d fd 8f aa 3e 1e a6 b4 3d
       0.015139026 0.06194948 0.3331298 0.08820747
000160 95 f4 ed 3c ef 50 a0 3c be e7 12 3e d3 ea a5 3c
       0.02904729 0.019569842 0.14346215 0.020253574
000170 61 37 af bd ea 11 82 be 33 0b 82 bd ae ef e3 3d
       -0.085554846 -0.25404292 -0.06349792 0.111297
000180 6d d5 db be 4f 0e 65 3d 77 5c cc 3c 15 53 e2 bc
       -0.42936268 0.05592185 0.024946434 -0.027627507
000190 d1 af 86 be a0 fc b4 bd 72 dd 0e bd be 04 41 bd
       -0.26306012 -0.08837247 -0.034879155 -0.047123663
0001a0 76 24 f7 bd 2a ed 4d 3c 16 b6 01 3e 6c b5 72 3d
       -0.12067501 0.012568751 0.12667117 0.05925505
0001b0 38 3a 41 bf 9e 90 b0 3c b8 b5 7d 3b 98 8c e8 3c
       -0.7547946 0.021553334 0.003871305 0.028387353
0001c0 80 e4 ff 3c cc f5 a4 bd 6f f7 19 be 76 f7 3b bd
       0.031236887 -0.080546945 -0.15035795 -0.045890294
0001d0 f5 84 d0 bd d9 8b bb 3b 10 a6 c9 3c e5 d2 54 3b
       -0.101816095 0.0057234582 0.024615318 0.0032474336
0001e0 c5 88 76 bd 9c 1c 76 be 9e 0c 7e 3d 56 0a 48 bd
       -0.060189027 -0.24034351 0.06202375 -0.048837982
0001f0 25 88 72 bd 0b 5b 73 3e d3 d5 9f 3f ab 02 6a 3e
       -0.05921187 0.23765199 1.2487129 0.2285258
000200 b7 26 07 3e 31 7a 86 3e e7 2a 52 3e 6c 52 3f bd
       0.13198362 0.262651 0.20524178 -0.046709463
000210 c8 d3 0b 3d 7d 47 aa 3d 1f dc 4f 3c 0f 47 cc 3b
       0.034137517 0.083144166 0.012686758 0.006234057
000220 45 bc 2e bc 51 7d 80 bc ed a1 0a bd 0c 04 21 3f
       -0.010665004 -0.015684756 -0.03384583 0.628968
000230 ff 74 e6 3d df 31 97 be c4 d2 21 3d 11 1d 16 3d
       0.11252784 -0.29530236 0.039507642 0.036648814
000240 66 62 60 be 11 04 97 bd 81 84 d3 3d db 3d 48 3d
       -0.21912536 -0.073738225 0.103280075 0.048887115
000250 48 5f 7b bd 31 35 44 be cc 30 de 3c 41 13 41 bd
       -0.061370164 -0.19160916 0.027122878 -0.047137503
000260 c8 b1 b6 be f7 22 2b bb a1 ba 18 3c c8 14 58 be
       -0.3568251 -0.002611337 0.00932184 -0.21101677
000270 8b 33 1e be 04 14 e5 3e 8a fb e9 3b 60 81 2a 3d
       -0.1544935 0.44741833 0.0071405815 0.041627288
000280 5a f7 37 bc 31 83 ec 3d 41 fa b3 3f 30 d3 85 3d
       -0.011228407 0.1154846 1.4060746 0.065344214
000290 c7 84 ac 3c b0 8c 69 bd 6b 2f cb bc 89 e5 3a 3f
       0.021059407 -0.057018936 -0.024802884 0.7300649
0002a0 a1 08 e4 bd 0e 88 a0 3c 86 61 d6 bc ac 43 8f 3d
       -0.11134458 0.019596126 -0.02616955 0.06995329
0002b0 31 47 bd 3d d4 9e 8f bb a7 c0 a6 3b 26 e9 a8 3d
       0.09242094 -0.0043829475 0.005088884 0.082475945
0002c0 02 58 ae bc 8f 8a 82 3a 85 eb 37 3c 0d 24 01 bd
       -0.0212822 0.0009959507 0.011225586 -0.03152852
0002d0 0d c4 8d 3c e8 43 79 bd dc dd c1 3c 75 cd 33 bd
       0.017305398 -0.060855776 0.023665361 -0.04389711
0002e0 be 9e 8f 3d 8e 0a fd bd fc 00 99 3c e2 b1 1a bd
       0.070126995 -0.12355529 0.018677227 -0.0377673
0002f0 8b ae 2d bc 6d c4 05 be d3 2e 99 3d 48 8a 41 3b
       -0.010600696 -0.13063212 0.07479634 0.0029531885
000300 a3 8b c5 3c d2 0e 06 bd 20 72 14 be 28 34 e2 bd
       0.024114436 -0.032728978 -0.1449666 -0.11045104
000310 4e b1 0f 3e 54 cd d1 bd b8 c9 17 3d 5e a8 47 3e
       0.1403248 -0.10244241 0.03705761 0.1949782
000320 19 b7 f2 3c 7a 54 76 3d 37 38 d6 3e 3e af 4e 3e
       0.029628323 0.060139157 0.41839764 0.20184037
000330 c3 01 36 3c da aa b3 bd 8e 8f 5a 3c b4 36 1e 3d
       0.011108818 -0.08772822 0.01333989 0.038626388
000340 f5 11 df 3c 2d cf ab 3b ad e4 9c bd 82 33 4d bd
       0.027230242 0.005243203 -0.07660804 -0.05009795
000350 14 52 93 3e f4 39 86 bc a5 b2 53 bd 23 0f 38 3e
       0.28773558 -0.016385056 -0.05168404 0.17974524
000360 5a bd b5 ba 56 31 e7 3e 8f af a2 be a8 01 27 b9
       -0.0013865635 0.45154828 -0.31774566 -0.00015926978
000370 60 6a 87 3c d4 06 7b bd ae 22 d5 bd 7e db 98 3e
       0.016530216 -0.06128581 -0.10407005 0.2985496
000380 a7 76 60 3d a3 fb 41 3c 5e 62 06 bd 8a af 5c 3d
       0.054800656 0.01183978 -0.032808654 0.053878345
000390 fe 2f 08 bc 0e ac 35 bc 99 fd e8 bb 12 05 a9 be
       -0.0083122235 -0.011088384 -0.0071103093 -0.3301168
0003a0 ac cf 40 bf 1c a8 26 3e 9e d2 11 bd cf 76 0b bb
       -0.7531688 0.16275066 -0.03560125 -0.0021280532
0003b0 7a ce 15 3e e4 4f 49 3b b3 79 9f 3e 22 a2 8c 3e
       0.14629546 0.0030717785 0.31147537 0.27467448
0003c0 5f 2b 29 bd 30 8b 0f be eb ec 3f 3d 02 53 86 bd
       -0.041301128 -0.1401794 0.046856802 -0.06558801
0003d0 25 a2 2d 3c 74 e0 e2 bc de c6 10 3e af 1f 8b 3d
       0.01059774 -0.027694918 0.14138362 0.067931525
0003e0 c8 52 f0 3d 92 ee 93 3c ec 51 6f 3d 61 af 45 3d
       0.11734539 0.018058095 0.058427736 0.048262957
0003f0 91 2d d8 bc ce 0e 27 3c 40 71 d7 3d 0d 58 1c bd
       -0.026388915 0.010196401 0.105196476 -0.03816991

output.bias f4 [4]
000000 49 79 4b bc 22 6d 76 ba 88 9a 6c 3b 5f 9d bc ba
       -0.012419053 -0.00094004173 0.003610285 -0.0014390162
