DDPG-HER/Pre-trained models/FetchPush-v2_1.pth (torch, 563733 bytes, 8 tensors)

fc1.weight f4 [256, 28]
000000 73 04 40 bd 0c 7f d2 3d 54 62 f7 bd d2 03 61 be
       -0.046879243 0.102781385 -0.120793015 -0.21974114
000010 4a 1a 3c bd 70 d4 43 bd 4c e6 17 be fb df 3d 3e
       -0.04592351 -0.047810018 -0.14833945 0.18542473
000020 50 7e 22 bd 9b 99 95 3d c9 bf 43 3c c8 11 5a 3c
       -0.039671242 0.073046885 0.011947581 0.013309903
000030 d4 04 05 be 4e 49 60 be 5b f1 02 bd 28 95 cc 3d
       -0.12990123 -0.21902964 -0.031968456 0.09989387
000040 c3 f4 01 bb a8 94 52 3e 58 ae 35 be 3d a9 ec bd
       -0.0019829727 0.2056452 -0.17742288 -0.11555717
000050 01 22 80 bc f8 17 8a 3d 8a 4a df 3c e9 52 04 3e
       -0.015641214 0.06742853 0.027257223 0.12922253
000060 77 6a c8 bd 62 c3 90 3e 84 b7 68 3e db 3c 25 3e
       -0.097859316 0.28274065 0.22726256 0.16136496
000070 0c f5 9f bd ea 6c 9e bd 8e 86 ff bd 34 ff 21 3e
       -0.07810411 -0.077356175 -0.12476836 0.15820009
000080 cf f7 8b be 03 07 6d be e5 c7 fc bd 4a 40 b0 be
       -0.273375 -0.23147206 -0.12342814 -0.3442405
000090 11 c1 8e bd db ee 3b 3e 0e 96 51 3e d9 25 e5 3b
       -0.06970418 0.18352835 0.20467398 0.006993037
0000a0 2e 31 98 bc b7 cc de bd 92 51 07 bd 6c 16 c4 bd
       -0.018578138 -0.1087889 -0.033036776 -0.09574589
0000b0 ad 67 8f bc 69 78 f6 bd 5d 65 11 3e 91 d0 ce 3d
       -0.017505491 -0.12034685 0.14198823 0.10098375
0000c0 68 00 c5 bc 3c 75 bb bd c8 26 42 bb 1e 62 b7 3d
       -0.024048045 -0.0915322 -0.0029625166 0.08954261
0000d0 98 ef 02 bd 44 89 15 3b 8d 96 bd 3e 63 78 67 bd
       -0.031966776 0.0022817412 0.37028924 -0.056511294
0000e0 ef 0f 3e be 12 f3 4c be ac 63 87 bd 19 f6 9c be
       -0.18560766 -0.20014599 -0.06610808 -0.30656508
0000f0 b5 60 26 3c 29 5e dc 3d 69 9e 50 be 66 43 aa 3a
       0.010154893 0.10760147 -0.20372929 0.0012990057
000100 39 16 3a 3d 46 ac be 3c cc 9d 10 be 39 2f 70 3d
       0.04543135 0.023275506 -0.14122695 0.058638785
000110 c0 64 22 3e 78 3d 64 3e 79 39 9a bd f6 c7 dd bd
       0.15858746 0.22289073 -0.07530493 -0.10829155
000120 b2 09 90 3d 5b ff 2b bd 2b 09 2a 3e 96 92 0c 3e
       0.07033099 -0.041991573 0.1660506 0.13727793
000130 45 d0 66 bd 53 58 0e be c5 b0 2a 3d 19 62 c6 bd
       -0.056350965 -0.1390088 0.041672487 -0.096866794
000140 f6 06 c0 3c 6f e5 aa 3e 14 e7 22 3e b3 f1 9b be
       0.02344082 0.3337817 0.15908462 -0.3045784
000150 60 90 4d 3d 7c f7 00 3d a9 84 0e 3d 50 db 58 bd
       0.050186515 0.03148602 0.034794483 -0.052943528
000160 9b 2f 53 3e 44 87 08 be 54 88 8d 3d 87 71 48 3e
       0.20623629 -0.1333285 0.06910768 0.19574557
000170 72 26 bc 3d 0c fa 89 3d 5a bf 9f be 70 bc da bd
       0.0918702 0.06737146 -0.31200677 -0.10680473
000180 1b b5 4f 3d 55 bb 07 bd fd f9 3a be 27 61 53 bd
       0.050709825 -0.033137638 -0.18259425 -0.051606324
000190 65 9b 00 3d 0a 74 12 3e 4b 17 d2 bd 5e 5f 41 bb
       0.031398196 0.14302078 -0.10258349 -0.0029506306
0001a0 e7 dc 28 be e8 cd 5b bd e4 c6 14 3c ef 57 a7 bd
       -0.16490518 -0.053663164 0.009080622 -0.08171069
0001b0 10 cf d3 3b d0 77 26 3e cc 4b 9c be 55 54 62 3e
       0.0064638928 0.16256642 -0.30526578 0.22102483
0001c0 53 1a e3 bd 87 58 39 3e 7f 31 9a 3d c9 22 98 be
       -0.11089005 0.18100177 0.07528972 -0.2971404
0001d0 ab 89 c2 3a 6a 98 0e 3e e9 6d 0f be ff e7 96 3d
       0.0014842054 0.13925329 -0.14006771 0.073684685
0001e0 aa 41 07 3e d8 73 78 3c eb 86 11 be 0b 51 6e 3d
       0.13208643 0.015164338 -0.14211623 0.058182757
0001f0 cd d1 2e be 9a 41 4f be 8a 1b 0c be b4 59 54 bc
       -0.1707222 -0.20239869 -0.1368238 -0.01296084
000200 cc 6c ef bb 2b b2 f2 bd 6b 41 f7 bc 5f d3 95 3d
       -0.007306671 -0.11850389 -0.03018256 0.073157065
000210 dd d2 96 bd eb d0 bc bd f4 cf 9a 3d 11 25 df 3c
       -0.07364438 -0.092195354 0.07559195 0.027239354
000220 3f 71 21 be c6 77 86 3e 57 2b c6 bd ca 51 b0 3d
       -0.15765856 0.26263255 -0.09676235 0.0860935
000230 ed 82 7d 3e 60 9e e3 3d c2 3e 85 3d ed 63 b8 3d
       0.24756975 0.11114192 0.06506111 0.09003434
000240 1c 23 be bd b7 df 95 bd f8 9f 64 3e b5 1a b5 3d
       -0.0928404 -0.07318061 0.22326648 0.088429846
000250 20 b9 89 3c 34 23 02 be bd 79 c5 be 75 61 3b be
       0.016811907 -0.12708741 -0.3856944 -0.18298896
000260 b2 9a 84 bd 0d 83 39 3e 09 0f 42 3d 58 60 05 be
       -0.06474818 0.18116398 0.04737762 -0.13025033
000270 38 ce 67 3d 1c 1f e3 bd aa b9 5d bc e5 d3 be 3c
       0.05659315 -0.11089918 -0.013533035 0.023294399
000280 50 65 0f 3d fa 6e a4 bd 06 0c ee bd 84 91 16 be
       0.03500873 -0.080289796 -0.11623387 -0.14703947
000290 c3 ae 20 3e 73 6a 47 bd 38 f5 ac bd ae 78 c0 3e
       0.15691666 -0.048685502 -0.08445209 0.3759207
0002a0 36 12 3d be a2 82 ab bd 67 d7 a8 3b a9 bc 4e bd
       -0.18463978 -0.083745256 0.005152631 -0.05047289
0002b0 93 b8 82 3e 18 73 c7 3c d0 0d 1b be 9a 86 7a 3e
       0.25531444 0.024346873 -0.15141988 0.24465409
0002c0 84 77 f7 3d e7 83 b5 bd 9f 99 db 3d 97 07 c8 bd
       0.12083343 -0.08863049 0.1072266 -0.09767073
0002d0 d6 e4 de bc ee c3 aa bd e7 ea a2 3c 11 d1 88 3d
       -0.027208727 -0.08338152 0.0198874 0.06680501
0002e0 8b c4 98 3d a8 84 84 3d db 26 bc 3c 8e ae 0b bd
       0.074593626 0.06470615 0.022967746 -0.034102015
0002f0 32 c9 2f bd 5f da 90 3d 67 93 2e 3e fe 43 b6 3d
       -0.042916484 0.07072901 0.17048417 0.08899687
000300 83 be 35 bd 3f c7 94 3d d6 dd 9f be 3c 70 53 be
       -0.04437114 0.07264566 -0.31223935 -0.20648283
000310 b3 79 58 be 9d f9 b5 bd 5a a2 d0 bd 63 73 91 be
       -0.21140175 -0.088855006 -0.10187216 -0.28408346
000320 5e de 9d bd 06 8f 0b 3e 4e 46 b0 be 28 b1 06 be
       -0.07708429 0.13628778 -0.34428638 -0.13153517
000330 92 ce f1 bd 69 52 28 3e 96 1f 31 be 38 90 e4 3d
       -0.11806978 0.16437687 -0.17297205 0.1116032
000340 2c 64 9a 3d 1b 27 2a 3c a4 50 98 bd 62 82 5e bd
       0.075386375 0.0103853 -0.07437256 -0.05432356
000350 a5 dd f6 3d 8e ad 95 bd b8 03 34 3d a1 6d 75 bb
       0.12053994 -0.073084936 0.04394886 -0.0037449377
000360 86 54 ca bd 75 7b a4 bd 06 f0 6b 3d f5 19 01 be
       -0.09879403 -0.0803136 0.05760195 -0.12607558
000370 ad 82 ae bb 79 dc d8 3e 98 8c 38 3e 74 06 a2 bc
       -0.0053256364 0.42355707 0.18022382 -0.019778468
000380 11 0b 2b be 82 6a 35 3e 93 a3 32 be d7 b6 02 3e
       -0.1670344 0.17716411 -0.17445211 0.1276506
000390 23 88 2d bc 79 1e 5c bc 32 ce 42 3e 83 d2 0e 3e
       -0.01059154 -0.013435 0.1902397 0.13947491
0003a0 63 6f 83 3d 96 18 20 3e fd fd 0c 3c 4f df 16 be
       0.0641773 0.15634379 0.008605477 -0.14733623
0003b0 74 b4 b9 3d f1 f6 c6 bd f6 af c6 bb f6 d3 f3 bc
       0.09067622 -0.09715069 -0.0060634566 -0.029764157
0003c0 7f b9 ad 3d cf f2 c7 3d e7 9a 74 3d be 58 8c bd
       0.08482646 0.09763109 0.05971804 -0.06852864
0003d0 2e f0 f0 3c 76 d3 c8 bd db df e8 3d d6 a6 17 be
       0.029411402 -0.09805958 0.11370822 -0.14809737
0003e0 00 02 06 3e a7 35 82 be 31 6f e8 bd b9 80 00 be
       0.130867 -0.25431558 -0.11349333 -0.12549104
0003f0 e3 5c e6 3d 4c 7c 3e bd 7e e6 dd bd 4a 83 c5 bd
       0.112481855 -0.046505257 -0.108349785 -0.09644182

fc1.bias f4 [256]
000000 c4 20 d7 be 8d 64 c8 bc ad bf 8d bd d7 f3 49 bc
       -0.42017186 -0.024462009 -0.06921325 -0.012326202
000010 5a 57 d6 3d bb 89 a6 bd 8e 3a e2 bd 69 66 ec 3d
       0.1046588 -0.08131739 -0.11046325 0.11542971
000020 dc eb cd bd cf 1a d6 b9 4d 8c 7e be 5b 5c 6a bd
       -0.10054752 -0.00040837235 -0.24858208 -0.057216983
000030 b9 24 79 3d 03 e2 51 3d e0 3b 8c be f1 f8 2e 3d
       0.060826037 0.051240932 -0.2738943 0.042717878
000040 0a 51 55 be 57 c8 ea bd bf 41 48 be ac 92 53 be
       -0.20831695 -0.11463993 -0.1955633 -0.2066142
000050 ba d9 4f be 45 ba 12 3e 30 cd e5 bc e0 5d d0 bd
       -0.202979 0.14328869 -0.028051943 -0.10174155
000060 2d 1b d6 3d 65 48 90 be 94 e4 b5 bd a2 33 15 3d
       0.10454402 -0.28180233 -0.088814884 0.036426194
000070 65 c2 34 be bd 00 08 3e 8c e9 42 3e eb b9 40 be
       -0.1765228 0.13281532 0.19034404 -0.18820922
000080 c1 ca 84 3e 7b 03 29 be 98 cd df bd 48 f7 3f 3e
       0.2593594 -0.16505234 -0.10927886 0.18746674
000090 4e fc c3 bd 88 39 f2 bd 14 e9 3f bd ab f9 2d bd
       -0.09569608 -0.118273795 -0.04685314 -0.04247443
0000a0 97 fc 3a be 74 47 99 be 21 d4 28 be ee d2 6f 3e
       -0.18260418 -0.29937327 -0.16487171 0.23420307
0000b0 89 1b a5 bc a7 43 87 3d 4f 78 84 be a7 06 58 be
       -0.020154731 0.066047005 -0.25873038 -0.21096288
0000c0 e4 60 bb 3d ec ce f5 bd 94 8d 05 3e ed b3 b6 bd
       0.0914934 -0.12002358 0.13042289 -0.08921037
0000d0 88 97 f7 bd d7 a7 36 be 78 5f 8c be 69 92 f7 bd
       -0.12089449 -0.17837463 -0.27416587 -0.120884724
0000e0 87 4d 94 3c 83 9c 79 be 41 40 99 bd f7 73 27 bd
       0.018103374 -0.2437611 -0.074829586 -0.040882077
0000f0 0f 4b 82 3d be 2e 81 be 05 40 2c be 56 f9 46 bd
       0.063619725 -0.25230974 -0.16821297 -0.04857763
000100 b4 5a 9f 3d c1 5f 2c 3d e4 62 a6 bd ff 96 86 be
       0.07780972 0.042083506 -0.08124331 -0.26287076
000110 46 d3 8b bd 3c 46 79 be 28 ac 88 3d d6 01 a4 3c
       -0.068274066 -0.24343199 0.06673461 0.020020407
000120 6f eb db bd a2 9f ab 3d d7 c9 a0 bd 25 10 e5 3d
       -0.10738265 0.08380057 -0.07850998 0.1118472
000130 1b aa 2d 3c 60 91 9a bc 13 44 34 be b5 38 0d bd
       0.010599638 -0.018868148 -0.17604093 -0.03447791
000140 b8 ba bc bd 5d b1 83 be 76 9a 68 3d 83 25 0f bd
       -0.09215301 -0.25721255 0.05678793 -0.034947883
000150 40 e5 29 bd b8 d8 91 3e 7c cf 20 be 1b ee 2e bd
       -0.041478395 0.28485656 -0.15704149 -0.042707544
000160 1a 81 a8 bd d2 32 cd 3a d3 95 24 3d 1a b2 60 be
       -0.08227749 0.0015655404 0.040181946 -0.2194294
000170 16 03 9c be 05 32 24 be e7 cf b4 3b 3c 9f 2c bd
       -0.30471104 -0.16034706 0.005517948 -0.042144045
000180 e3 11 0a be 17 12 89 bd 57 3d 59 3e 70 b8 86 bc
       -0.13483386 -0.066929035 0.21214806 -0.016445369
000190 56 d5 d9 bb 27 67 fb bb d7 37 ca bd 46 54 f0 bd
       -0.006647746 -0.007672209 -0.09873932 -0.11734824
0001a0 63 cf 6b be e4 00 95 be ea 9a 69 be 97 c0 0e 3d
       -0.2302833 -0.29102242 -0.22813001 0.034851637
0001b0 92 c2 ed bc be 71 85 be b8 f0 85 ba 66 d3 f0 bd
       -0.029023442 -0.2606334 -0.0010218835 -0.11759071
0001c0 49 8b d5 bd 76 d1 5e be 9d 78 b7 3b 53 a0 af bd
       -0.10426957 -0.2175959 0.005599095 -0.08575501
0001d0 f3 0b 0e be b4 cc 60 be 1f ec 21 be c8 c1 db 3d
       -0.13871746 -0.21953088 -0.1581273 0.1073032
0001e0 9c 00 78 be 8a d8 47 be 18 8f 3b be 0e 5f 83 bd
       -0.24218982 -0.19516197 -0.18316305 -0.064146146
0001f0 d7 70 bc bd 57 6d f6 3d 45 81 36 be b9 24 8c bd
       -0.0920121 0.12032574 -0.1782275 -0.06842942
000200 d5 dd 86 3c 86 b4 c1 bd c4 b9 06 bd 46 02 73 3e
       0.0164632 -0.0945826 -0.032892004 0.23731336
000210 6c 65 3f 3d 54 c7 c1 bd 90 d4 87 be e8 04 03 3e
       0.046727583 -0.09461847 -0.2652936 0.1279484
000220 6c 21 72 be b1 c2 10 bd b6 37 a4 bd e9 81 06 be
       -0.23645562 -0.035341922 -0.080184385 -0.13135494
000230 60 33 91 3c 60 56 16 be e7 3b 21 3e b2 fa e2 bd
       0.017724693 -0.14681387 0.15745507 -0.110829726
000240 81 27 90 bc 86 7c 81 3d c4 a2 f4 bd af 0e 02 3d
       -0.017596962 0.06322579 -0.119451076 0.031752285
000250 e9 f0 9d ba 3c 44 9f be b8 bb 7c bd 73 37 74 be
       -0.0012049946 -0.31106746 -0.06170246 -0.23849277
000260 29 0a 27 be fb 36 18 bd ac 69 0c be a0 95 8b be
       -0.1631247 -0.03716181 -0.13712186 -0.27262592
000270 01 a6 58 bd 7e c2 4f be 17 ce 61 be 3a 49 42 be
       -0.05289269 -0.20289037 -0.22051273 -0.18973246
000280 78 56 01 be 6f 20 07 3b c3 cf 46 be fd fc cb 3d
       -0.12630641 0.0020618697 -0.19415192 0.09960363
000290 a6 63 74 be b2 51 1a 3d 7f fd 83 be 73 07 91 3e
       -0.23866138 0.037675567 -0.2577934 0.28325996
0002a0 45 78 9e bc 37 e2 eb 3d 21 78 45 be 31 36 e0 bd
       -0.019344458 0.115177564 -0.19284107 -0.10947836
0002b0 ed d6 09 be 0d 58 35 be 65 58 73 3d 7d c9 82 3d
       -0.13460894 -0.1770937 0.05941047 0.06386087
0002c0 1f c2 92 3e 1b 62 70 be 06 b3 33 be 25 e8 6b be
       0.28663728 -0.23474924 -0.17548761 -0.23037775
0002d0 59 74 43 be 64 fa 98 bd e2 da 82 3d 54 b6 6b be
       -0.19087352 -0.07469633 0.06389405 -0.23018771
0002e0 1e 33 3b 3e 6c f6 e4 bd 8d 46 90 be a8 4b d1 bd
       0.18281218 -0.11179814 -0.28178826 -0.102195084
0002f0 a5 cc 8f 3d 9c 64 60 be 45 91 3e bd 23 70 9b bb
       0.07021455 -0.2191338 -0.04652526 -0.0047435923
000300 2b 1e 67 be 24 8e 81 bb ec d6 83 bc 59 19 13 be
       -0.22570102 -0.003953712 -0.016093694 -0.14365138
000310 57 a5 7e be 63 3c 97 bd 23 08 78 3d 96 75 97 be
       -0.2486776 -0.07384565 0.060554635 -0.29581898
000320 16 f7 c3 bd fd ef 9a be 4a fe 69 be 66 09 5b be
       -0.09568612 -0.30261222 -0.2285091 -0.21390304
000330 bd 05 ab bd a3 11 b7 3c b4 b1 06 be 1a 8a 8b be
       -0.08350704 0.022347277 -0.13153726 -0.272538
000340 a6 26 dc 3c 80 9d df bd 8b 1d 23 3e de 65 62 bd
       0.026873898 -0.109187126 0.15929238 -0.05527293
000350 65 9d 00 3d a4 54 fd bd d2 90 37 3d b6 a8 2a be
       0.031400103 -0.123696595 0.044815846 -0.1666592
000360 9a 24 d1 bd 4f 1d 3b be 54 9c c1 3c 15 80 b5 be
       -0.10212059 -0.18272899 0.023634113 -0.3544928
000370 34 b9 e6 bd 6e ae 38 3e ad 22 83 3e 83 78 16 3e
       -0.112657934 0.1803529 0.25612393 0.14694409
000380 7d 74 ae bd f4 3d 6d be eb be a6 bc b6 79 99 3d
       -0.08518312 -0.23168164 -0.020354709 0.07493918
000390 12 6e 1b 3e a2 19 0e be e3 5b 29 bd f7 f8 c5 bd
       0.15178707 -0.13876966 -0.041347396 -0.09666627
0003a0 d3 80 2e 3d 95 08 45 be 17 62 77 3c da dc 58 be
       0.042603325 -0.19241555 0.01509907 -0.21177998
0003b0 82 92 99 bd 49 91 98 3d e8 78 5b be 82 3e d1 bc
       -0.07498647 0.07449586 -0.21432841 -0.025542501
0003c0 d6 b9 8c bd f3 a7 86 bd 17 de b8 3d 9e 53 d2 bd
       -0.06871383 -0.065750025 0.09026735 -0.10269855
0003d0 09 5c 50 be 8e f5 50 be 2b f4 e2 3d 2c 51 32 be
       -0.20347609 -0.20406172 0.110817276 -0.17413777
0003e0 62 f7 5a bd 07 72 40 3e 81 48 ff 3d 5d e2 ff bd
       -0.05345858 0.18793498 0.12465001 -0.12494347
0003f0 3a 5a 0f 3e 8d 55 6c 3c 1a 5e 3e 3e 97 03 02 3d
       0.13999262 0.014424694 0.18590584 0.031741705

fc2.weight f4 [256, 256]
000000 2e a4 6c 3a f8 13 1d bc 10 ac 3d 3c 70 13 5f bd
       0.000902715 -0.00958728 0.011576667 -0.054461896
000010 fd 41 c2 3c fc 8a 94 3c 41 34 80 bb 2e 70 e3 3c
       0.023713106 0.01813268 -0.003912479 0.027763452
000020 40 ee b2 bc 2b bc 85 bd a3 46 7d bd 84 f9 49 3d
       -0.021842122 -0.06530031 -0.061834943 0.049310222
000030 75 e9 ea bc 48 a9 60 bd 3d 13 55 3d 1a bb 53 bd
       -0.028675774 -0.05484894 0.0520203 -0.051692106
000040 e7 68 25 3d 68 55 37 3d 1c f9 91 bc 54 a2 d6 3c
       0.040383246 0.044759184 -0.01781898 0.026200451
000050 90 92 1d 3d ba 46 8b bd d0 c2 26 bd 5a 52 18 3a
       0.03846985 -0.068005994 -0.04071313 0.0005810611
000060 21 cf 33 3c 24 19 57 bd f6 ed 74 bd bb b0 4b 3d
       0.010974676 -0.05251421 -0.05979725 0.04972909
000070 89 72 28 bd 2c 3e 8b bd ab 70 8e 3c 82 4f 2d bd
       -0.041124854 -0.06798968 0.017387709 -0.042312153
000080 4e da f4 bc f6 b5 ff bc 6b 0e 49 3d 71 db 59 3c
       -0.029889252 -0.031214695 0.049086016 0.013296948
000090 42 4e 4e 3d 0a d7 fd bc 95 0d 0b 3d 57 58 7f bd
       0.0503676 -0.030986328 0.0339485 -0.062340107
0000a0 42 e0 2f 3d a3 a0 cf bb f6 14 d6 bb b4 23 37 3d
       0.04293848 -0.006336288 -0.0065332605 0.044711784
0000b0 c2 c9 a8 bb 2b 59 15 bd 9e fb 34 bd a2 90 e0 39
       -0.0051510045 -0.03646199 -0.044185273 0.0004283237
0000c0 f4 80 00 bd 58 59 b0 3c 3a 22 72 bd 52 10 57 bd
       -0.03137298 0.021526977 -0.059114672 -0.0525058
0000d0 cf 14 43 3d cb 7f 0a bd bd 93 90 bd 13 39 15 3d
       0.047627266 -0.03381328 -0.07059429 0.036431383
0000e0 88 69 d4 bc 04 76 1b bc f9 8b f9 3c 0e 43 54 3c
       -0.025929227 -0.009488586 0.030462252 0.01295544
0000f0 ed ea 8d bd ab c5 5c 3b 30 c8 55 3d 2d b1 4b bc
       -0.06929574 0.0033687155 0.052192867 -0.012432379
000100 ba 22 13 3d ba ff 3d 3d 2f 3b 70 3c 06 6f 5b bd
       0.03592179 0.046386458 0.014662548 -0.053572677
000110 58 6b 3f 3d 20 9f 1e 3d 13 89 0b 3c a6 16 69 bc
       0.04673323 0.038725972 0.008516568 -0.014226591
000120 7d 49 4e bd f0 b7 5d 3b 47 9b f7 bc fc 6b 43 3d
       -0.050363053 0.003383156 -0.03022541 0.047710404
000130 8f b2 94 bd ac 21 68 3b 31 51 47 bc d8 43 1b bc
       -0.0726062 0.003542046 -0.012165354 -0.009476624
000140 27 17 90 bc 03 88 88 3c ce b0 7c bd 5c c0 91 3b
       -0.017589165 0.016666418 -0.06169205 0.00444798
000150 ee ba 50 bd af 24 2f 3c 3e 43 6a bc 34 8f db ba
       -0.05095952 0.010689898 -0.014298258 -0.0016751052
000160 b7 1d e6 3c ca b8 0c bd f9 e4 69 bd 29 dd 19 bd
       0.028090341 -0.034355916 -0.05710313 -0.03756443
000170 f5 71 23 3d 69 61 7b bd cd 71 03 3d 8e 0a f8 bc
       0.0399036 -0.061372194 0.03209095 -0.03027847
000180 31 4b c2 bb 65 3f 84 3c 99 ee fd bc cc 66 52 bd
       -0.0059293737 0.01614351 -0.030997561 -0.051367566
000190 bc c3 52 3c 1f ca eb 3c 68 9c 4b 3c 14 75 48 bc
       0.0128640495 0.028782902 0.012427427 -0.012234945
0001a0 a5 41 be bb ff 2f 92 3c 55 ce 09 3c 6e 7c 27 bd
       -0.0058061653 0.017845152 0.00841101 -0.04089015
0001b0 12 0f 0b 3d 8a 1b 8d bc a7 f2 04 bd 0e b9 fb bc
       0.03394992 -0.017225046 -0.032457974 -0.03072789
0001c0 fb 35 dd ba 59 71 35 bd 91 76 5c bd 58 6f d5 3c
       -0.0016877049 -0.04429755 -0.05382401 0.02605407
0001d0 07 90 27 3d e2 bd 91 bd 8c 49 24 3d 30 bd 36 bd
       0.04090884 -0.071162954 0.040109202 -0.044614017
0001e0 d6 89 02 3b 2e f9 45 3d 1f 4e 3a bd fe d2 0c bd
       0.0019918582 0.04833334 -0.04548466 -0.034380905
0001f0 bb c5 e8 3b e1 9a 4d bd b6 ac 09 bd 54 ab 80 bd
       0.0071036494 -0.050196532 -0.033611976 -0.06282678
000200 37 f4 59 bb b4 0c e3 3c c0 ab 0a 3c f7 f8 ba bc
       -0.0033257136 0.027716018 0.0084638 -0.022823794
000210 c6 98 50 3d 18 f7 27 3d 6b 92 33 bd 82 82 e4 3c
       0.050926946 0.04100713 -0.043840807 0.027894262
000220 29 c6 b2 bc ca 0a 26 3c e8 a5 19 bb 73 37 91 3c
       -0.021823006 0.010134408 -0.0023444835 0.017726636
000230 cc 22 28 bd 3f 64 18 bd 4c d2 38 bd c1 fb 4e bd
       -0.04104881 -0.037204977 -0.04512243 -0.05053306
000240 3b 58 12 bd 2b f5 c5 3b c8 70 18 3c 8b 1f aa 3a
       -0.035728674 0.006041189 0.009304233 0.0012979371
000250 d8 d1 15 3d 05 28 1b 3d c7 26 29 3d 2a 87 df 3c
       0.036577076 0.037879962 0.041296747 0.027286131
000260 46 a0 ea bb e9 d3 04 3c 8e 43 28 bd c0 c7 bd bb
       -0.0071602194 0.008107164 -0.04108005 -0.0057916343
000270 c8 e9 57 bb bd 4a 81 bd 60 f9 35 3d a1 cc bf bc
       -0.003294574 -0.06313083 0.044427276 -0.023413004
000280 bf 77 1a 3d f1 87 b3 3c 0d 63 31 bd 6a 47 18 3c
       0.037711855 0.021915408 -0.043307353 0.00929437
000290 88 f0 1c bd 52 8b 29 bd cd ad 11 3c 09 6c b8 3c
       -0.038315326 -0.04139263 0.008891535 0.022512453
0002a0 de b5 47 bd 8c 6b 27 bd 7e 62 1f 3d 36 5b 01 bd
       -0.048757426 -0.04087405 0.03891229 -0.031581126
0002b0 d0 d3 4f bd 18 02 7d bd f5 f6 d9 3c 32 80 0a 3d
       -0.05073911 -0.061769575 0.026607016 0.033813663
0002c0 21 5e 5f 3d df 9c 69 bd cb 72 ce ba 4d 14 25 3b
       0.054533128 -0.05703437 -0.0015750764 0.0025189102
0002d0 c1 b5 65 bb cd 68 20 3b 08 20 87 bd fe bf 65 bd
       -0.003505096 0.0024476529 -0.06597906 -0.0560913
0002e0 64 33 18 bd c9 e8 85 bb 96 cf 67 bb 54 14 90 bc
       -0.037158385 -0.004086588 -0.0035371534 -0.017587818
0002f0 43 52 8f bd 17 6a 01 3d 77 ec 53 bd 8d 3b cb 3b
       -0.06998112 0.031595316 -0.051739182 0.0062021674
000300 f9 b1 44 bd e4 05 16 3d 7a bd 1d 3d 99 0d 26 bd
       -0.04802129 0.03662671 0.038510777 -0.04054031
000310 85 9e 35 3d 0f da f1 bc e7 95 8c bd 93 5c 96 bc
       0.04434063 -0.029522924 -0.06864529 -0.01835469
000320 6d 42 6c bd 76 a9 99 3b 26 fe 53 3b c8 7c 0d bd
       -0.057680536 0.004689391 0.003234753 -0.03454283
000330 50 53 d6 bc 28 38 26 3c 5c 78 2d bd e0 92 8e 3c
       -0.026162773 0.010145225 -0.04235111 0.01740402
000340 69 f5 61 bd 45 47 e0 3c 78 f3 1a bd 2a b3 79 bd
       -0.055165682 0.027377734 -0.037829846 -0.06096188
000350 b4 20 5a 3b 93 b2 82 ba 0f 53 5f bd fe 3a 46 3d
       0.0033283653 -0.0009971432 -0.05452257 0.048396103
000360 23 50 05 bd 6f 65 06 3d fd 04 c7 bc 95 43 01 3d
       -0.032547127 0.03281158 -0.02429437 0.031558592
000370 4e 00 29 bd eb 06 55 bd 30 34 76 bd 11 73 25 bd
       -0.041260056 -0.05200855 -0.060108364 -0.04039294
000380 70 92 34 bd 53 c7 9f 3c 63 c0 4c bd df e7 aa bc
       -0.044084966 0.019504225 -0.04998816 -0.020862518
000390 44 6c 03 bd d1 c2 05 bd d6 98 91 bc 84 31 da 3c
       -0.032085672 -0.032656495 -0.017773073 0.026634939
0003a0 bc 64 03 bd 60 f8 74 bd 88 ab 0c 3d f0 78 40 bd
       -0.03207849 -0.05980718 0.034343272 -0.046990335
0003b0 d9 76 0f 3d 3c 05 68 bc 4c 08 7a bc 15 a1 47 3d
       0.03502545 -0.014161404 -0.015260767 0.048737604
0003c0 86 e0 ae 3a 28 bb 82 bd bc 7b 8f bd 16 42 8e bd
       0.001334206 -0.063833535 -0.07006022 -0.06946199
0003d0 d6 7c 5c bd 0f 8f 6a 3c a1 97 87 3c fb 8f bc 3c
       -0.05382999 0.014316334 0.016551794 0.023017874
0003e0 ec f3 89 bd e0 15 f7 3c 9f 98 39 3d 83 48 7f 3c
       -0.067359775 0.030161798 0.045311566 0.015581253
0003f0 71 51 0a bd e1 52 78 bd de 01 59 3d a6 c9 4c bb
       -0.033769075 -0.060625914 0.052980296 -0.0031248122

fc2.bias f4 [256]
000000 16 87 8b bd ce 2b 41 bd 8e 2b 93 3c 9c be 1f 3d
       -0.06812875 -0.047160916 0.017965104 0.03900014
000010 89 2a e1 bb 9c 85 34 bd 33 ea 66 bc 57 41 f8 3c
       -0.0068715257 -0.044072732 -0.014093923 0.030304594
000020 2f d3 c4 3d af fe 91 3c 27 d3 85 3d 90 55 b8 3c
       0.096105926 0.017821638 0.06534415 0.022501737
000030 0b 0e 59 be b5 b4 05 bd b5 15 1a 3e 6c 33 c1 bc
       -0.21196763 -0.03264304 0.15047343 -0.02358409
000040 05 da a6 3a 01 fa f1 bd 92 19 cf bb 3d a3 a6 3d
       0.001272977 -0.118152626 -0.006320187 0.08136604
000050 e8 da 15 3d 3c 01 47 bd ee c6 a0 3d 39 5a cd 3b
       0.03658572 -0.04858516 0.07850443 0.006266859
000060 ec fc 23 3d 5b ec 86 bd 18 cf 1e 3e 8a 57 bd 3d
       0.040036127 -0.0658805 0.15508687 0.092452124
000070 47 83 bb 3c c7 70 92 bd b2 a6 9c 3d aa 67 be bd
       0.022889746 -0.07150417 0.07648982 -0.09297116
000080 54 7d 7c bd fa 5f f8 3c 18 f3 05 3d 35 40 d7 3d
       -0.06164296 0.030319203 0.032702535 0.105102934
000090 d8 cc e6 bb ba b9 8a bd 60 57 0f bd 9f d6 fb 3c
       -0.0070434622 -0.06773706 -0.034995437 0.030741988
0000a0 46 a3 e8 3b 06 5e 95 3d d7 52 92 bd b4 d9 0d 3d
       0.007099542 0.07293324 -0.07144707 0.034631446
0000b0 ba 78 03 3e 3f 94 d7 3d ac dd d7 bc b0 6f 06 3d
       0.12839022 0.105263226 -0.026350819 0.032821357
0000c0 92 4a e1 3d 3e 0b b0 3a e6 02 04 be fc 7b 95 3c
       0.11000551 0.0013431085 -0.1289173 0.018247597
0000d0 17 d8 af bb d7 02 07 3c b0 33 86 3d 6f 09 1e 3d
       -0.005366336 0.008240423 0.06552827 0.038583215
0000e0 01 2d bd 3c 5c 54 81 bd 85 b4 03 3d b3 09 80 bd
       0.023092749 -0.063149184 0.03215458 -0.0625185
0000f0 24 26 d9 3c c1 c4 1f bd bb e7 32 3e b2 f1 ef bc
       0.026507445 -0.039006 0.1747121 -0.029290054
000100 33 2a c6 bd 80 76 6e ba 74 19 0e bd bd c8 b7 bd
       -0.096760176 -0.00090966374 -0.034692243 -0.08973835
000110 35 a3 bf bd a4 24 83 bd 90 21 4e bd 88 10 0c 3d
       -0.09357301 -0.06403473 -0.050324976 0.034195453
000120 d3 1c d5 3d bf f7 b6 bd 12 37 6f be c5 12 79 3c
       0.104058884 -0.089339726 -0.23360851 0.015202229
000130 08 8d 93 bd 75 30 3f 3d 3e 01 b3 3c 26 24 a8 3d
       -0.07204634 0.04667707 0.021851178 0.0821002
000140 e0 52 fe bd 85 0a 0f 3e 1b a4 0a be 68 c1 a8 bb
       -0.12418151 0.13968857 -0.13539164 -0.005150009
000150 56 9f 1b 3e f1 41 ce bb 85 9b 43 bd 73 6e 33 bd
       0.151975 -0.006294482 -0.047755737 -0.043806504
000160 bf 32 8f bd 82 78 d1 3a 9e 3a a1 3d e0 b6 0b 3e
       -0.06992101 0.0015981349 0.078725085 0.1364398
000170 94 9e 8b 3c b1 cf 55 3d 0e 4a 5a 3d 04 05 53 3c
       0.01704339 0.052200023 0.05329328 0.012879614
000180 80 22 0b bd 3b 9e 0b 3e 62 74 2c bd f2 4a 77 be
       -0.03396845 0.13634579 -0.04210318 -0.24149683
000190 42 51 29 3d f1 89 09 bc 9b 7d 04 3d e7 f9 a4 3d
       0.04133726 -0.008394704 0.03234635 0.080554776
0001a0 68 43 20 3d 96 3c fa bd 29 93 33 3e 66 e9 7d 3c
       0.039126784 -0.12218587 0.17536606 0.015497541
0001b0 03 38 79 3d 92 db 09 3d 9c 8e d2 bb 5b e5 ca bc
       0.060844433 0.033656664 -0.006425692 -0.024767568
0001c0 4e 62 ac 3c 88 5e 1d bc a1 1e 3e 3d ef 55 08 3d
       0.02104297 -0.009605058 0.04641593 0.033285078
0001d0 d6 80 6f bd 7c 6b 77 3d 58 61 71 3d 63 bb d0 bc
       -0.058472477 0.06040524 0.058930725 -0.025479978
0001e0 8f fe 1c 3d 3c 3f 20 be a1 4c 46 3d 1f 07 aa 3d
       0.038328703 -0.15649122 0.048412923 0.083021395
0001f0 39 b4 7c be 04 70 9b bd ca 58 95 bd 41 62 d7 bc
       -0.24678124 -0.07589725 -0.07292326 -0.026291968
000200 99 af cc 3c 10 0c 27 3d 38 e2 d5 bb 9d c0 a4 bd
       0.024986075 0.040782988 -0.0065272115 -0.080445506
000210 ff 71 ba 3c 24 1e 64 3d ff 79 21 3a db aa 00 3e
       0.022759436 0.055692807 0.00061598414 0.12565176
000220 c2 62 f2 3c a0 30 57 3d f5 2d 38 3d f8 18 3a 3e
       0.029588107 0.052536607 0.044965703 0.18173587
000230 59 ae 36 bd 07 09 44 3e fc 2c 9b bd 3f 5f d6 3c
       -0.044599865 0.19144069 -0.075769395 0.026168464
000240 6a 28 83 bd d5 c8 8d bd fa 7d 85 3d 72 1c e8 bd
       -0.06404193 -0.06923071 0.06518169 -0.113335505
000250 d7 32 ef 3c c4 c3 c7 3d f7 81 ee bd 50 aa 68 bd
       0.029199047 0.09754136 -0.116458826 -0.056803048
000260 af 4e 12 3e 39 82 7a bd 88 8a 51 3d b0 24 5b bd
       0.14287828 -0.061159346 0.051157504 -0.053501785
000270 95 2d ab bd dc e5 68 3d bb 63 23 bd c7 72 23 bd
       -0.083583035 0.056859836 -0.039890032 -0.039904382
000280 b3 40 9a bd 1a 87 3f bd f7 9d d4 3d 41 32 0e 3e
       -0.07531872 -0.046759702 0.10381692 0.13886358
000290 dd 3b ed 3c ff 14 45 be be bf 4d be f2 8d 82 bd
       0.02895921 -0.1924629 -0.20092675 -0.0637473
0002a0 00 11 30 be e0 c3 d3 bd be 09 0a 3d 38 6b c9 3d
       -0.17193985 -0.103400946 0.033700697 0.098349035
0002b0 15 27 d9 bd 66 3b 73 3d a5 e9 ab 3d 5f e2 3d bd
       -0.106031574 0.05938282 0.083941735 -0.046358462
0002c0 3c af 43 3d f6 0f e4 bc fb f8 65 3b 42 95 39 3d
       0.04777454 -0.027839642 0.003509103 0.04530836
0002d0 78 e2 89 ba 63 b5 e9 3b 14 ce c9 3d 37 ec 1a bd
       -0.0010519763 0.0071322187 0.098537594 -0.03782293
0002e0 6c 15 7b bd 68 23 3d 3d 76 fc f5 bc 17 1f a4 3d
       -0.061299726 0.046176344 -0.03002761 0.080137424
0002f0 48 10 90 bd 33 04 a9 bd 9f 36 14 3e 03 32 9f bd
       -0.070343554 -0.08252754 0.14473961 -0.07773211
000300 b2 b0 0a 3e 79 c2 2e 3c 72 8c 90 bc 10 68 27 3e
       0.13543966 0.010666483 -0.017645095 0.1634829
000310 ab fc e9 bd 67 a9 5a bc 20 6f cf ba 49 38 13 3c
       -0.11425146 -0.013346053 -0.0015825965 0.008985587
000320 8a 77 ce 3d 3c ce 6a 3c 9c 5f 85 bd 71 03 17 be
       0.10081394 0.014331397 -0.06512377 -0.14747407
000330 fb 2d ea bc 16 9a 98 bd 2f 24 1f 3c df 5d b7 bd
       -0.028586378 -0.074512646 0.009713217 -0.08953451
000340 3d 95 84 3c 82 e2 9e 3b 4c 78 a8 3c 7f 8d 57 3d
       0.016184444 0.004848779 0.020565175 0.052625176
000350 32 12 ee bc b6 c2 42 bb f5 e9 83 3d 66 1c f6 3d
       -0.02906141 -0.0029718108 0.06441108 0.12017135
000360 fe 9e e8 bc 96 b7 a3 3d b5 68 65 bd 59 6c 01 3b
       -0.028396126 0.079940006 -0.05600806 0.0019748418
000370 3f d9 a1 3d 86 e0 0c 3d 4f 9d 01 3e ad aa d2 3c
       0.079027645 0.03439381 0.12657665 0.02571615
000380 1f 56 b7 bc fa bc 41 bc a0 2c 05 3e 0e 74 df bb
       -0.022379933 -0.011824841 0.13005304 -0.0068192547
000390 52 4b fe 3c c4 0b 74 bd b0 33 d7 3c f5 b7 98 bd
       0.031041775 -0.059581533 0.026269764 -0.07456962
0003a0 57 62 72 bb 7a e9 42 3d 00 8b d2 3d 98 fa a7 3d
       -0.0036984885 0.04758594 0.102804184 0.08202094
0003b0 2a 14 ac 3d 34 46 a9 3d 3b f8 1e be c2 39 51 bd
       0.084022835 0.08265343 -0.1552438 -0.051080473
0003c0 3e f9 0d 3d 62 35 1f bd d4 b0 13 3d a3 12 94 bc
       0.034661524 -0.03886927 0.03605731 -0.018075293
0003d0 11 eb 01 be 7c 3a 38 3b 32 99 53 3d a1 46 30 bd
       -0.12687327 0.0028111031 0.05165977 -0.043036107
0003e0 7b fb bc 3c b3 e8 a8 3c 6a 88 4d bd 8c 57 ca 3b
       0.023069134 0.020618772 -0.050178923 0.006174987
0003f0 1f ea 68 be 6c 67 c1 bc 3e 89 57 bd 1b 0e 0e 3d
       -0.2274556 -0.023608886 -0.05262112 0.03468142

fc3.weight f4 [256, 256]
000000 a4 63 c2 3c 3c 21 be 3c 73 2d cd bd a8 24 4c bd
       0.023729153 0.023209207 -0.100184344 -0.049839646
000010 1d dc 26 bc a4 ee 50 bd cf 8b d9 3c 1c 81 c5 bd
       -0.010184315 -0.051008835 0.026555924 -0.09643766
000020 89 0b 39 bd 75 12 53 bd 7c 7d e4 bd 56 f2 60 3c
       -0.045177016 -0.051531274 -0.11156747 0.013729652
000030 02 38 58 bc 71 8d 58 bd 5b ec b7 3d 99 5c 8a 3c
       -0.013196947 -0.052869264 0.08980628 0.016889857
000040 3d b7 20 3c 47 98 f6 bc 7f bf d5 bd 46 6a 10 be
       0.009809312 -0.030101908 -0.104369156 -0.1410304
000050 21 67 67 3d 7d 8d b5 bc 3c a7 72 3d 9b a7 b4 3c
       0.056494836 -0.022162193 0.05924152 0.022052577
000060 ec 32 87 3c 6e 58 78 3c fd 90 93 3d b8 f8 53 bd
       0.016503774 0.015157802 0.07205389 -0.05175087
000070 84 bf 4f 3c 29 a6 15 bc 86 5a 5e 3b c1 64 e3 3c
       0.012679938 -0.009133854 0.0033928468 0.027758004
000080 54 33 31 3c d8 ec 3b bd 8a c7 ec 3b 0c 50 dd bd
       0.01081546 -0.04588017 0.0072259353 -0.10806283
000090 47 27 f8 3c 68 67 99 3c 2b 4c 5a bc 1a 35 f8 bc
       0.030292166 0.018726066 -0.013323824 -0.030298758
0000a0 e2 98 08 3c 11 4d fb bc ba 99 91 3b 7b 9c 2f bd
       0.008337231 -0.030676397 0.0044433745 -0.04287384
0000b0 25 7e 36 bd 41 7d bc 3c b6 da 52 bd 8c 17 4d 3d
       -0.044553895 0.023008944 -0.05147811 0.050071284
0000c0 65 7e 52 bc 5a 2f 52 3d 14 f9 22 3d da 52 91 3d
       -0.012847518 0.05131469 0.03978832 0.07095881
0000d0 30 55 2d be 5a b3 2d 3b fe 27 46 3d 59 27 da 3c
       -0.16927028 0.0026504607 0.048377983 0.02663009
0000e0 42 19 e0 bc 45 b2 20 3d b0 a0 8b bc 7e 69 fb bc
       -0.027355794 0.03923251 -0.017044395 -0.030689951
0000f0 7c 39 05 3e 35 66 06 be 93 07 58 3d e8 b5 39 3d
       0.1301021 -0.13124926 0.0527416 0.045339495
000100 1c e5 a2 bd de 47 1f 3b 22 4f 18 bd 46 32 1a 3b
       -0.079538554 0.002430431 -0.037184842 0.00235285
000110 3c e3 95 bd 89 66 03 bd d4 fa 04 bd 25 53 4e 3d
       -0.07318732 -0.032080207 -0.03246577 0.05037226
000120 1a 55 46 bc 75 f9 df 3c 3f 79 1c 3c c2 af 36 bd
       -0.012105251 0.02734063 0.009550392 -0.04460121
000130 c2 ba 59 bd 0b ea 90 3c 6a b8 21 3d 63 91 92 3d
       -0.05315662 0.017689725 0.03948251 0.071566366
000140 16 07 f5 bc 83 98 ab 3d 90 07 67 bd 8b 96 0d 3d
       -0.029910605 0.08378699 -0.056403697 0.034567397
000150 e7 7d 3f be 81 2a 7e bb 8d ab 68 3d 36 b4 a4 bd
       -0.18700372 -0.0038782659 0.05680423 -0.08042185
000160 47 a5 9e 3c 14 44 76 bc de 17 ea 3c a7 51 a2 3c
       0.01936592 -0.0150308795 0.028575834 0.019814325
000170 a5 ce 89 bd c0 b1 0b bd a1 ec b9 3b 1a 4b 2a bd
       -0.067288674 -0.034105062 0.0056739603 -0.04157553
000180 03 89 05 3a ee 03 52 bd 8e 98 13 3d 45 cf 06 bd
       0.00050939637 -0.05127328 0.03603416 -0.03291251
000190 cd 5b 5b bd 14 88 90 bc f5 f9 62 3d d2 b9 fc bd
       -0.053554345 -0.017643012 0.05541416 -0.1234013
0001a0 b1 20 b5 bb ff 79 06 bd bb 6d 30 3a ba bd dc 3c
       -0.0055275788 -0.03283119 0.00067302183 0.026945937
0001b0 1c bb f1 3d 2b 4a 63 3c c3 7b 70 bd 2c aa 01 bd
       0.118032664 0.0138726635 -0.05871178 -0.03165643
0001c0 e0 9a 0d bc 49 56 d1 3c 1d cd 83 bd 50 30 56 3c
       -0.008642882 0.02555384 -0.06435607 0.013073042
0001d0 b1 2a 67 bd c0 f6 92 3c 5c d0 e7 bd 27 81 fd 3c
       -0.056437198 0.017939925 -0.11319038 0.030945374
0001e0 d2 82 d1 39 01 68 6f bd 4f ee 21 bd f1 2e c1 bc
       0.00039961055 -0.058448795 -0.03953391 -0.023581954
0001f0 3d 49 80 be 39 96 98 bd 56 75 34 3d 8d 9f 4b bd
       -0.25055876 -0.07450528 0.044057213 -0.049712706
000200 60 3b c1 3b da be ab 3c 5a 44 88 3a 2d 5e b6 bd
       0.0058969706 0.020965029 0.0010396347 -0.08904681
000210 86 68 0b 3d bf df 5b 3c 2c 75 27 3c 15 c6 c2 3b
       0.03403523 0.013420044 0.010220807 0.0059440234
000220 61 bc 03 bd 9a 67 e7 bc e1 ce 99 bd 61 c1 57 3d
       -0.032162074 -0.028247643 -0.07510162 0.052674655
000230 dc ef 34 b8 ff f0 30 be 60 af 83 bd 5a 0a 2c 3d
       -4.313873e-05 -0.17279433 -0.064299345 0.04200206
000240 2d 28 17 3c cf bb fa bc f0 8e 5d 3c 8a 6c 45 3c
       0.009225887 -0.030607132 0.0135228485 0.0120498035
000250 b5 8d 80 3c 5a 70 96 bc 95 2a 8e bd c2 f2 99 3c
       0.015692571 -0.01836412 -0.06941716 0.018792514
000260 e3 1b 45 3d 65 32 67 bd 25 f6 b3 bd ce 68 87 3c
       0.048122298 -0.056444544 -0.08787183 0.016529467
000270 ef b1 1b bd f3 b0 72 3d ab 60 7c 3b 06 9e 5e bd
       -0.038011488 0.059250783 0.0038509767 -0.05434992
000280 8a 59 4b bd 03 1e 46 bd 76 85 01 bd 7e 2b 61 bc
       -0.049645938 -0.048368465 -0.03162142 -0.0137432795
000290 2d 90 38 bd 3f ce ec 3c 22 07 44 be e8 cb 42 3d
       -0.04505937 0.02890694 -0.19143346 0.04755774
0002a0 37 69 a8 bd be ec 9d 3d 1a fe f7 bd fb 61 d7 3c
       -0.08223193 0.077111706 -0.12109013 0.026291838
0002b0 41 46 32 bc c7 2c c2 3d 0c bd 9d bc 36 ef a5 3c
       -0.010881008 0.09481197 -0.019255184 0.020255666
0002c0 3a f3 a6 3c 6f b2 b0 bd d3 99 e0 3c f1 05 0f bd
       0.020379651 -0.086277835 0.0274171 -0.034917776
0002d0 bb 45 1b bd d6 06 57 bd d9 c8 05 bd b9 97 73 bd
       -0.037908297 -0.052496754 -0.032662246 -0.059470866
0002e0 20 57 52 bd a3 15 c8 3a 5f 12 9c bd 9d e3 f4 bd
       -0.05135262 0.0015265237 -0.076206915 -0.11957476
0002f0 25 59 16 bd 75 b0 94 bd 30 c5 72 3d 11 49 02 3d
       -0.03670611 -0.07260219 0.059270084 0.031807963
000300 97 ba ea 3c e6 a7 4c 3d 66 04 26 3c d5 8f da bd
       0.028653426 0.049964808 0.010132885 -0.10671965
000310 a0 f2 27 bd 6a d2 dc 3c d5 e6 a8 3a 3a 7e 7a bd
       -0.04100287 0.026955802 0.0012886176 -0.061155535
000320 bc 31 9b bc f3 6b ae 3c 2e 1d bc bc 3d 89 24 be
       -0.018944614 0.021291709 -0.022963133 -0.16067977
000330 00 62 33 bd 83 42 b1 3d 08 cd 08 bd 67 26 11 be
       -0.043794632 0.08655264 -0.033398658 -0.14174806
000340 0e 9f be 3c 6c 14 46 3d 20 2e 6e 3c d4 0f bd ba
       0.023269203 0.04835932 0.014537364 -0.0014424273
000350 b0 51 1a 3d 0f 67 33 bd f9 a0 98 3d 38 81 70 3d
       0.03767556 -0.043799456 0.07452578 0.058716983
000360 16 dd 28 bd 15 36 d1 3c c0 e2 b7 3c e0 8f 0c bc
       -0.04122647 0.025538484 0.02244699 -0.008579224
000370 10 dc 01 3d 16 ea 26 3d d3 04 e1 3d 3d 88 68 3d
       0.03170401 0.040750585 0.10987248 0.056770552
000380 4b fc 0e be ac f7 8c bd 9e b9 a2 3d b6 01 50 bd
       -0.1396343 -0.06883177 0.0794556 -0.05078288
000390 ec e2 2d bd ac 1b f5 bd 6a 44 6a 3d 60 1f b9 3d
       -0.042452738 -0.119681686 0.05719415 0.090391874
0003a0 fc 2f 2f bd 15 f5 5a bc 7f 0d 29 bd 32 22 78 bd
       -0.04277037 -0.013364096 -0.041272637 -0.060579486
0003b0 18 22 c3 bd 85 95 89 bd 4f 00 4a bc 8b 6f ac bc
       -0.09527987 -0.06717972 -0.012329175 -0.021049282
0003c0 e1 b5 27 3d ca ca 20 bd 52 01 22 3e 57 a0 eb bb
       0.040944938 -0.039255895 0.15820816 -0.007190745
0003d0 5a c1 e3 bd c7 4c 37 bd 6c f7 c1 3d ab 9b 1a bc
       -0.11120863 -0.044750955 0.0947102 -0.009436528
0003e0 ac f0 df bc 73 a1 86 3b 16 f8 11 bd d5 d9 8e bc
       -0.027336441 0.0041086017 -0.035636984 -0.017437855
0003f0 2f 0b fe bd b4 5c d4 bc 40 c6 d5 bc dc 71 34 bd
       -0.12404477 -0.02592311 -0.02609551 -0.044053897

fc3.bias f4 [256]
000000 ce a1 08 3c eb 89 5e 3c 5f 0b d5 3c 0b 34 31 3d
       0.0083393585 0.013582687 0.026006399 0.043262523
000010 77 81 38 bc c3 4c 2c 3c 97 09 d8 3c 5c c2 ed bc
       -0.011261336 0.010516348 0.02637176 -0.029023342
000020 39 0f 96 3d 2c 29 37 bd 46 79 7e bc b2 0e 86 3c
       0.07327122 -0.044717 -0.0155318435 0.01636443
000030 ba 02 8c bd 2c d5 a1 3d b4 1a 11 3d 94 5c d8 bc
       -0.068364576 0.079019874 0.035425857 -0.026411332
000040 65 69 a2 bd 23 32 44 3c 5a e6 20 bb 75 f3 ab bd
       -0.07930259 0.011974844 -0.0024551363 -0.08396045
000050 64 f3 93 3d c5 aa 89 3c 9c 36 8c bd 25 21 da bc
       0.072241575 0.016805062 -0.068463534 -0.026627133
000060 5c 0d ac 3c 6d 8d 2a 3c ef 05 53 bc 34 6b d3 bc
       0.021002464 0.010409695 -0.012879833 -0.025807954
000070 12 42 81 ba b9 45 88 3d 54 a8 ec 3c 07 c0 be 3d
       -0.000986161 0.066539235 0.028888859 0.0931397
000080 b9 e4 60 3d b2 4d 7e bd ab 71 a0 bd f0 9c a1 bd
       0.054905627 -0.062085815 -0.078341804 -0.078912616
000090 bf 90 d0 3c 56 94 24 3d e6 1e 5c 3d d5 92 db bc
       0.025459645 0.040180527 0.053740405 -0.026803413
0000a0 5d 2e aa 3c 75 00 cd 37 07 44 8b 3d 44 01 ae bd
       0.02077406 2.4438117e-05 0.068000846 -0.08496335
0000b0 52 34 b5 3b b4 4c 3c 3d 53 54 79 3d af f6 2b 3c
       0.0055299187 0.045971587 0.060871433 0.010495826
0000c0 c3 ac 22 3d 5c 65 50 bd 39 6c b4 bc 71 ce ea 3c
       0.03971554 -0.050877914 -0.02202426 0.028662892
0000d0 d6 90 21 3c 9a 63 77 bd c3 27 8e bd 8f 36 01 3e
       0.009861192 -0.06039772 -0.06941178 0.12618469
0000e0 87 e0 bd 3d fb 85 b3 3d d1 27 9e 3c ac 81 ac 3c
       0.09271341 0.08765789 0.019306095 0.021057926
0000f0 33 a9 7d 3d ff 99 22 bc fe 5e 57 bc 5d 15 9e 3d
       0.06192894 -0.009924411 -0.0131452065 0.077189185
000100 9a e9 30 bd d7 d1 00 3d 3d 9c b9 3c c0 34 f4 3c
       -0.04319153 0.03145012 0.022657508 0.02981031
000110 fb e6 9a bd 32 93 42 3b 65 78 8d bd 09 98 69 bc
       -0.07563587 0.0029689786 -0.06907729 -0.014257439
000120 5f b0 86 3b 61 4e 37 bd d4 85 2f bd 32 3a 3d 3d
       0.0041103805 -0.044752482 -0.042852238 0.046198077
000130 be 66 b0 bd 75 3c 4f bc 9e 52 cf 3c 0d 2d bb 3d
       -0.086133465 -0.012648691 0.02530795 0.09139452
000140 fb 29 f6 3c 88 44 df bd 0e fb d4 3c 9f 2a 48 bc
       0.030049315 -0.10901743 0.025998618 -0.012217193
000150 06 76 4b 3d 12 5f 4f 3c 2c e1 8e 3d 6b 26 be 3c
       0.049673103 0.012656944 0.06976542 0.023211678
000160 e4 8a a1 3d 24 46 bc 3d 0e 70 82 3c 0e 8f d3 3d
       0.078878194 0.09193066 0.015922572 0.1033002
000170 28 de 4c 3d 46 4b f6 bc d0 31 40 3c dd 1b 99 3d
       0.050016552 -0.03006519 0.011730626 0.074760176
000180 ef 7d cd 3c 2e 84 74 bc 31 a3 00 bd 46 ca 58 3d
       0.025084464 -0.014924092 -0.03140563 0.052927278
000190 3c 07 0b 3d ba fe b9 bd 9a 66 de bc 7e 50 47 3d
       0.033942446 -0.09081788 -0.027148534 0.048660748
0001a0 56 00 46 3d 0a de 84 bd b8 0b 60 bd 46 55 25 3d
       0.048340164 -0.06487663 -0.054698676 0.040364526
0001b0 c9 c8 48 3d 20 af 5d bd f8 5a 3c 3d d5 8a b9 bd
       0.04901961 -0.05412209 0.045985192 -0.09059683
0001c0 98 6a b0 bd f4 5e 02 3d ce d1 96 3d ca 7d 4d bd
       -0.08614081 0.031828836 0.07364236 -0.05016879
0001d0 61 ce bf 3c 6a c3 95 3c d6 0c ac bb 1c c1 22 3d
       0.023413839 0.018281657 -0.0052505536 0.039734945
0001e0 26 25 e9 3d e9 02 75 3d 37 06 f3 3c 3d 7a 5a bd
       0.113840386 0.05981723 0.02966605 -0.05333923
0001f0 83 d1 ae bc 9a 4b d1 bc 9c 1f 3c 3c ad 5e c1 3d
       -0.021340137 -0.025548745 0.011482146 0.09441886
000200 a9 b5 bc 3d 9a 31 6a 3d 5e 13 86 3c b3 09 94 3c
       0.092143364 0.05717621 0.016366657 0.018071031
000210 b2 70 8c bd 77 6b ca bb 67 5c 1a 3d 0f f9 5d bd
       -0.068574324 -0.0061773616 0.037685778 -0.0541926
000220 22 9a c2 bc b8 b1 4d bc c1 f6 8e bd db d2 79 bd
       -0.023755137 -0.0125545785 -0.06980658 -0.060992103
000230 17 0d aa bc fb de 32 3d 6f bf d0 bc 29 8c 11 3d
       -0.020758195 0.043669682 -0.025481908 0.035534058
000240 13 50 1d 3d 23 43 9b bd 8e 2e 84 bd 8c 1d 44 bd
       0.038406443 -0.07581165 -0.06454192 -0.04787974
000250 3f 53 31 3d b7 57 bb bc c4 cb 08 3d 52 2c bc bd
       0.04329228 -0.022868974 0.03339745 -0.09188141
000260 60 cb 60 ba 21 0f 01 bc fe 2e bf bc bc 29 7e 3d
       -0.0008575227 -0.007877142 -0.023337837 0.06205152
000270 f4 48 94 bc 72 6d 40 3d 1c d8 63 3c 73 69 77 bb
       -0.018101193 0.046979375 0.013906505 -0.0037752062
000280 32 75 a9 3b 94 41 18 bd bc 08 d3 3c f7 c4 f3 bc
       0.0051714415 -0.037171915 0.025761 -0.029757006
000290 88 c6 b5 bb 78 ef 3c bd c6 5b af bd 3c dd ee 3a
       -0.0055473484 -0.046126813 -0.08562426 0.0018223892
0002a0 ab 0f ee bb e5 45 64 bc 12 1a 92 3d 5e 41 f7 3c
       -0.0072650514 -0.01393268 0.07133879 0.030182537
0002b0 8a 1e c2 bd e0 24 f7 bc 98 d4 6a bd cb 4d 92 bc
       -0.09478481 -0.03016895 -0.05733165 -0.01785936
0002c0 4b b7 b8 3c 2f 33 a4 3d ca 4a 85 3d af 35 c5 bc
       0.022548338 0.08017575 0.065084055 -0.02407345
0002d0 4b 26 0a 3b 85 a5 8d 3d 23 85 a7 bc d0 2c e8 bd
       0.0021079953 0.06916336 -0.020449227 -0.11336672
0002e0 ba bd a6 3c 27 29 12 3d 52 47 dc bc 54 1f bc b9
       0.02035414 0.035683777 -0.026889477 -0.00035881496
0002f0 be d4 cc bb 90 20 48 3d e0 5d 5b bd e4 76 bd bd
       -0.006250947 0.04885918 -0.053556323 -0.09251192
000300 73 5e 3e 3d e6 16 c1 bb a5 f2 85 3c 55 e0 69 bc
       0.046476793 -0.0058926223 0.016351053 -0.014274676
000310 a9 cc 5c bd 43 37 0e bd 8f ff 82 bc 8a 74 7e bd
       -0.053906117 -0.03472067 -0.015991 -0.06212286
000320 c8 a5 bb 3d ef f8 41 bd 82 29 c0 bc fa 72 ab 3c
       0.0916248 -0.047356542 -0.023457292 0.020928849
000330 23 60 8b bc 2a 7d 9c bd 3e bf 50 3c 0a 6d a8 bc
       -0.017013615 -0.07641061 0.012740908 -0.020559806
000340 47 ad b5 bc 10 d9 bd bd 72 f9 92 bc 35 d7 d3 bc
       -0.022177352 -0.09269917 -0.01794121 -0.025859455
000350 fc 76 89 bb 58 69 17 be d3 19 62 bd 14 09 11 3d
       -0.0041950922 -0.14786279 -0.05520041 0.03540905
000360 28 b5 e8 3d 9b c4 e3 bd ed 2b 5e 3d e8 f8 0e be
       0.11362678 -0.11121484 0.05424111 -0.13962138
000370 73 0b 4d bd f1 c1 05 3d b5 af 0c 3d 86 02 8a 3d
       -0.050059747 0.03265566 0.034347255 0.067387626
000380 10 78 2a bd 84 cc 06 3d 3b 5b f6 bc 0a ff 33 3d
       -0.041618407 0.032909885 -0.030072799 0.043944396
000390 b4 e7 ac bd e0 d7 87 3d 25 8a 4c 3d 7d 4b aa 3d
       -0.08442631 0.06632972 0.049936432 0.083151795
0003a0 d5 e8 d5 bd 87 f4 25 3d b5 0d e1 3b 13 1c 61 3d
       -0.104448 0.040516403 0.006868089 0.054958414
0003b0 bf 66 0c 3d 40 0e 94 3d d3 5f e1 3c 9d 00 72 bd
       0.034277674 0.072292805 0.027511513 -0.059082616
0003c0 03 fc 12 3d 0b 64 92 bd a9 e4 20 3d 84 2a 80 3d
       0.03588487 -0.07147988 0.039280567 0.06258109
0003d0 ed 2b 9f bd fc bf 71 3c dc a3 f5 bc 17 56 e6 3c
       -0.0777205 0.014755245 -0.02998536 0.028117223
0003e0 b6 03 a7 bd 92 3d 2d 3d e4 98 3d bd e4 18 b1 bc
       -0.08155005 0.042295046 -0.046288386 -0.021618314
0003f0 63 2b d0 bd 07 6c 33 bc 08 84 84 3d 07 91 2c bd
       -0.10164525 -0.010951049 0.064704955 -0.042130496

output.weight f4 [4, 256]
000000 6d 1b c1 bd cb 87 49 be 6d 5e c0 bd b6 2f a5 3e
       -0.09429059 -0.19680707 -0.0939301 0.32262963
000010 49 46 33 3d 80 89 74 3d a8 cc 53 3e c3 09 09 bd
       0.0437682 0.059701443 0.20683539 -0.033456575
000020 39 fa 5e bc 25 e7 9e 3e 85 19 7d 3d 67 25 92 be
       -0.013609462 0.31035724 0.061791915 -0.2854416
000030 ae b6 6b 3c 65 fd 00 bd e9 ae ff 3e 4a 38 d1 bc
       0.014386816 -0.031491656 0.49938133 -0.025539536
000040 7d a9 2f 3d e5 6e f2 bd 2d 95 13 3d 61 38 d5 bc
       0.042886246 -0.11837558 0.036030937 -0.02602786
000050 01 4f 90 3d 34 2d 17 3d c0 14 38 be 26 00 ff 3c
       0.07046319 0.036908343 -0.17976665 0.031128
000060 94 87 02 bf 0e 6d a0 bc 4b ae 1b 3e 84 b1 a9 bd
       -0.50988126 -0.019583251 0.15203206 -0.082858115
000070 bc 0d 8e bc a0 e2 90 3d fd 0e 32 bd 29 80 b8 3e
       -0.017340533 0.07074475 -0.043471325 0.36035278
000080 98 9e 06 3e 5d e5 a9 bd 60 83 5e bd ab 2a d7 3c
       0.13146436 -0.08295701 -0.054324508 0.026265463
000090 0a bb c0 3d 80 e1 bd 3c 19 19 8d bc da bc 1b 3e
       0.09410675 0.023178816 -0.017223882 0.1520876
0000a0 49 c5 17 3d 79 ee d2 be 71 5e 3d bc aa 60 6c bb
       0.03705338 -0.41197565 -0.011558161 -0.0036068358
0000b0 00 85 2e 3c 39 45 19 be 69 4a 6f 3c 26 ed b9 be
       0.010651827 -0.14967813 0.014605143 -0.36313742
0000c0 92 27 22 3d 99 0c b7 3c a4 83 31 3e ba b5 03 3d
       0.03958852 0.022344874 0.17335373 0.03215573
0000d0 d2 dc 92 bc 35 d2 7e 3e 2d 0c cc bd 4a 0f 63 3d
       -0.017927561 0.24884875 -0.0996326 0.055434503
0000e0 cc 81 f1 bc 72 7e 10 bd f5 07 1c 3d 5c b1 fa 3b
       -0.029480837 -0.035276838 0.038093526 0.0076505374
0000f0 15 8f 78 3c 80 46 32 bd 09 8d 16 bd 78 20 ef bc
       0.015170832 -0.043524265 -0.036755595 -0.029190287
000100 8e 16 5d bd 3a a2 9b 3e b5 90 d6 bd d1 69 20 3c
       -0.053976588 0.30397207 -0.104768194 0.009790854
000110 fe 0d 3a bc c0 55 60 bd c3 59 21 3d 28 34 a9 bd
       -0.011355875 -0.054769278 0.039392244 -0.08261901
000120 86 cf 6f 3c 19 21 fe 3c ba b2 9f 3d ce c5 de 3e
       0.01463688 0.031021642 0.07797761 0.43510288
000130 4f 91 dd 3e c6 da 6e be c7 19 88 bb 10 14 9a be
       0.43274924 -0.23325643 -0.0041534635 -0.3009343
000140 29 69 a3 3d 89 40 ba 3d e7 b7 93 bd c2 87 81 bd
       0.07979042 0.0909434 -0.07212811 -0.06324722
000150 46 02 73 3d af 7c a5 3e 39 71 1c 3c ad 23 1b bf
       0.05932834 0.3232169 0.009548479 -0.6060131
000160 bb c2 38 3d 44 87 5d 3e 72 11 e1 bd 69 94 96 3e
       0.045107584 0.21633631 -0.109896556 0.29410103
000170 cf 42 a8 3e 93 93 c9 3d db c6 0d 3d 66 f7 cf bc
       0.3286347 0.09842601 0.03461347 -0.025386523
000180 cb e9 4b be a1 83 e1 be d7 aa 61 3d 1e 43 12 3a
       -0.19913404 -0.44045737 0.055094566 0.0005579459
000190 97 a1 a7 3e 9a 65 89 bd fb 73 85 3e 28 50 79 bd
       0.3274047 -0.06708832 0.2606505 -0.06086746
0001a0 78 5b 7f bd 50 91 24 3c c7 ce 37 bd 53 46 6a 3e
       -0.06234309 0.010044411 -0.044874933 0.22878389
0001b0 c0 e9 e1 bd 5f 68 31 3d 14 ea 19 be ec 2b ea 3c
       -0.110309124 0.043312427 -0.150307 0.028585397
0001c0 1e ee e8 3d 60 e5 c6 3d 92 2c 9a 3c b5 15 63 bd
       0.11373542 0.097117186 0.01882008 -0.055440623
0001d0 c1 8c df bb 7a e9 31 3d 9f 8b 90 bd 12 29 40 bd
       -0.006822199 0.04343555 -0.070578806 -0.046914168
0001e0 5a 6c 97 bc 2c 4d 28 be 19 79 b2 bb 8b 77 ac 3c
       -0.018484283 -0.16435689 -0.005446565 0.021053096
0001f0 4e a0 ba 3d 47 80 15 3e e4 20 bf 3d fc 63 3f 3e
       0.09112607 0.14599715 0.09332445 0.18690485
000200 9a 6a ef bc 47 b0 b0 be 82 74 29 3b b5 75 6b bc
       -0.029225636 -0.3450949 0.0025856798 -0.014371325
000210 1e 6d d1 3d 8e 9d 9b 3e bf 19 e1 be 85 ab 91 bd
       0.102258906 0.30393642 -0.43964955 -0.07112793
000220 04 b4 06 3e 98 26 fb 3c c2 16 43 be 81 e9 da 3d
       0.13154608 0.030658051 -0.1905165 0.106890686
000230 43 06 02 bf 30 98 b8 3e 69 ea 20 3c 5a 50 ac bc
       -0.50790805 0.3605361 0.009821513 -0.021034408
000240 76 c9 2d 3d 80 8b f7 bd 7a 59 10 3e 55 63 42 3c
       0.042428456 -0.120871544 0.14096633 0.011864503
000250 ce a4 8f 3e cf 44 f6 3e 87 54 16 bd 69 3c a8 3e
       0.28055423 0.48099372 -0.036701705 0.3285859
000260 4a 3a 57 bb 7b f4 0f 3e c9 1b 6e bd 9e 57 7c be
       -0.003284114 0.14058106 -0.058131967 -0.24642798
000270 ed 02 a6 3e cd d0 67 bc 11 64 65 bd dd f7 be bc
       0.32424107 -0.014148903 -0.056003634 -0.02331155
000280 1a 1e 5d bc 92 0a 6b 3d df 71 40 3d aa c6 ba 3b
       -0.013495946 0.057383128 0.046983596 0.005699952
000290 36 b0 47 3d 2f 68 62 bd af bc 02 3e ce 16 fe bd
       0.048752032 -0.05527514 0.1276729 -0.124066934
0002a0 cf b0 7f bd 72 7c 10 bc 79 e2 80 bb db 27 41 3c
       -0.062424477 -0.008818733 -0.0039332476 0.011789287
0002b0 a6 b6 8d 3d 7a 9f ee bd 65 e6 86 3c b0 14 ad bd
       0.06919603 -0.116515115 0.016467283 -0.084512115
0002c0 91 de 7c bd 66 5a 98 3b 7c 50 17 3e f9 88 f4 bc
       -0.061735693 0.004649448 0.14776796 -0.02985047
0002d0 7c c1 37 3d 67 2b a1 3d 49 00 07 3d a1 b4 bd 3c
       0.044862255 0.078696065 0.032959256 0.02315742
0002e0 53 81 28 bc 0c ac 34 bd 33 d4 8f 3e 07 9c 7f bb
       -0.01028474 -0.04410939 0.28091583 -0.0039002912
0002f0 a2 0c ce 3d 0b 75 5e 3c 19 48 6a bc bb 73 9d 3e
       0.10061003 0.01357771 -0.014299416 0.30752358
000300 0f af 5d 3b 95 14 d3 3c 02 f5 b1 bc bd 03 20 bc
       0.0033826267 0.02576665 -0.021723274 -0.009766516
000310 7b ba a0 bd 46 fa 56 3c bb 9c 36 3e 41 a8 37 3d
       -0.07848068 0.013121193 0.17833225 0.044838194
000320 69 74 19 be e3 a2 2a 3d 0e 53 15 be 9c 9e 04 bd
       -0.14985813 0.041659247 -0.14582464 -0.032377824
000330 10 88 09 be 3d d6 3b bd 25 d1 50 bb f6 4c 21 bc
       -0.1343081 -0.04585861 -0.003186294 -0.009845009
000340 d8 d8 f0 bc 4b 0b 7a 3d 19 43 bc 3d 11 d1 7e bd
       -0.029400274 0.061045926 0.09192485 -0.0622111
000350 98 a8 c7 3e aa 7a ed 3d 0c ea 38 bd 3d 0f c4 bc
       0.38995814 0.11595662 -0.04514508 -0.023933047
000360 11 fb 87 3e 4d 85 8b 3d 59 fe c9 3e fa 4f 16 3e
       0.26558736 0.068125345 0.39451864 0.14678946
000370 e0 47 18 bb 93 de 1b be ce 6c 18 be f7 03 43 3e
       -0.00232362 -0.15221624 -0.14885256 0.19044481
000380 34 ba 40 3d e0 c4 4f 3d ea 3a 37 3c a7 c6 7b 3d
       0.047052577 0.050724864 0.01118348 0.061468747
000390 f0 62 86 bd 67 85 8c 3d 07 bb 50 3d b7 67 9e bc
       -0.065618396 0.06861382 0.050959613 -0.019336564
0003a0 cb e2 73 bd 97 cc 9c 3b b2 ef 11 bd 5f 39 4e 3b
       -0.05954246 0.004785131 -0.035628982 0.0031467301
0003b0 6a 01 b4 3d 39 25 3a 3d ca f2 ef ba 9d f8 85 bd
       0.08789332 0.045445655 -0.001830661 -0.0654156
0003c0 f1 c2 fa bd ed d3 40 3d cc bb f4 3d 72 ae eb 3b
       -0.12244213 0.04707711 0.11949882 0.0071924264
0003d0 63 ac b7 3b f5 cd 27 3f d5 fe 9b 3c 28 ea 98 be
       0.005605267 0.6554864 0.019042412 -0.29866147
0003e0 d7 3c f1 bd 05 87 9c bc 86 ab fa 3d 71 66 d7 bd
       -0.117791824 -0.019107351 0.12239747 -0.10517586
0003f0 4a ec 99 bd c8 10 8a 3c af 71 09 bb 7f 08 bc bc
       -0.07515772 0.016853705 -0.0020972302 -0.02295327

output.bias f4 [4]
000000 a8 7a 28 3c 30 6b 8c bb 84 55 9c 3b 96 f7 d9 3b
       0.01028315 -0.0042852387 0.0047709364 0.006651829
