DDPG-HER/Pre-trained models/FetchPickAndPlace-v2.pth (torch, 563793 bytes, 8 tensors)

fc1.weight f4 [256, 28]
0	0xbe140ef8	-0.14458835
1	0x3b862143	0.0040933206
2	0xbc5116c0	-0.012761772
3	0xbe91354a	-0.2836097
4	0x3d596b89	0.05308107
5	0x3eea4d6b	0.4576219
6	0xbf0af0ed	-0.54273874
7	0x3ee7b504	0.4525529
8	0xbb8626fe	-0.0040940037
9	0xbdcd68a0	-0.10029721
10	0xbe71f475	-0.23628409
11	0x3d3c3f8e	0.045959048
12	0x3d5380f6	0.05163666
13	0x3b91a1d4	0.0044443402
14	0xbd5a48b2	-0.053291984
15	0x3d750b25	0.05982508
16	0xbe31948e	-0.17341825
17	0xbd7258e5	-0.059166808
18	0xbdcca7bc	-0.0999293
19	0xbd845870	-0.064621806
20	0x39b547b9	0.00034576448
21	0xbd786f67	-0.060653117
22	0xbdfc15a3	-0.123088144
23	0xbd6a50e1	-0.05720604
24	0xbd4a98b3	-0.04946203
25	0x3e6b6bcb	0.22990339
26	0x3cb0694d	0.021534586
27	0xc0925cba	-4.573819
28	0xbe949e96	-0.2902724
29	0x3e4f58d3	0.20248728
30	0xbe51b171	-0.20477845
31	0x3eb70484	0.35745633
32	0x3d70118d	0.058610488
33	0x3f84ee8c	1.0385299
34	0x3eef2f54	0.46715796
35	0x3e0fda2f	0.14048074
36	0x3f0edd0f	0.5580606
37	0xbe9df8e0	-0.3085394
38	0xbeaa80cf	-0.33301398
39	0xbd447043	-0.047958624
40	0xbe07e7dc	-0.13272041
41	0x3e3eff49	0.18652071
42	0x3f06f4cd	0.52717286
43	0xbe724d93	-0.23662405
44	0x3f528a4a	0.8224226
45	0x3d7458dd	0.05965506
46	0xbe6d7272	-0.23188189
47	0x3ddcfba5	0.10790185
48	0x3f3fe2e7	0.749556
49	0xbe8cfba4	-0.27535737
50	0x3f45b702	0.7723237
51	0x3c60c59f	0.013718992
52	0xbe973a01	-0.2953644
53	0x3d97a367	0.074042134
54	0xbe279ce1	-0.16368438
55	0xbfd2a83d	-1.6457592
56	0x3dff9d6a	0.12481196
57	0x3ca49853	0.020092165
58	0x3e778fe0	0.24175978
59	0xbc91c333	-0.017793274
60	0x3e6b3b9f	0.22971962
61	0x3fc7cb46	1.5608909
62	0xbf409cad	-0.7523907
63	0x3f028436	0.5098299
64	0x3f94abc6	1.1614921
65	0xbe1655ff	-0.14681242
66	0xbe02606f	-0.12732099
67	0x3c604c55	0.013690074
68	0x3ca9f65c	0.020747356
69	0xbdb107be	-0.08644055
70	0xbd9806a1	-0.07423139
71	0x3ded01a1	0.11572576
72	0x3f00f599	0.5037475
73	0xbc0deee7	-0.008662916
74	0x3dbb23ea	0.091377094
75	0x3d4f2ba0	0.050578713
76	0x3cb8f8f3	0.022579646
77	0x3c99f89c	0.018795304
78	0x3ecd9ad1	0.40157178
79	0xbdfaceef	-0.12246501
80	0xbe082dda	-0.13298741
81	0xbda0403a	-0.0782475
82	0xbeb2f405	-0.34951797
83	0xbfce4b7a	-1.6116784
84	0xbd5d6d7a	-0.054059483
85	0x3f7f125d	0.99637395
86	0x3d2b9e06	0.04189875
87	0xbeb9f44e	-0.36319202
88	0x3ff365b1	1.9015409
89	0xbf5773df	-0.8416118
90	0xbe3abe70	-0.18236709
91	0x3f5913c9	0.84795815
92	0xbe193c2b	-0.14964359
93	0xbc6d029e	-0.014465956
94	0x3d79fc34	0.061031535
95	0xbd7af68c	-0.06127028
96	0xbc9110d2	-0.017708216
97	0x3d0fc2f6	0.03509804
98	0xbcdad892	-0.026714597
99	0x3e672a8f	0.22574829
100	0xbd405d30	-0.04696387
101	0x3d0cb33e	0.034350626
102	0xba04f85e	-0.000507241
103	0xbc43abc6	-0.011942809
104	0x3ba89a4a	0.005145346
105	0x3e888b61	0.26668838
106	0xbdb720a5	-0.08941773
107	0x3d8a1872	0.06742944
108	0xbbcf3461	-0.0063233827
109	0x3ecdf734	0.40227664
110	0xc03e8011	-2.9765666
111	0xbd34b07c	-0.04411362
112	0xbdbfb3ee	-0.09360491
113	0xbee236aa	-0.4418233
114	0x3eb2ebf0	0.3494563
115	0xbf2ff886	-0.6873859
116	0x3c27bb22	0.010237487
117	0x3ec0e71c	0.37676322
118	0xbfaf9635	-1.3717715
119	0x3ec6b5f6	0.388107
120	0x3e3e12ee	0.18561909
121	0x3e9f4203	0.3110505
122	0x3f0eb57d	0.5574568
123	0x3cca58ef	0.02470061
124	0xba349646	-0.00068888476
125	0x3d51fc4d	0.051266003
126	0xbf3d6275	-0.7397836
127	0xbdf17c07	-0.117912345
128	0x3e515935	0.20444186
129	0xbdf7b52e	-0.12095104
130	0x3d034c2c	0.032055065
131	0xbbf8c1c4	-0.007591458
132	0xbf728174	-0.9472878
133	0xbd44d746	-0.048056863
134	0x3ce6bc44	0.028165944
135	0xbdb426e8	-0.08796483
136	0xbe03164a	-0.12801471
137	0x3f775523	0.96614283
138	0x3ea3d690	0.31999636
139	0xbefd489f	-0.49469468
140	0xbf57761d	-0.841646
141	0x3e939338	0.28823256
142	0x3e4334f7	0.19063173
143	0x3f628db0	0.8849745
144	0xbc97cb16	-0.018529456
145	0x3dc9e597	0.09858244
146	0x4043520d	3.051883
147	0xbf2c4c04	-0.6730349
148	0x3cf475c6	0.029841315
149	0xbc402e83	-0.011729839
150	0xbe4e7755	-0.20162709
151	0xbd69ad58	-0.05705008
152	0x3ca66a25	0.020314286
153	0x3e471774	0.1944254
154	0x3e45f6e3	0.19332461
155	0x3e0259c7	0.1272956
156	0x3ddd5929	0.108080216
157	0x3a7f84fa	0.0009747293
158	0x3e2e5cb7	0.17027555
159	0xbdbd91ee	-0.092563495
160	0x3e188cf2	0.14897516
161	0x3c4c9073	0.012485611
162	0x3d37a9f6	0.04483982
163	0xbede0849	-0.43365696
164	0xbede9f93	-0.4348112
165	0xbde41002	-0.11135866
166	0xbe39c159	-0.18140163
167	0xbedbc51f	-0.4292383
168	0xbf306924	-0.6891043
169	0x3efc8d13	0.4932638
170	0x3f1f6b73	0.6227333
171	0xbf95ce12	-1.1703513
172	0x3f5ca562	0.86189854
173	0x3f78b9c4	0.97158456
174	0xbf9908d9	-1.1955825
175	0x3e76622c	0.24060887
176	0x3f32c70e	0.69834983
177	0xbcc1091c	-0.023563914
178	0xbced5069	-0.028969007
179	0xbc736f8e	-0.01485814
180	0x3c42d96c	0.011892658
181	0x3d1c43bd	0.038150538
182	0xbe42ae32	-0.19011763
183	0x3d6fe0d1	0.05856401
184	0x3e92675a	0.28594476
185	0x3cd5f574	0.026118018
186	0xbccd616e	-0.025070872
187	0xbca76d40	-0.020437837
188	0xbe36b0da	-0.17840901
189	0x3d5f1827	0.054466393
190	0x3e2cabdc	0.16862434
191	0x3bd18f5a	0.0063952627
192	0x3bb64ba2	0.0055632154
193	0x3fe955bd	1.822929
194	0xbfb3b276	-1.4038837
195	0xc0102670	-2.252346
196	0x3c068a44	0.008211676
197	0xbd04a800	-0.03238678
198	0xbdf2f8cf	-0.11863863
199	0xbdb5daca	-0.08879621
200	0xbe3cebae	-0.1844928
201	0x3e533ff1	0.2062986
202	0xbf1e2a22	-0.6178304
203	0xbf3e47ba	-0.74328196
204	0x3c10ed18	0.00884559
205	0x3e8812fd	0.26576987
206	0x3c859bf4	0.016309716
207	0xbd9ab77f	-0.0755453
208	0x3c3a8b7a	0.011385793
209	0x3b57f444	0.003295199
210	0xbf468103	-0.77540606
211	0xbeab9c17	-0.33517525
212	0x3f0ea897	0.55726
213	0x3caefddd	0.021361286
214	0x3e4d9a30	0.20078349
215	0xbd8b594d	-0.06804142
216	0xbf57a7e8	-0.8424058
217	0xbeb76ead	-0.35826626
218	0x3f0bb21e	0.5456866
219	0xbe21c40b	-0.1579744
220	0x3c569053	0.013095933
221	0xba73e705	-0.0009304139
222	0x3e2e6548	0.17030823
223	0xbe560337	-0.20899664
224	0xbf0a8f8f	-0.54125303
225	0xbf9d597b	-1.2292932
226	0xbe27a3de	-0.16371104
227	0x3efea251	0.49733213
228	0x3f38298c	0.71938396
229	0x3eb88a87	0.36043188
230	0x3fc38a5c	1.5276599
231	0x3ff1e77a	1.8898766
232	0x3df83f91	0.12121499
233	0xbe825d9e	-0.2546205
234	0xbebccfe7	-0.36877367
235	0xbd79a4da	-0.06094823
236	0xbe5adb26	-0.21372661
237	0xbdc85c8e	-0.097832784
238	0x3e832850	0.25616693
239	0xbe7103be	-0.23536584
240	0xbe5c1bcd	-0.2149498
241	0x3df1ded8	0.11810082
242	0x3ee997a1	0.45623496
243	0x3d87602c	0.0661014
244	0x3c48012b	0.01220731
245	0xbe0bac0b	-0.13639848
246	0xbe413843	-0.18869118
247	0xbdcded12	-0.10054983
248	0x3e1c80aa	0.15283456
249	0x3ec5617e	0.38550943
250	0x3d40de47	0.04708698
251	0x3dde9b70	0.10869491
252	0x3eea8500	0.45804596
253	0x3e8ac72d	0.27105084
254	0xbf06f6f8	-0.52720594
255	0xbdd9baf9	-0.10631365

fc1.bias f4 [256]
0	0xbf8df01c	-1.10889
1	0xbfe0e91b	-1.7571138
2	0xbf51f58e	-0.8201531
3	0xbf5e4854	-0.86829114
4	0xc01d826f	-2.461086
5	0xbfdb9ba1	-1.7156869
6	0xbf5c0d2b	-0.8595759
7	0xbf9e7f22	-1.2382548
8	0xc02a1a97	-2.657873
9	0xc0151982	-2.3296819
10	0xc06804e6	-3.625299
11	0xc01c55de	-2.442741
12	0xbfd18458	-1.6368513
13	0xc0600500	-3.5003052
14	0xc0713cf1	-3.7693446
15	0xc037130d	-2.8605378
16	0xc007f900	-2.1245728
17	0xbfdee2e6	-1.7412994
18	0xbfcdc767	-1.6076478
19	0xc085854a	-4.1725206
20	0xc00658ef	-2.099178
21	0xc065ab30	-3.5885735
22	0xbf7f20e2	-0.9965955
23	0xc07f7230	-3.9913445
24	0xbf52ac47	-0.82294124
25	0xbfb362a7	-1.4014481
26	0xc0029888	-2.0405598
27	0x3ea267f2	0.3171993
28	0xc049eb81	-3.154999
29	0xc095b165	-4.6779046
30	0xbfd6e284	-1.6787877
31	0xc01ec7c5	-2.480943
32	0xbf6aafa8	-0.9167428
33	0xbf04c2b5	-0.518596
34	0xbfc11d98	-1.5087156
35	0xbfe03352	-1.7515662
36	0xbfd1785f	-1.6364859
37	0xc0561418	-3.3449764
38	0xc06488d1	-3.5708506
39	0xc05780fa	-3.367247
40	0xc006a0a3	-2.1035545
41	0xc062cec8	-3.543871
42	0xbf06ee00	-0.5270691
43	0xbfe4ce82	-1.7875521
44	0xc06d0200	-3.703247
45	0xc021b862	-2.5268788
46	0xc008a1c5	-2.1348736
47	0xbfcf4a70	-1.6194592
48	0xbe329c37	-0.17442404
49	0xc02234ad	-2.534465
50	0xc02cdc54	-2.7009478
51	0xbf70e5d6	-0.941007
52	0xc01327e6	-2.2993102
53	0xc08502e0	-4.156601
54	0xc089c46b	-4.305227
55	0xc01a6ad5	-2.4127705
56	0xbff5b5af	-1.919607
57	0xbfdd00cb	-1.7265867
58	0xbff0d06b	-1.8813604
59	0xbf653aa8	-0.8954263
60	0x3f3edaa4	0.7455237
61	0xc039732d	-2.8976548
62	0xc063f92b	-3.562083
63	0xc03584c8	-2.8362293
64	0xc04e99dc	-3.2281408
65	0xc02bdf07	-2.6854875
66	0xc00d6cd0	-2.2097664
67	0xbff64aa2	-1.9241526
68	0xbf6c4b09	-0.92301995
69	0xc0613c63	-3.5193107
70	0xc07859fb	-3.880492
71	0x3f9cd70f	1.2253131
72	0xc0748e10	-3.8211708
73	0xc0804adb	-4.0091376
74	0xbfe1f663	-1.7653316
75	0xbfcce742	-1.6008074
76	0x3f329798	0.69762564
77	0xc0a7e285	-5.2464013
78	0xc048a2cd	-3.1349366
79	0xbec64770	-0.38726377
80	0xbf7a3ad1	-0.97745997
81	0xbfc7403f	-1.5566481
82	0xbfb0ca3d	-1.3811718
83	0xc02d7dd4	-2.710805
84	0xc0336935	-2.8032963
85	0xc00c64db	-2.1936557
86	0xc028ddd6	-2.6385398
87	0x3ba16981	0.004925907
88	0xc0515a24	-3.2711267
89	0x3e04f36a	0.1298348
90	0xbfc1bc64	-1.5135617
91	0xc0809247	-4.017856
92	0xbfda381e	-1.7048376
93	0xc07e61bf	-3.974716
94	0xbe625271	-0.22101761
95	0xc0329260	-2.790184
96	0xc045ea5e	-3.0924296
97	0xbde30178	-0.110842645
98	0xc063e68d	-3.5609467
99	0x3f2b1a96	0.6683744
100	0xc0346c6e	-2.819118
101	0xc022ae6b	-2.5418956
102	0xbed7a823	-0.42120466
103	0xc0564519	-3.3479674
104	0xc004800a	-2.070315
105	0xc04f8f4e	-3.2431216
106	0xc0779aa9	-3.8688147
107	0xc01995dd	-2.399772
108	0x3ed64a6b	0.4185365
109	0xc034bb20	-2.8239212
110	0xc0496512	-3.1467938
111	0xbacf05bc	-0.0015794556
112	0xc062fb15	-3.5465748
113	0xc05ce9e3	-3.4517753
114	0xc08289e6	-4.0793333
115	0xc04303a4	-3.0470972
116	0xc04b9a38	-3.1812878
117	0xc04733f5	-3.1125462
118	0xc05f55a2	-3.4896016
119	0xc027e7be	-2.6235194
120	0xc02eeaf7	-2.733091
121	0xbfce6ef8	-1.6127615
122	0xc00c0d9d	-2.188331
123	0xbec622d8	-0.3869846
124	0xbfd2ca5f	-1.6468009
125	0xbf089092	-0.53345597
126	0xc08a50a1	-4.3223424
127	0xc07afb1b	-3.9215763
128	0xbef446bd	-0.4771022
129	0xc0438efb	-3.0556018
130	0xbfec2d7f	-1.8451384
131	0xc084be54	-4.1482334
132	0xc025db8b	-2.5915248
133	0x3f726d43	0.9469797
134	0xc028944d	-2.6340516
135	0xc0a9a831	-5.301781
136	0xc003294f	-2.0493963
137	0xbf5fea9b	-0.87467355
138	0xc0092918	-2.1431332
139	0xc057ceb7	-3.3719919
140	0xc00cf7f9	-2.202635
141	0xc010af6f	-2.2607076
142	0x3f93a694	1.1535211
143	0xbfe9de61	-1.827099
144	0xbfa30d29	-1.2738391
145	0xbfb4bc55	-1.4119974
146	0xc08564e9	-4.168568
147	0xbe6233f9	-0.22090138
148	0xbef3a5bc	-0.47587383
149	0xc0237e93	-2.5546005
150	0xbfdcb849	-1.7243739
151	0xc05e6f8a	-3.4755578
152	0xc027e06d	-2.6230729
153	0xc07fda3b	-3.9976947
154	0xc06583b2	-3.586163
155	0xc08b849e	-4.3599386
156	0xbff87f6b	-1.9413885
157	0xc033fdf3	-2.8123748
158	0xc03c21c5	-2.9395611
159	0xc00da787	-2.21335
160	0xc08665fe	-4.19995
161	0xbe0f6e55	-0.14006932
162	0xbffc1b14	-1.9695764
163	0x3fe9eaee	1.827482
164	0xc0045abd	-2.0680382
165	0xc02fc574	-2.7464266
166	0xbfb4390c	-1.4079909
167	0xc0498785	-3.1488965
168	0xbfd82334	-1.6885743
169	0xc08031b8	-4.006069
170	0xc07bb2ab	-3.93278
171	0xbf71c58b	-0.9444205
172	0xbfde0260	-1.7344475
173	0xc08e3fc5	-4.4452844
174	0xc054d54a	-3.3255181
175	0xbecc63b6	-0.39919823
176	0x3ea67207	0.3250887
177	0xbf9ee7fa	-1.2414544
178	0xbf38fc3f	-0.72259897
179	0xc026061e	-2.5941234
180	0xc0892a7c	-4.286436
181	0x3e932737	0.28740856
182	0x3e761d3b	0.24034588
183	0xbff15251	-1.8853246
184	0xbeabfc8d	-0.33591118
185	0xc027122a	-2.6104836
186	0xbf2a0944	-0.6642039
187	0xc039f34c	-2.9054747
188	0x3f8f0303	1.1172794
189	0xc03f2589	-2.986666
190	0xbd42ecca	-0.0475891
191	0xbff30bc9	-1.8987972
192	0xc05beec7	-3.4364488
193	0xbfa1875f	-1.2619437
194	0xc012e66e	-2.2953143
195	0xc070f295	-3.764806
196	0xbe864ce0	-0.26230526
197	0xbf652fa5	-0.89525825
198	0xbfb72458	-1.4307966
199	0xc00b77a7	-2.179178
200	0xc08124c5	-4.0357385
201	0xc06029eb	-3.5025585
202	0xc0362679	-2.8460982
203	0xc08ef14e	-4.466956
204	0xbf8eb74a	-1.1149685
205	0xbf938f20	-1.1528053
206	0xc0570ad9	-3.360037
207	0xc0242900	-2.5650024
208	0xbfbaf3a1	-1.46056
209	0xbf9b4afb	-1.2132257
210	0xc0864549	-4.1959577
211	0xbf8577b3	-1.0427154
212	0xc04c46cc	-3.191821
213	0xc072cb9f	-3.793678
214	0xbfbae38e	-1.4600694
215	0xc012d140	-2.2940216
216	0xc02c4d30	-2.6922112
217	0xc033ec33	-2.8112915
218	0xc087577e	-4.22943
219	0xc0698889	-3.6489584
220	0xc05e099f	-3.4693372
221	0x3f85ea8b	1.0462202
222	0xc04d85e2	-3.2112966
223	0xbfc6573a	-1.549537
224	0x3f462dd6	0.7741369
225	0xc0812c23	-4.036638
226	0xc08d903f	-4.423858
227	0xc01aaba3	-2.4167259
228	0x3f22ec9e	0.636423
229	0xbe02aa36	-0.12760243
230	0xbfe11be6	-1.7586639
231	0xc041c4bc	-3.0276327
232	0xbff75a69	-1.9324466
233	0xc098433b	-4.758207
234	0xbf53abae	-0.8268384
235	0xc05e33e1	-3.4719164
236	0xc07caa04	-3.947877
237	0xc03e764f	-2.975971
238	0xc045d803	-3.0913093
239	0xbfbbb202	-1.4663699
240	0xc03c6b65	-2.9440548
241	0xc04a9a92	-3.1656842
242	0xbf7184af	-0.94343084
243	0xc03cd20a	-2.9503198
244	0xbf95c0ea	-1.1699498
245	0xc01c189a	-2.4390016
246	0xbe1a590f	-0.15073036
247	0xbf83b3d0	-1.028925
248	0xc026ec5e	-2.6081767
249	0xc02e4223	-2.7227867
250	0xbf2b3436	-0.6687654
251	0xc05a3697	-3.409582
252	0xbfb943b6	-1.4473789
253	0xbf83c378	-1.0294027
254	0xc0377fe0	-2.8671799
255	0x3f13d65e	0.57748973

fc2.weight f4 [256, 256]
0	0xbbe78479	-0.0070653525
1	0xbd1c5a6e	-0.038172178
2	0xbc6013ad	-0.013676566
3	0xbd7eb0c5	-0.0621803
4	0x3d0ee06e	0.034882
5	0x3ce4159a	0.027842332
6	0x3c302151	0.010750131
7	0x3ce37ae8	0.027768567
8	0x3cb905cc	0.022585772
9	0xbdb84d43	-0.089991115
10	0xbdbc8aa0	-0.09206128
11	0x3d32659d	0.043553937
12	0xbbc089dd	-0.0058758096
13	0xbdc71795	-0.09721295
14	0x3da41706	0.08012204
15	0xbd39a2f2	-0.045321412
16	0x3b70e2e0	0.0036756322
17	0x3bbed659	0.005823892
18	0xbc793bea	-0.0152120385
19	0x3cee53d5	0.029092709
20	0x3d269410	0.040668547
21	0xbe02fa74	-0.12790853
22	0xbd95c345	-0.07312635
23	0xbc004f7d	-0.0078314515
24	0xbb94dd54	-0.004542986
25	0xbda562a5	-0.080754556
26	0xbc323961	-0.010877938
27	0x3da5b37e	0.08090876
28	0xbd913dd3	-0.0709187
29	0xbd9aa172	-0.075503245
30	0xbba68356	-0.0050815744
31	0xbdb8c079	-0.09021086
32	0xbd16489d	-0.036690343
33	0xbd8bc9f5	-0.068256296
34	0xbd017280	-0.031603336
35	0xba5e0b4b	-0.0008470311
36	0x3d65a200	0.0560627
37	0xbd696aec	-0.056986734
38	0xbbcb7dc3	-0.0062100603
39	0xbdd34e13	-0.10317626
40	0x3c8ce796	0.017200273
41	0x3ab8a164	0.0014086184
42	0xbbd3ebd6	-0.006467323
43	0x3d802a72	0.06258096
44	0xbd83ff61	-0.06445194
45	0xbd9ae62f	-0.07563435
46	0xbd6dd29b	-0.058062177
47	0xbd1b7da9	-0.037961636
48	0xbd1574cf	-0.03648835
49	0xbb6e4e99	-0.0036362766
50	0xbd98fd97	-0.074702434
51	0xbd85539a	-0.06510086
52	0x3d2ff8a8	0.042961746
53	0x3ca5cc9e	0.02023917
54	0xbd5c78b9	-0.053826068
55	0x3ca5d293	0.020242011
56	0xbcdb0fe3	-0.026740974
57	0x3c267f31	0.010162161
58	0x3c1da389	0.009621509
59	0x3b8ab670	0.004233174
60	0xbd67aff6	-0.056564294
61	0xbd204433	-0.03912754
62	0x3d3653d4	0.04451354
63	0x3ce53b77	0.027982457
64	0x3c0eb4c6	0.008710092
65	0x3c353164	0.011059139
66	0xbc8b9c3f	-0.017042277
67	0xbe026792	-0.12734821
68	0x3cd180a8	0.025574043
69	0x3c784c1a	0.015154863
70	0x3c752916	0.014963409
71	0xbd3b9e59	-0.04580531
72	0xbd95d0a6	-0.07315187
73	0xbc8205bb	-0.015871873
74	0x3c34ff4e	0.0110471975
75	0x3c02e9e8	0.007990338
76	0xbdd83bde	-0.10558294
77	0x3ceb3006	0.028709423
78	0xbd084fb0	-0.03327912
79	0xbd0c9fab	-0.03433196
80	0xbd0e84eb	-0.03479473
81	0x3c70d393	0.014698881
82	0xbdbc2ad4	-0.09187856
83	0xbd95dbfc	-0.07317349
84	0xbdd0d886	-0.101975486
85	0xbcfbd6f9	-0.030742155
86	0xbc8dbd54	-0.017302193
87	0x3b27ba75	0.0025593315
88	0x3cc8032d	0.024415577
89	0xbd3bf59e	-0.045888536
90	0xbd8671bc	-0.06564662
91	0xbd8ab78b	-0.06773289
92	0x3c789943	0.015173259
93	0xbc0728c7	-0.008249468
94	0xbbb9db21	-0.005671874
95	0xbda39747	-0.07987838
96	0xbcb42124	-0.021988459
97	0xbbcab891	-0.006186553
98	0xbdc7c544	-0.09754422
99	0xbda4b716	-0.08042733
100	0xbcc9e434	-0.024644949
101	0x3d58c4e7	0.052922156
102	0xbc1f7882	-0.009733321
103	0xbc09e40a	-0.008416185
104	0xbcee17d2	-0.029064093
105	0x3c8c1a7a	0.017102469
106	0xbcd8de59	-0.026473211
107	0xbd4de44c	-0.05026655
108	0xbbdeb5a7	-0.006796557
109	0xbd5ea7e0	-0.054359317
110	0xbd8522ea	-0.065008
111	0xbdc1bdbc	-0.09460017
112	0xbb9937f6	-0.0046758605
113	0xbd585712	-0.05281741
114	0xbd921b27	-0.07134085
115	0x3c4c64cc	0.012475204
116	0x3c9e9ac3	0.019360906
117	0xbda2c1ed	-0.07947145
118	0x3b3b1345	0.002854542
119	0xbd8f94ea	-0.07010825
120	0xbd0e9903	-0.034813892
121	0xbb90b456	-0.004416029
122	0xbd88a590	-0.066722035
123	0xbd8484b9	-0.06470627
124	0x3c3e0d07	0.011599786
125	0xbc2a02b0	-0.010376617
126	0xbdd3d91c	-0.10344145
127	0xbdaad6b2	-0.08341731
128	0xbd7deded	-0.06199448
129	0xbc906dfd	-0.017630571
130	0xbd19cd69	-0.03754941
131	0xbd4245d0	-0.04742986
132	0x3d1796f9	0.037009213
133	0x3c917c82	0.017759565
134	0xbda7c015	-0.081909336
135	0x3ac04daf	0.0014671589
136	0xbd8c1586	-0.06840043
137	0xbd0beed3	-0.034163307
138	0xbcb12919	-0.021626042
139	0x3c1bfa54	0.009520132
140	0xbdb7db5e	-0.08977388
141	0xbc3383b0	-0.01095669
142	0xbd90e32e	-0.07074581
143	0xbda0aa11	-0.078449376
144	0xbd82f62a	-0.06394608
145	0xbd2c15c8	-0.04201296
146	0x3cfc0065	0.030761907
147	0xbcf221b4	-0.029557087
148	0x3ce36765	0.027759263
149	0x3d72273f	0.05911946
150	0x3ca2beac	0.01986631
151	0x3d2b5a61	0.04183424
152	0x3ca352ab	0.01993688
153	0xbd3ca042	-0.04605127
154	0xbd6cfe7f	-0.057859894
155	0xbd2153f8	-0.03938672
156	0xbd304908	-0.043038398
157	0xbdcb5cbf	-0.09929799
158	0x3d220bae	0.03956192
159	0xbd504d3f	-0.050854918
160	0x3ce4652c	0.027880274
161	0xbbf7405a	-0.007545513
162	0xbc09005c	-0.008361902
163	0x3b865e75	0.0041006156
164	0xbd163914	-0.036675528
165	0xbd606ae4	-0.05478944
166	0x3c747a06	0.014921671
167	0x3d485b4d	0.048915196
168	0xbca830f0	-0.020531148
169	0xbd9a067f	-0.0752077
170	0x3ce382c6	0.027772319
171	0xbdbbd0d8	-0.09170693
172	0xbd36f330	-0.044665515
173	0xbd9978f2	-0.074937716
174	0x3d2807dc	0.04102312
175	0xbb3faab9	-0.0029246046
176	0x3d8db7a2	0.06919791
177	0xbd906303	-0.07050135
178	0x3d1f0fa2	0.038833268
179	0xbd78bdcc	-0.06072788
180	0xbc87c0bd	-0.016571397
181	0xbcdfdd18	-0.027327105
182	0xbdd3be7c	-0.103390664
183	0xbdaea925	-0.085283555
184	0xbd397e8e	-0.045286708
185	0xbd197281	-0.037462715
186	0xbcdde52d	-0.027086819
187	0xbca9c4b9	-0.020723687
188	0xbdbe0831	-0.09278906
189	0x3d3ea5d3	0.04654486
190	0xbd935d9b	-0.07195588
191	0xbd153fdf	-0.036437865
192	0xbda03d6d	-0.07824216
193	0x3c413926	0.01179341
194	0x3d47083c	0.048591837
195	0xbd5d948c	-0.054096743
196	0x3d1fb62b	0.03899209
197	0xbd4eb5f1	-0.05046648
198	0xbe03c94b	-0.12869756
199	0xbd7f1de2	-0.062284358
200	0xbbae4370	-0.005318098
201	0x3c9d29ca	0.019184966
202	0x3c586a7a	0.01320898
203	0xbc2bf1b8	-0.010494642
204	0xbb397515	-0.0028298546
205	0x3b07b89a	0.0020709396
206	0xbcd16c99	-0.025564479
207	0x3b93984f	0.0045042406
208	0xbdc2cb9f	-0.09511494
209	0x3d1104ce	0.035404973
210	0xbd17f8b4	-0.037102416
211	0xbd942350	-0.07233298
212	0x3bedbb74	0.007255012
213	0x3c7230ca	0.01478214
214	0xbd394e61	-0.045240764
215	0xbc591a49	-0.013250896
216	0x3c704afd	0.014666316
217	0x3d182c90	0.037151873
218	0xbd3b7b27	-0.045771744
219	0x3c823847	0.015895976
220	0xbd9328e4	-0.07185534
221	0xbd97e9f0	-0.07417667
222	0xbd9ea4e3	-0.077462934
223	0xbdeadea4	-0.114682466
224	0xbd9a1036	-0.07522623
225	0xbbb46552	-0.0055052424
226	0xbe02786e	-0.12741253
227	0xbd7966dd	-0.060889114
228	0xbd5c47b4	-0.05377932
229	0xbdaaf2d4	-0.08347097
230	0xbd9305b0	-0.07178819
231	0xbca4880b	-0.020084402
232	0xbdace30f	-0.084417455
233	0xbdb240c5	-0.0870376
234	0x3c2237fa	0.009901041
235	0xbd8c4eec	-0.06850991
236	0xba8f2de9	-0.0010923716
237	0xbc7be00e	-0.015373243
238	0xbc9e40cc	-0.019318007
239	0x3dc09ea1	0.09405256
240	0xbd5c7649	-0.053823743
241	0xbda7c7ed	-0.0819243
242	0xbdd9a6e8	-0.10627538
243	0xbdd083b8	-0.10181373
244	0xbd414709	-0.047186885
245	0xbcf7ff86	-0.03027321
246	0x3c936d35	0.01799641
247	0xbd28868e	-0.041143946
248	0xbddda8f1	-0.10823239
249	0x3be5ed43	0.007016809
250	0x3cffd5d3	0.031229889
251	0x3af2b514	0.00185171
252	0xbd60d3fb	-0.05488966
253	0xbd9711fb	-0.073764764
254	0x3d4f70f7	0.05064484
255	0xbd507675	-0.05089422

fc2.bias f4 [256]
0	0xbdf2e6d4	-0.11860433
1	0xbe0e04a8	-0.13868964
2	0x3f4bf4a3	0.7967016
3	0xbd62d660	-0.055380225
4	0xbdf4e2fe	-0.11957358
5	0xbd5a5695	-0.053305227
6	0xbf3af05c	-0.7302301
7	0x3f685e49	0.9076887
8	0xbdc2d06d	-0.0951241
9	0x3ed61eb1	0.4182029
10	0xbd3ca0c7	-0.046051767
11	0x400370cf	2.0537603
12	0x3fca0668	1.5783205
13	0xc01bd54f	-2.4348943
14	0x3eac7705	0.33684555
15	0x3f85c8e2	1.045193
16	0x3c9907a5	0.018680403
17	0xc01bf3ae	-2.436748
18	0x3fac2b1d	1.3450657
19	0x3eb60aed	0.3555521
20	0x3f8fd474	1.123671
21	0xbdd1891d	-0.102312304
22	0x3e385eac	0.18004864
23	0x3f8e69ff	1.1126097
24	0x3f54be68	0.83103037
25	0xbd92897d	-0.0715513
26	0xbe2861a9	-0.16443504
27	0xbf58440c	-0.8447883
28	0xbc56a7ad	-0.0131015
29	0xbe0400f8	-0.12890995
30	0xbf8bf9e7	-1.0935639
31	0xbe278ef4	-0.16363126
32	0x3da0e097	0.07855337
33	0xbd946c39	-0.07247204
34	0x3ffd4107	1.978547
35	0xbfc335a6	-1.5250747
36	0xbe80ed5d	-0.25181094
37	0x3fa77b47	1.3084496
38	0xbdfaec77	-0.12252133
39	0xbc01ed49	-0.007930108
40	0xbda33ad4	-0.07970205
41	0xbd69a091	-0.057037894
42	0xbf42b46d	-0.7605656
43	0xbcdde9f2	-0.027089093
44	0xbc955b9a	-0.018232156
45	0x3d3fd7c5	0.046836633
46	0xbfe59f30	-1.7939205
47	0xbe86eaf4	-0.2635113
48	0xbd283c42	-0.04107309
49	0xbf7ead5f	-0.99483293
50	0xbee57b72	-0.44820744
51	0x3fc1317f	1.509323
52	0xbd27525c	-0.04085003
53	0x3a2a17da	0.00064885395
54	0xbf1b8632	-0.6075164
55	0x3f6d76f3	0.9275963
56	0xbed8e963	-0.4236556
57	0x3f46a2a1	0.775919
58	0x3fd31efd	1.6493832
59	0xbfcff264	-1.6245847
60	0xc0318f0a	-2.7743554
61	0x3f92d0b7	1.1469945
62	0xbf13fd16	-0.57808053
63	0x3f9b2a9c	1.2122378
64	0xbd9ecbc8	-0.07753712
65	0x3c4fe7ec	0.012689572
66	0x3d4103c9	0.04712275
67	0x3f19c877	0.6007151
68	0x3f0b9403	0.5452272
69	0xbf99b77b	-1.2009119
70	0xc09330e1	-4.5997167
71	0x400a19ff	2.1578367
72	0x3f861c08	1.0477304
73	0xbfa22e34	-1.267035
74	0xbe23404b	-0.15942495
75	0x3e2a3b73	0.1662424
76	0xbddabf66	-0.106810376
77	0xbe92db87	-0.2868311
78	0xbfd85cfd	-1.6903378
79	0x3f01c2b8	0.5068774
80	0xbe28410e	-0.16431066
81	0x3ff3b7cd	1.9040467
82	0x3f12cf7c	0.57347846
83	0xbf8080bc	-1.0039287
84	0x3f9a4773	1.2053055
85	0xbed5b77a	-0.41741544
86	0xbecc029b	-0.39845738
87	0xc01cbd7f	-2.449066
88	0xbfb42e0e	-1.4076555
89	0x3e744bec	0.23857087
90	0xc023ccfb	-2.559386
91	0x3f6ec364	0.9326689
92	0x3ea139c4	0.31489384
93	0x3fd7b3c8	1.685174
94	0xbcbc6b64	-0.023000427
95	0x3eebaeb5	0.46031728
96	0xbdc54cbf	-0.09633779
97	0xbf82b6b3	-1.0212005
98	0x3d9e5854	0.07731691
99	0x3ec2bcfc	0.3803481
100	0xbfbf0d0a	-1.4925854
101	0xbd8257b5	-0.06364385
102	0xbcbd07b3	-0.02307496
103	0xbe426192	-0.18982533
104	0xbeed09d9	-0.46296576
105	0xbef2f5f7	-0.4745328
106	0xbf09b6ba	-0.53794444
107	0xbde9c1eb	-0.1141394
108	0xbf69f14b	-0.9138381
109	0xbee4e3c4	-0.4470502
110	0xbf2a2c0a	-0.6647345
111	0x3feda330	1.8565426
112	0xbfe73006	-1.806153
113	0x3ee14bb9	0.44003084
114	0xbd1c700c	-0.038192794
115	0x4009fef7	2.1561868
116	0xbc812aaa	-0.015767414
117	0xc0748a09	-3.820925
118	0xbd727532	-0.059193797
119	0xbd72a642	-0.059240587
120	0x40186384	2.381074
121	0xbe16b668	-0.1471802
122	0xbd4db724	-0.050223485
123	0x3fd93410	1.6969013
124	0xbedc0c0c	-0.4297794
125	0x401c6f48	2.444292
126	0xbdd5fc2c	-0.104484886
127	0xbfe0631d	-1.7530247
128	0xbd5ae411	-0.053440157
129	0x3f3919a5	0.72304755
130	0xbed6a759	-0.4192455
131	0xbf5c1437	-0.85968345
132	0xc039b2a8	-2.9015293
133	0xbd9d6a63	-0.07686307
134	0x3efa75d1	0.48918012
135	0x3f78864d	0.97079927
136	0x3f12ce43	0.5734598
137	0xbd8bf231	-0.06833304
138	0xbc9fa024	-0.01948554
139	0x3d715133	0.05891533
140	0x401ca4fe	2.4475703
141	0x3fafa764	1.3722959
142	0x3ec79ff6	0.38989228
143	0x3f6f2623	0.93417567
144	0xbe0446c1	-0.12917615
145	0xbdc0012e	-0.09375225
146	0x3fbc7f93	1.4726433
147	0xbddbc08d	-0.107300855
148	0xbeadb083	-0.3392373
149	0xbf81d248	-1.0142298
150	0xbf9791d5	-1.184138
151	0x3f9a6f00	1.2065125
152	0x3b7344f1	0.003711995
153	0x3f7da1fd	0.990753
154	0xbe89c905	-0.26911178
155	0xbf7790db	-0.96705407
156	0xbd009011	-0.031387392
157	0x3e73dcef	0.23814748
158	0xbf23fea1	-0.6406041
159	0x3e78e9ca	0.24307933
160	0xbdd8f94f	-0.10594427
161	0xbdefc8f8	-0.117082536
162	0x3caa99e4	0.020825334
163	0xbf3e7bd4	-0.74407697
164	0xbfa90e44	-1.3207479
165	0xbef3dc5c	-0.47629058
166	0xbda2a262	-0.07941128
167	0xbe3007c0	-0.17190456
168	0xbede1eb3	-0.43382797
169	0xbd3dd01d	-0.04634105
170	0x3f22603b	0.63428086
171	0x3ea687f0	0.32525587
172	0xbf0b1660	-0.54331017
173	0xbe898ac0	-0.2686367
174	0xbdcbfcde	-0.0996034
175	0xbe761f2f	-0.24035333
176	0xbfef4d6a	-1.86955
177	0xc01475ea	-2.319697
178	0xbdad7a0c	-0.08470544
179	0x3e9a7f79	0.3017538
180	0x3f977a1f	1.1834143
181	0x3efdf707	0.4960253
182	0xbff1f01d	-1.8901402
183	0x3fab6bde	1.3392293
184	0xbf749b1a	-0.95549166
185	0xbdd1c674	-0.1024293
186	0xbe22f9f3	-0.1591566
187	0x3fb99bd2	1.4500678
188	0xbde3eaf5	-0.11128799
189	0xbf21e315	-0.63237125
190	0xbc87527e	-0.016518828
191	0xc01a4647	-2.4105394
192	0xbd28b616	-0.041189276
193	0x3f51fd79	0.82027394
194	0xbf5a5f27	-0.8530144
195	0xbd761bea	-0.060085215
196	0xbdcc1c14	-0.09966293
197	0xbf8bc363	-1.0919002
198	0xbe9f15a8	-0.3107121
199	0x3f9caaff	1.2239684
200	0x3f3184bc	0.6934316
201	0xbc03cae7	-0.008043981
202	0xbdddfbde	-0.108390555
203	0x3f780ee2	0.9689771
204	0xbfbc0ede	-1.4692037
205	0xbe0a5114	-0.13507491
206	0xbeb25527	-0.3483059
207	0x3e6b3830	0.22970653
208	0xbe2ce064	-0.16882473
209	0xbda1b78e	-0.078963384
210	0xbcff3b63	-0.031156247
211	0xbdb91e31	-0.09038962
212	0xbc01e9af	-0.00792925
213	0xbda334bc	-0.07969043
214	0xbbc1db1e	-0.0059160134
215	0xbf82c021	-1.0214883
216	0xbdbe7dd7	-0.09301346
217	0xbd4b41c4	-0.049623266
218	0xbdc6a8a2	-0.09700133
219	0xbee45b77	-0.44601032
220	0xbd67642d	-0.05649202
221	0xbd96be86	-0.07360558
222	0xbf483c11	-0.78216654
223	0xbcd9e403	-0.026597982
224	0xbfa41c0a	-1.2821057
225	0x3f5c9b7e	0.8617476
226	0xbf2414cd	-0.6409424
227	0xbe0e1566	-0.1387535
228	0xbdb3edc4	-0.087855846
229	0xc01c1982	-2.4390569
230	0x3e7fdf84	0.24987608
231	0xbf890f99	-1.0707885
232	0x3e6ccde5	0.23125418
233	0x3e1e2bb5	0.1544636
234	0xbd65a90f	-0.05606943
235	0xbced3a0c	-0.028958343
236	0xbf094686	-0.53623235
237	0xbc2764d9	-0.010216915
238	0x3efc5f25	0.4929134
239	0xbe0658c4	-0.13119799
240	0x3f2bc4fd	0.67097455
241	0xbdaa493b	-0.08314749
242	0xbd1eb2f2	-0.038744874
243	0x3f30c2ef	0.69047445
244	0x3e8579bb	0.26069435
245	0xbe913fd7	-0.28369018
246	0xbd7d9ed6	-0.061919056
247	0xbdb496db	-0.08817836
248	0x3f3c3250	0.7351427
249	0xbbb65cd5	-0.0055652657
250	0x3ea187f9	0.3154905
251	0xbf56a028	-0.8383813
252	0xbdf9e4b0	-0.12201822
253	0xc01f5a31	-2.4898798
254	0x400502ad	2.0782883
255	0x3f8c5113	1.0962242

fc3.weight f4 [256, 256]
0	0x3cd26867	0.025684549
1	0x3d3b35d7	0.045705643
2	0xbdb75463	-0.08951642
3	0xbd4fbeb4	-0.050718978
4	0x3c9d1685	0.019175777
5	0xbb8ed468	-0.004358817
6	0x3e632864	0.22183377
7	0xbf1d03f3	-0.6133415
8	0xbd2df53a	-0.042470194
9	0xbea92e8e	-0.3304333
10	0xbe21338e	-0.15742323
11	0xbebd6bc1	-0.36996272
12	0x3f2f20dc	0.68409514
13	0xbe20b573	-0.15694217
14	0x3ce30ffb	0.027717581
15	0x3d7a8642	0.061163194
16	0xbcca9144	-0.024727471
17	0xbf4d5796	-0.8021177
18	0xbe0bd5b9	-0.13655747
19	0xbe346577	-0.17616831
20	0x3e73f943	0.23825555
21	0x3d3964d7	0.045262184
22	0xbdfcb49e	-0.123391375
23	0xbd51eb83	-0.051249992
24	0xbcc1fa8e	-0.023679044
25	0x3cd32b0e	0.025777366
26	0xbec53d7e	-0.38523477
27	0x3ee865a9	0.4539006
28	0xbd650c3f	-0.055919882
29	0xbae45556	-0.0017420452
30	0xbf1e2b7f	-0.6178512
31	0xbdc8fa42	-0.09813358
32	0xbd93f3d6	-0.072242424
33	0xbd7c5948	-0.061608583
34	0xc037e393	-2.873265
35	0x3ec1f7b2	0.3788429
36	0xbe5c39c5	-0.21506412
37	0x3e604a4b	0.2190334
38	0x3ed1fef8	0.41014838
39	0xbd4a3ba8	-0.0493733
40	0x3d42d465	0.047565836
41	0xbd3c2cb7	-0.04594108
42	0xbf18da9f	-0.5970859
43	0xbd1b2759	-0.03787932
44	0xbcd70197	-0.026245875
45	0xbccee8de	-0.025257524
46	0xbe5e0a14	-0.21683532
47	0xbe838b83	-0.25692376
48	0x3d4af152	0.049546547
49	0x3f08de3b	0.53464097
50	0xbe596a47	-0.21231948
51	0xbe4094b9	-0.18806733
52	0x3cb6eb59	0.02232902
53	0x3d0597c6	0.032615446
54	0xbeff8437	-0.4990556
55	0xbe57dcf6	-0.21080384
56	0x3bc940e0	0.006141767
57	0xbe280c34	-0.16410905
58	0x3eb5d03c	0.35510433
59	0xbdf0b7a0	-0.11753774
60	0xbeba109f	-0.36340806
61	0x3ee74ea0	0.45177174
62	0x3e83854a	0.2568763
63	0x3e553e2f	0.20824502
64	0xbdc30713	-0.09522834
65	0xbbe15f4d	-0.006877816
66	0xbe00155b	-0.12508146
67	0x3e8fdadc	0.28096664
68	0x3d03e25a	0.032198288
69	0xbebaddb6	-0.36497277
70	0xbf493871	-0.7860175
71	0xbf7bcc72	-0.98358834
72	0x3d9477ec	0.07249436
73	0xbe9a0995	-0.30085436
74	0x3e6cb593	0.2311614
75	0xbf3d6d12	-0.73994553
76	0x3c22aba8	0.009928621
77	0xbd0b4867	-0.034004595
78	0xbefbe53f	-0.49198338
79	0xbe8033b0	-0.25039434
80	0xbefd2ad6	-0.49446744
81	0x3e28e3df	0.16493176
82	0x3edc1d4e	0.42991108
83	0xbebf0471	-0.37308076
84	0xbe2f40a3	-0.171145
85	0x3e94594c	0.28974378
86	0xbdd2d955	-0.10295359
87	0xbf0e2344	-0.5552256
88	0xbfd68869	-1.6760379
89	0xba986742	-0.0011627453
90	0xbee9b72b	-0.4564756
91	0xbeaec21f	-0.34132478
92	0xbd3773e8	-0.04478827
93	0x3ddb80d5	0.10717932
94	0x3c252a2f	0.010080858
95	0x3dd99350	0.10623801
96	0xbbad749b	-0.0052934415
97	0x3dff0857	0.124527626
98	0xbd74157d	-0.059590805
99	0x3ec4ef4d	0.38463822
100	0xbeae519f	-0.34046647
101	0xbf8ab179	-1.083541
102	0xbb721f28	-0.003694484
103	0xbe679122	-0.22613958
104	0xbe14ebb0	-0.14543033
105	0xbecc7c2b	-0.39938483
106	0xbf0d5cb9	-0.5521961
107	0xbd34b00c	-0.044113204
108	0xbf15b29a	-0.5847565
109	0xbe1775d0	-0.14791036
110	0x3d356e0c	0.044294402
111	0x3d55a884	0.052162662
112	0xbe14a145	-0.14514644
113	0xbdbb5d3f	-0.09148645
114	0x3d319b57	0.043361034
115	0x3e100b2a	0.14066759
116	0xbc268f61	-0.01016602
117	0xbfb6fc6a	-1.4295781
118	0x3c856812	0.016284976
119	0x3d0ca74c	0.034339234
120	0xbed0b0bb	-0.40759835
121	0xba71c49b	-0.0009222717
122	0x3ca89343	0.020578032
123	0x3e1f394b	0.155492
124	0x3e6f44e0	0.23366117
125	0x3abe7885	0.0014531767
126	0x3d34f861	0.044182185
127	0xbf80e8d7	-1.0071057
128	0xbbb92b31	-0.005650901
129	0x3eb05672	0.34440953
130	0xbea945be	-0.33061022
131	0x3eeb90d2	0.46008927
132	0xbf9ac7e2	-1.2092249
133	0xbda0acb7	-0.07845443
134	0xbe464010	-0.19360375
135	0x3e046736	0.12929997
136	0x3cd2e2cd	0.025742913
137	0x3c860ebb	0.016364446
138	0xbd5a8e0a	-0.053358115
139	0x3d7d2085	0.06179859
140	0xbd803b6f	-0.06261336
141	0x3f16eb7b	0.58953065
142	0x3e75b738	0.23995674
143	0xbd09e253	-0.033663105
144	0x3ca11434	0.019662954
145	0xbf404a49	-0.7511335
146	0xbd8fe3c0	-0.07025862
147	0xbcc40dd7	-0.02393238
148	0xbeabb03e	-0.335329
149	0xbda74d82	-0.0816908
150	0x3e0204a6	0.12697086
151	0xbfaca815	-1.3488795
152	0xbdbf14cf	-0.09330141
153	0xbdbff397	-0.09372633
154	0xbf144482	-0.57917035
155	0x3e2da4c4	0.16957384
156	0xbec78607	-0.38969442
157	0x3e848c76	0.25888413
158	0xc052dc9a	-3.2947145
159	0x3e4e45bb	0.20143788
160	0x3b2f688a	0.002676519
161	0xbd0575b7	-0.032582965
162	0xbd8c6845	-0.06855825
163	0xbfa45d40	-1.2840958
164	0xbf89c0f3	-1.0762008
165	0xbf6d2d7b	-0.9264752
166	0xbeba6527	-0.36405298
167	0xbd442701	-0.04788876
168	0xbdb0708a	-0.08615215
169	0xbf419d34	-0.756305
170	0xbf393d42	-0.72359097
171	0xbf21728a	-0.630654
172	0xbf1ad75e	-0.60484874
173	0xbe8623ea	-0.26199275
174	0xbfea1f5c	-1.829082
175	0xbe35afe1	-0.17742874
176	0xbbdbc39c	-0.006706668
177	0xbe940c52	-0.2891565
178	0xbc4abcdd	-0.01237413
179	0x3e344794	0.1760543
180	0xbd52c2ec	-0.051455423
181	0xbe01eda1	-0.12688304
182	0xbe39d1cf	-0.18146442
183	0xbe620070	-0.2207048
184	0xbf02976b	-0.51012295
185	0x3c9870f4	0.018608548
186	0xbec974af	-0.39346835
187	0xbf4f7ea3	-0.8105261
188	0xbd2c7a41	-0.042108778
189	0xbe60eb65	-0.21964796
190	0x3d53fec5	0.05175664
191	0x3d2aabd5	0.041667778
192	0x3d32b80b	0.04363255
193	0xbdbf7d36	-0.09350054
194	0xbecab6a0	-0.39592457
195	0x39b7f406	0.00035086292
196	0x3a95f109	0.0011439632
197	0xbe3ea0f4	-0.18616086
198	0xbd02b962	-0.031915076
199	0xbde538c3	-0.11192467
200	0xbdb3f632	-0.087871924
201	0xbb47b8a6	-0.003047505
202	0xbd849560	-0.064738035
203	0x3ab0c6b1	0.0013486949
204	0x3e844f3b	0.25841698
205	0xbaaaf2a9	-0.0013042289
206	0xbeb38ca6	-0.35068244
207	0x3dced5ce	0.10099374
208	0xbf44e5f6	-0.7691339
209	0x3d8c5eac	0.06853995
210	0x3c01ebbc	0.007929739
211	0xbd8a9fec	-0.06768784
212	0x3e43051e	0.19044921
213	0xbd2e6835	-0.04257985
214	0xbd8a4f05	-0.06753353
215	0xbf295261	-0.66141325
216	0xbd518f88	-0.051162273
217	0x3d0aca9e	0.033884637
218	0xbcd680dc	-0.026184492
219	0x3f4a4e10	0.79025364
220	0xbfe8f81a	-1.8200715
221	0x3c52746e	0.012845142
222	0x3d0bdc8c	0.034145877
223	0x3d365805	0.044517536
224	0x3d04448b	0.03229193
225	0xbd95eabd	-0.073201634
226	0x3e1ba571	0.1519983
227	0xbd803353	-0.06259789
228	0x3daceb1d	0.08443282
229	0xbe97c746	-0.2964422
230	0x3d14ffc7	0.03637674
231	0xbf76b32f	-0.9636716
232	0xbd19c700	-0.037543297
233	0xbe14938c	-0.1450941
234	0xbd9c44c5	-0.07630304
235	0xbd5f2b17	-0.054484453
236	0x3dec9870	0.11552513
237	0xbd61e5d0	-0.055150807
238	0x3f9bacbc	1.2162089
239	0x3c94d113	0.0181661
240	0xbcde9b6a	-0.027173717
241	0xbd5aa32c	-0.05337827
242	0x3d19e938	0.03757593
243	0x3e03769f	0.12838219
244	0x3c7c023e	0.015381394
245	0xbe9ddbce	-0.3083176
246	0xbbd18649	-0.006394182
247	0x3db500b0	0.08838022
248	0x3f35234e	0.70756996
249	0x3ca88b3f	0.02057421
250	0xbc7d0d8d	-0.015445125
251	0xbbe7d6b5	-0.0070751556
252	0xbd06e5d5	-0.03293403
253	0x3bc6dbee	0.006068698
254	0x3df23f14	0.118284374
255	0xbe8389de	-0.25691122

fc3.bias f4 [256]
0	0xbfd84697	-1.6896542
1	0xbee99b34	-0.45626223
2	0x3f12b46a	0.5730654
3	0xbf2d1c52	-0.6762134
4	0xbf0a2d3c	-0.5397527
5	0xbcc027dd	-0.023456508
6	0xbe9537f7	-0.2914426
7	0x3f3170e9	0.6931291
8	0xbf1b783c	-0.6073034
9	0x3e8c6ee3	0.2742835
10	0xbfaed65b	-1.3659166
11	0xbf229eaf	-0.6352338
12	0xbff22c65	-1.8919798
13	0xbecbed1f	-0.39829347
14	0xbeccb476	-0.3998143
15	0xbe59c380	-0.21265984
16	0xbed1f130	-0.41004324
17	0xbea5a366	-0.32351226
18	0x3f63eaea	0.89030325
19	0x3d55721c	0.052110776
20	0xbefd852b	-0.49515662
21	0x3ef9b650	0.48771906
22	0xbe6ab77f	-0.2292156
23	0xbe8ca910	-0.27472734
24	0xbf0e81ce	-0.55666816
25	0xbed9ce9c	-0.42540443
26	0xbe45bf50	-0.19311261
27	0x3f8ff72a	1.1247303
28	0xbe4b56da	-0.1985735
29	0xbf8452ab	-1.0337728
30	0x3f56ef3b	0.83958787
31	0x3fcb8dd4	1.5902658
32	0xbf4ccd25	-0.80000526
33	0xbf1db902	-0.61610425
34	0xbea3abdb	-0.31967053
35	0xbf83b255	-1.0288798
36	0xbf0be7a9	-0.5465036
37	0xbf9ce4a4	-1.2257276
38	0xbe4a76f5	-0.19771941
39	0xbe776870	-0.24160933
40	0x3fdfdf2e	1.7489984
41	0x3f60bfbb	0.8779256
42	0x3dd191eb	0.1023291
43	0xbf0fa77a	-0.56114924
44	0xbe9920f1	-0.29907945
45	0xbf055f22	-0.52098286
46	0xbeb18c45	-0.3467733
47	0x3fd2513a	1.6431038
48	0xbe9d58ce	-0.30731815
49	0xbf16a45e	-0.58844554
50	0x3e8f8645	0.28032127
51	0xbee6adaa	-0.4505437
52	0xbc6e4e08	-0.014544971
53	0x3f7d9360	0.99053
54	0xbf275f59	-0.65379864
55	0xbf3213cf	-0.69561476
56	0xbf4066e7	-0.75157017
57	0xbfbbd60a	-1.4674695
58	0xbf00fc0f	-0.5038461
59	0xbf18bedf	-0.59666246
60	0x3ed9374c	0.42425
61	0x3f90994b	1.1296781
62	0xbef7afcd	-0.48376313
63	0xbeb1863d	-0.34672728
64	0xbe9cb502	-0.30606848
65	0xbf1b51db	-0.60671777
66	0xbeccdc82	-0.40011984
67	0x3f464be1	0.7745953
68	0xc007fc1c	-2.1247625
69	0xbe698784	-0.22805601
70	0xbc1c61ca	-0.009544799
71	0xbf28e670	-0.6597662
72	0xbe876daf	-0.2645087
73	0xbf88329f	-1.0640448
74	0x3fd65ce6	1.67471
75	0xc0108d56	-2.2586265
76	0xbf38a0c4	-0.7212031
77	0x3ba66058	0.005077403
78	0xc0548816	-3.320806
79	0xbe98bcf5	-0.29831663
80	0xbf20c6fb	-0.6280362
81	0xbf558b66	-0.8341583
82	0xbe3d64ae	-0.18495438
83	0xbf809792	-1.0046256
84	0x3f18698b	0.59536046
85	0xbea4731e	-0.32119077
86	0xbf61ce77	-0.88205665
87	0xbf5db705	-0.8660739
88	0xbe649f18	-0.22326314
89	0x3e1f8a03	0.15579991
90	0xbe4a6c90	-0.19767976
91	0xbee029d7	-0.4378192
92	0xbef1083c	-0.47076595
93	0xbeebd6b2	-0.46062237
94	0xbeaff24c	-0.34364545
95	0xbf8b3d84	-1.0878148
96	0xbfe09e71	-1.7548352
97	0xbe74155a	-0.2383627
98	0x3ebdd1e9	0.3707421
99	0xc012f3c3	-2.296128
100	0xbe8638eb	-0.262153
101	0xbeef3455	-0.46719614
102	0xbf121aa1	-0.5707188
103	0xbe3591da	-0.17731419
104	0xbfba2a1a	-1.4544098
105	0xbf2e857f	-0.6817245
106	0xbf215c1d	-0.6303118
107	0xbe89814d	-0.2685646
108	0xbd58640f	-0.0528298
109	0xbf2f65ff	-0.6851501
110	0x3ef0c401	0.4702454
111	0xbe600574	-0.2187708
112	0xbf70510f	-0.93873686
113	0xbed51dd2	-0.41624314
114	0xbebd21a5	-0.3693973
115	0xbf592505	-0.8482211
116	0xbf0d70b3	-0.5525009
117	0xbefadd7f	-0.48997113
118	0x3d8b371c	0.06797621
119	0xbf1fd239	-0.6243015
120	0x3ecc81b3	0.39942703
121	0xbf5f264b	-0.87167805
122	0xbfa731cb	-1.3062071
123	0xbeb6d513	-0.35709438
124	0xbf9aba16	-1.2088039
125	0xbfb6a826	-1.4270065
126	0x3ff6e5ef	1.928892
127	0xbec09791	-0.37615636
128	0xbf39096b	-0.72279996
129	0xbef556da	-0.47917825
130	0xbe2f3b2d	-0.17112418
131	0xbffe9ec7	-1.9892205
132	0xbf1b885b	-0.60754937
133	0xbef8f5d9	-0.48625067
134	0xbcf82b46	-0.030294072
135	0xbf965474	-1.1744523
136	0xbf8436fc	-1.032928
137	0xbd8370b4	-0.06417981
138	0xbf563ff0	-0.8369131
139	0x3fc3b5e2	1.5289881
140	0x3e14fb5c	0.14549011
141	0x3e25be8d	0.1618597
142	0x3e5da263	0.21643977
143	0xbf4c8169	-0.79884964
144	0x3f248bf9	0.6427608
145	0x3f0bd35f	0.546194
146	0x3e3ffd02	0.18748859
147	0xbe17460c	-0.14772815
148	0xbe7da8cb	-0.2477142
149	0x3f08547e	0.53253925
150	0xbf2acf9a	-0.66723025
151	0xbee95815	-0.45575014
152	0xbf62acce	-0.8854493
153	0xbf7add7c	-0.9799421
154	0xbf3c0e34	-0.7345917
155	0xbef0f0d4	-0.47058737
156	0xbf9791c4	-1.1841359
157	0xbf3d4e92	-0.73948014
158	0xbf434015	-0.76269656
159	0x401450f0	2.31744
160	0x3f86c268	1.0528078
161	0xbf3c7b9c	-0.7362611
162	0x3e3d7365	0.18501051
163	0xbf44f7c7	-0.7694058
164	0x3f69a42a	0.9126612
165	0xbe99f513	-0.3006979
166	0x3edb5aaa	0.4284261
167	0xbcb4e1b6	-0.022080284
168	0xbf1da53c	-0.6158025
169	0x3d95303a	0.07284589
170	0xbf1680da	-0.5879036
171	0x401340ab	2.300822
172	0xbde4a5d1	-0.111644395
173	0xbf8a4847	-1.0803307
174	0xbfe5ee6b	-1.7963384
175	0x3f365fa9	0.71239716
176	0xbf7fcbf7	-0.999206
177	0xbfc1f1de	-1.5151937
178	0xbe1f9429	-0.15583862
179	0xbeb9a3d5	-0.36257806
180	0xbe903489	-0.2816508
181	0xbf399106	-0.72486913
182	0xbe5fc76b	-0.21853416
183	0x3ebbc512	0.3667379
184	0xbf0fa9dd	-0.56118566
185	0xbef2b00e	-0.47399944
186	0xbe660332	-0.22462156
187	0xbf429b9c	-0.7601869
188	0xbe39aa35	-0.18131335
189	0xbf209d51	-0.62740046
190	0xbef4f0b5	-0.47839895
191	0xbf6b1658	-0.9183097
192	0x3f1b0084	0.6054766
193	0xbf4c4605	-0.7979434
194	0xbf45f329	-0.7732416
195	0xbf66aeb9	-0.90110356
196	0xbf843e3a	-1.033149
197	0xbeefb460	-0.46817303
198	0x3f3c4792	0.7354671
199	0xbe13ecd0	-0.14445806
200	0xbedba4f6	-0.42899293
201	0xbe81a7e2	-0.25323397
202	0xbf3cf432	-0.7381011
203	0xbe3c592f	-0.18393396
204	0xbe78f44a	-0.24311939
205	0x3f2eb41d	0.6824358
206	0xbf2a0f7a	-0.66429865
207	0x400573cd	2.085193
208	0xbe559446	-0.20857343
209	0xbeaa9498	-0.33316493
210	0x3f87aeb5	1.0600191
211	0xbf0f3269	-0.55936295
212	0xbf12ba12	-0.5731517
213	0xbfb8a115	-1.4424158
214	0xbf3e36b1	-0.743022
215	0xbeef04a0	-0.46683216
216	0x3ebd6b55	0.3699595
217	0xbe5553a8	-0.20832694
218	0xbef01867	-0.46893618
219	0x3f7e0b7a	0.9923626
220	0xbf6b6fd3	-0.91967505
221	0xbf8ac5ab	-1.0841573
222	0xbf6c543a	-0.9231602
223	0x3f17c37a	0.5928265
224	0xbffdca5f	-1.9827384
225	0x3f0323a5	0.51226264
226	0xc00a909f	-2.165077
227	0xbf8a7558	-1.081706
228	0xc00ba0d9	-2.1816924
229	0xbfb5f06c	-1.4213996
230	0xbe63a41a	-0.22230569
231	0x3e8d0b88	0.2754786
232	0xbf0911a3	-0.53542536
233	0x3f900be2	1.1253626
234	0xbeeae28a	-0.4587596
235	0xbf2c61ce	-0.6733674
236	0xbf47ef4a	-0.780995
237	0xbf00e23a	-0.50345194
238	0xbfbb6b43	-1.4642109
239	0xbf203518	-0.62581015
240	0x3f0ace3c	0.5422094
241	0xbf4bc167	-0.79591984
242	0xbf96379e	-1.1735723
243	0xbd9d04d8	-0.076669395
244	0x401adb3a	2.4196305
245	0xbc91ccc1	-0.01779783
246	0xbede0fdb	-0.43371472
247	0xbe97901c	-0.29602134
248	0xbf0aca15	-0.542146
249	0xbe03d297	-0.12873302
250	0xbebb21c3	-0.36549196
251	0xbeeb0598	-0.45902705
252	0x3f05a75c	0.52208495
253	0xbfbf5b49	-1.4949733
254	0xbed5df46	-0.41771907
255	0x401b9d6b	2.431483

output.weight f4 [4, 256]
0	0xbc5d35d1	-0.0135016
1	0xbe40c3f4	-0.1882475
2	0xbda08c17	-0.0783922
3	0x3cd5849a	0.026064206
4	0x3da5fc81	0.08104802
5	0xbc45bb5c	-0.012068596
6	0x3d9f84ae	0.077889785
7	0x3c472ae6	0.012156224
8	0x3d008ebf	0.031386133
9	0x3da2730e	0.07932101
10	0x3db7b973	0.089709185
11	0xbd64807c	-0.055786595
12	0xbe1d136f	-0.15339445
13	0xbe124137	-0.1428269
14	0x3c1cd17c	0.009571429
15	0xbced1971	-0.028942795
16	0xbde464dc	-0.1115205
17	0xbe70f7d8	-0.23532045
18	0xbbe4a473	-0.0069776117
19	0x3d8598c6	0.0652328
20	0xbdd4a486	-0.10382943
21	0x3e1284f5	0.14308532
22	0x3be3b054	0.00694851
23	0x3d9ea209	0.077457495
24	0xbdb9ffdc	-0.090820044
25	0xbd1bd540	-0.038045168
26	0xbd27819f	-0.0408951
27	0xbd5e43ea	-0.054263987
28	0xbbaa6739	-0.0052002934
29	0x3c819202	0.015816692
30	0xbc967d52	-0.018370304
31	0x3d05e5b2	0.032689758
32	0x3e66a2a5	0.22522981
33	0x3bf6efe7	0.007535923
34	0x3c9466d4	0.018115439
35	0xbdd5d4dc	-0.1044099
36	0x3e1074e9	0.14107098
37	0x3ceec159	0.02914493
38	0x3da4943a	0.080360845
39	0x3cb15a6b	0.02164956
40	0xbd0b5546	-0.03401687
41	0xbd8d7e31	-0.06908835
42	0x3ad6f3e5	0.001639959
43	0xbe0720bb	-0.1319608
44	0xbd02871d	-0.031867135
45	0xbc2612ea	-0.010136345
46	0x3cfce679	0.030871617
47	0x3c0610f9	0.0081827575
48	0x3d969702	0.07353021
49	0xbec78a3e	-0.38972658
50	0x3e6921f1	0.22766854
51	0x3d44ef18	0.04807958
52	0x3d3bae77	0.04582068
53	0x3dcb7d85	0.0993605
54	0xbe813053	-0.2523218
55	0xbd179e1e	-0.037016027
56	0x3e249791	0.16073443
57	0x3d8cc58c	0.068736166
58	0xbddc69b7	-0.10762351
59	0x3dc4ebf5	0.09615318
60	0xbdd4ddd3	-0.10393872
61	0x3b3bd1e6	0.0028659045
62	0x3e85d08a	0.26135665
63	0xbb8ec481	-0.004356921
64	0x3b44f8de	0.0030055563
65	0x3e2442b4	0.1604107
66	0x3c2cdfef	0.010551437
67	0xbc7a4723	-0.015275749
68	0xbf60a69e	-0.8775424
69	0x3eab9f4b	0.33519968
70	0xbe1c8fbb	-0.15289204
71	0x3e081f9d	0.1329331
72	0xbc8b1c58	-0.016981289
73	0x3ab7bf81	0.0014018865
74	0x3c0cd865	0.008596514
75	0x3b3c95a1	0.002877571
76	0xbdf52e4b	-0.1197172
77	0x3d147424	0.036243573
78	0x3c499bc9	0.0123052085
79	0x3eb2fa60	0.34956646
80	0xbe598ae7	-0.21244393
81	0xbd8da7b9	-0.06916756
82	0x3e9a55cc	0.30143583
83	0xbc17cda0	-0.009265333
84	0xbc9107ee	-0.017703976
85	0x3c015fe2	0.007896395
86	0xbe175dd4	-0.14781886
87	0x3c808a4a	0.015690941
88	0x3c86fd5c	0.016478233
89	0xbd58f0b8	-0.052963942
90	0x3ded65d1	0.115916856
91	0x3e3cfc29	0.18455566
92	0x3e57b4ba	0.21065035
93	0xbdc23675	-0.09483043
94	0x3e83f033	0.25769195
95	0x3c88ab63	0.016683286
96	0x3f2d3686	0.6766132
97	0xbd33ca04	-0.04389383
98	0x3d862817	0.06550615
99	0x3f6b1589	0.91829735
100	0xbd91493c	-0.070940465
101	0x3def506f	0.11685263
102	0x3c8f5b06	0.017499458
103	0xbc52f3cc	-0.0128755085
104	0xbd8efd90	-0.06981957
105	0xbdaabe1b	-0.08337041
106	0xbdbdefe6	-0.092742726
107	0xbe452588	-0.19252598
108	0xbc64dec0	-0.013969123
109	0xbf01ef5c	-0.5075586
110	0xbc952593	-0.018206393
111	0x3cc51fcf	0.02406302
112	0xbcfdf243	-0.030999308
113	0xbbc1a6fa	-0.0059097977
114	0x3e30ff09	0.17284788
115	0x3d89c75b	0.06727477
116	0x3dcc0b91	0.099631436
117	0x3ce95bf4	0.02848623
118	0xbc78444d	-0.015153003
119	0x3ba7e52c	0.005123755
120	0xbd2746e3	-0.040839087
121	0x3e26907c	0.16266054
122	0xbc0a129b	-0.008427287
123	0x3ddfef27	0.109342866
124	0x3d67c7e3	0.05658711
125	0x3c8a84bd	0.016908998
126	0xbcde1074	-0.027107455
127	0x3f0fd492	0.5618373
128	0x3d4689cb	0.048471253
129	0xbd41a007	-0.047271755
130	0xbce2a6c9	-0.02766742
131	0x3b73a3bc	0.003717645
132	0xbc802c53	-0.015646135
133	0x3d570992	0.05249936
134	0xbd3f4841	-0.046699766
135	0x3dca3c6c	0.09874806
136	0xbe258df3	-0.1616743
137	0xbeb23541	-0.34806255
138	0xbe45db14	-0.19321853
139	0x3ca22094	0.019790925
140	0x3e68ba95	0.22727425
141	0x3d1951e5	0.037431616
142	0xbe20c193	-0.15698843
143	0xbd72b422	-0.05925382
144	0x3ae96a4e	0.001780817
145	0xbc2b7747	-0.01046545
146	0x3bea8a62	0.00715761
147	0x3d7360ff	0.059418675
148	0x3dc4cc77	0.09609311
149	0x3c8fc930	0.017551988
150	0xbdd3ce6a	-0.10342105
151	0xbda2a301	-0.07941247
152	0xbe2e6e01	-0.1703415
153	0xbd65475c	-0.055976257
154	0xbd0f674f	-0.035010632
155	0xbd1f0d23	-0.038830888
156	0xbd3cf57b	-0.046132546
157	0x3bb58ffa	0.005540845
158	0x3d348299	0.04406986
159	0x3b8611f8	0.0040914975
160	0xbd6c551d	-0.057698358
161	0x3b932edb	0.0044916696
162	0x3e0d0590	0.13771653
163	0x3d0dc9b9	0.034616206
164	0xbb41418b	-0.002948853
165	0xbdde8d7b	-0.10866829
166	0x3d5129f4	0.0510654
167	0x3ccd3c03	0.02505303
168	0xbc9581bf	-0.018250344
169	0x39f2f40c	0.00046339666
170	0x3d2c0202	0.041994102
171	0x3ca9b494	0.02071599
172	0xbabff012	-0.001464369
173	0x3d7dccf6	0.061963044
174	0xbef65776	-0.48113602
175	0xbd45d46e	-0.04829829
176	0x3cb8cb55	0.022557894
177	0x3d3091d9	0.04310784
178	0xbb6301ae	-0.0034638452
179	0xbdc8e8f2	-0.09810056
180	0xbda6dd68	-0.08147699
181	0xbca33e03	-0.01992703
182	0x3db525aa	0.088450745
183	0xbd391005	-0.045181293
184	0x3d8a6a6b	0.06758579
185	0x3db24fb8	0.087066114
186	0xbd1ebef6	-0.038756333
187	0xbe31067d	-0.17287631
188	0xbe80aa1d	-0.25129786
189	0xbe11ab00	-0.14225388
190	0x3dba6cb2	0.09102763
191	0xbe8d13ec	-0.27554262
192	0x3b842807	0.004033092
193	0xbce5829e	-0.028016385
194	0xbcf5263c	-0.029925458
195	0x3d329033	0.04359455
196	0xbd718e36	-0.058973514
197	0x3ca78606	0.02044965
198	0xbd1f9aef	-0.038966116
199	0x3e29440b	0.16529863
200	0x3f1ba5e9	0.60800034
201	0x3d37eff4	0.04490657
202	0xbe6c6d48	-0.23088562
203	0xbe482d67	-0.1954857
204	0xbd93f4ec	-0.072244495
205	0xbdcf1659	-0.10111684
206	0x3ddbbb8d	0.10729132
207	0xbd9a36cc	-0.07529983
208	0xbd607089	-0.054794822
209	0x3e20ceb3	0.1570385
210	0xbdc5caa4	-0.09657791
211	0x3d92798f	0.07152092
212	0xbe26ce54	-0.16289645
213	0x3cbe86a0	0.023257554
214	0x3de13366	0.109961316
215	0xbf1318fb	-0.5745999
216	0x3af9ef24	0.0019068462
217	0x3d33ff9c	0.04394494
218	0xbcbe14a0	-0.023203194
219	0x3d43e9f5	0.04783054
220	0x3dd817a0	0.10551381
221	0xbd7106b3	-0.05884428
222	0x3daebede	0.08532499
223	0x3bda4de6	0.0066621182
224	0x3efc279c	0.4924897
225	0xbd5733de	-0.0525397
226	0xbde1c9b6	-0.110248014
227	0xbd12b413	-0.035816263
228	0xbc5a4b5c	-0.013323631
229	0x3e45320b	0.19257371
230	0xbd08caa5	-0.033396382
231	0x3de0bf84	0.10974029
232	0x3ceb117f	0.028694866
233	0x3b925d73	0.0044667064
234	0xbd66190c	-0.05617623
235	0x3d3ca110	0.04605204
236	0x3d0c4ad2	0.03425104
237	0xbdcd2c51	-0.10018218
238	0xbd581a35	-0.052759368
239	0x3d206074	0.039154485
240	0xbd4450a9	-0.047928486
241	0xbeb3aef0	-0.35094404
242	0x3d0254db	0.031819206
243	0x3d0bca3d	0.034128416
244	0x3c820881	0.015873196
245	0xbd0207a9	-0.031745587
246	0x3ac65a3a	0.0015133091
247	0xbd1bf985	-0.038079757
248	0x3cbb7c8e	0.02288654
249	0x3d1b4988	0.03791192
250	0xbbd49c95	-0.0064883926
251	0x3938918f	0.00017601832
252	0xbe6da005	-0.23205574
253	0x3de1ce3d	0.11025665
254	0xbdc5a416	-0.096504375
255	0x3d8628bc	0.06550738

output.bias f4 [4]
0	0xbba95cfb	-0.005168555
1	0x3c4fb943	0.012678447
2	0x3b58f7fc	0.0033106795
3	0x3c5c4afc	0.013445612
