DDPG-HER/Pre-trained models/FetchPickAndPlace-v2_1.pth (torch, 563877 bytes, 8 tensors)

fc1.weight f4 [256, 28]
00000000: 260c 0d3f e47a 553e ec46 f1bc 45fa 1fbf
00000010: 6cea d6be 6048 f43e 4b89 c4bf 86dd b0be
00000020: cc20 c93d f763 aa3c 3362 593d ccb4 1e3d
00000030: 5353 193d da1e 86bb 416a 74be b1cb a6bd
00000040: 0a83 30bd 8f88 8c3c 12fa 9a3d 3330 a23c
00000050: 3506 34be d567 03bd 9627 f3bc 571f 583c
00000060: 7a4d cbbc 6cbb 3e3c bf12 c03d a332 3bbf
00000070: b70b 3dbe b024 1fbc 2c45 f43d 4d3f ff3d
00000080: c3c9 86be 2110 bf3e 9354 fdbd 9510 36be
00000090: 72e8 f6be d0a0 383e a723 e9bc 7fa4 323c
000000a0: 7efd 463d 3b04 86bc c2cb a4be fc35 ecbe
000000b0: 1718 e9bd 5d07 d83d c364 96bd c60f 63bc
000000c0: d719 a4be cd22 f2be a9e6 5e3d 89a1 673d
000000d0: f0fd 8f3d c343 c5bc cbe7 923e f58b 0abf
000000e0: c448 543e b876 a9bd 3e30 91be 2f2a 67be
000000f0: 5278 d03d d23d fe3e 3304 5cbf da22 113d
00000100: 5d45 c83e 59ee ebbe 24a1 b5be 7b1b da3b
00000110: 54d3 6dbc 87c6 cc3b 05ae f9bd 70ae 483c
00000120: ef8a 6abd 49a6 09bd 1410 4eba 27d4 0f3d
00000130: ed84 46bc 6fb4 2a3b 23ee 6bbd 1d73 80be
00000140: 033e c8be f3d1 8e3a 3e89 623d cb26 28bd
00000150: b2d1 f1bd 63d8 cc3e 01b2 bd3d 33dd b3be
00000160: 7ea8 223f 0db2 833e 30db 18be 3aa1 a53e
00000170: 8d08 cc3c 8fda 973c 4eb6 edbc 0791 b2bc
00000180: e5b4 b83c 0d94 6b3c 2a15 cfbc b286 973b
00000190: 443d c43c 4067 1abd e3f3 03bc 92d2 85bc
000001a0: 2bd0 bbbc e68a 6b3c 7ccc 033c bc9b 31bb
000001b0: f765 57bd 0cbe 023f dd8f 90bf 98f9 8cbe
000001c0: 089f c1be 3381 ad3e 82db 453e a8ff eb3c
000001d0: be11 99bd 6a8f 973e 061a de3e 5eb9 83be
000001e0: 9f6b 26be 3fe6 c7bc 19bf 66bd 2d4e 933d
000001f0: b7cf 16bd 6ed1 5ebc a1b6 833d 7327 d7bd
00000200: 60c2 183e b6f3 863d 6346 7a3b 9d82 f93d
00000210: a087 273d ed4c 57bd fe77 c63d 953b 97bc
00000220: be31 f2bd d4c2 6a3e 8987 94be 7ccb 17bf
00000230: 0976 713e 675e 233e 637e 203e c180 853e
00000240: ba0a f4bd 958c 593e f9e9 e33e 4c1f 04bd
00000250: 4a15 a9be 2fea 09bd 54be 39be 7178 44bc
00000260: e662 d93d 949f 0b3d 6c29 d63d a898 bd3d
00000270: bef4 fabd ecd4 693b 2c1d 093e c6e3 eebc
00000280: 13ff 25bd f0b9 1f3d 286e 84bc f850 103d
00000290: c14f c73d df55 813d 7f9f 853c e28c 0bbd
000002a0: 99d7 4c3e 7f2a 2d3e dbda 133e 41df a2bd
000002b0: dbfc 113e 58a1 003f 3a36 dcbe 6e63 973d
000002c0: 662f cc3d c7df 24bb 4acd febc a20a 64bd
000002d0: 98f8 09bc 55ba ac3d a830 09be d82b 093e
000002e0: ccdc 803e 4ff5 1abd ecb0 a8bc 433d 5a3d
000002f0: c67f 4dbe 63c9 283e 6f11 793e 5f47 d43b
00000300: 48d9 6fbc 6871 2cbe 88d7 b3be 89bf 59bf
00000310: 482a b7be 0d60 43be 9d8d adbd f242 dabe
00000320: a6e8 9bbe c539 e03e 1cd0 bbbe 39a4 54be
00000330: 9ba9 f6bd b8cb 253d 30b5 68bd 0573 113c
00000340: 2dbc d7bc de74 ac3c 029f 65bd 3303 03bd
00000350: ba57 543c 183c 0bbc 7db6 e6bb 1b32 d3bc
00000360: f90e c2bd 6a85 58bd 2720 683d 086a 023c
00000370: 2fd0 e73b efa3 793f 79dc 073f 8899 f7be
00000380: 6518 153e e44a e53d e5bd 033e 362d 463e
00000390: 89e9 f8be 7009 043e 4cbc 3c3e b6df babe
000003a0: eb2d debe 29a7 95bc f000 a33d 44db 49bb
000003b0: 6aa4 f63d eef4 49be b920 2d3e 5d59 29be
000003c0: ba6e 453e 93b1 9d3c 1d04 4a3e 2939 10bd
000003d0: d760 b13d 2590 41be cb44 2e3e 3a15 eebd
000003e0: da88 3c3b fd80 94bd 7c0d 483e a5f0 5bbc
000003f0: 3562 2a3e 6adf dd3d 1d5b cebe ba84 c3be
0.5509666 0.2084766 -0.029452763 -0.62491256 -0.41975725 0.47711468 -1.5354398 -0.3454401
0.09820709 0.02079962 0.053072166 0.03874664 0.03743298 -0.0040930333 -0.23868658 -0.0814432
-0.04309372 0.01715496 0.075672284 0.019798374 -0.17580493 -0.032081444 -0.029681962 0.013191066
-0.024817217 0.011641365 0.093785755 -0.7312414 -0.184615 -0.009713337 0.11927256 0.124632455
-0.26325807 0.37316993 -0.12369647 -0.17779763 -0.48224217 0.18030095 -0.028459383 0.010903477
0.048581593 -0.01635944 -0.32186705 -0.46134937 -0.11381548 0.105482794 -0.073434375 -0.013858741
-0.32050964 -0.47292176 0.054419193 0.056550536 0.070308566 -0.024080163 0.2869247 -0.5411981
0.20730883 -0.08274597 -0.28357118 -0.22574686 0.10179199 0.4965654 -0.8594391 0.035433628
0.3911542 -0.46080282 -0.35474503 0.006656108 -0.014515717 0.0062492522 -0.12191395 0.01224862
-0.057261404 -0.033605848 -0.0007860672 0.035114434 -0.012116653 0.0026047488 -0.05760015 -0.25087824
-0.3910981 0.001089631 0.055306666 -0.04105262 -0.11807574 0.4000884 0.09262467 -0.351297
0.6353835 0.2572178 -0.14927363 0.3234957 0.024906421 0.018536834 -0.029017594 -0.02179767
0.022547195 0.01437856 -0.025278646 0.004624211 0.023954995 -0.037696123 -0.008053753 -0.01633576
-0.02292641 0.014376378 0.008044358 -0.0027100882 -0.052587476 0.5107124 -1.1293904 -0.27534175
-0.37816644 0.33887634 0.19322017 0.02880843 -0.07474087 0.29601604 0.4337923 -0.2572736
-0.16251992 -0.024401782 -0.05633459 0.07192645 -0.036819186 -0.013599737 0.06431318 -0.10505571
0.14917898 0.06589453 0.0038188926 0.12183116 0.040900826 -0.052563597 0.096908554 -0.018461028
-0.11825894 0.22925884 -0.29009655 -0.5929487 0.23580183 0.1595398 0.15673213 0.26074794
-0.119161084 0.21245034 0.44514444 -0.03225641 -0.33024055 -0.0336706 -0.1813901 -0.011991606
0.106145665 0.034087732 0.10457119 0.092576325 -0.12253712 0.003567989 0.13390034 -0.029161345
-0.04052646 0.038995683 -0.016165808 0.035233468 0.09732009 0.06315207 0.016311405 -0.034069903
0.20004119 0.16910742 0.14438955 -0.079527386 0.14256613 0.5024619 -0.43010122 0.073920116
0.09969978 -0.0025157796 -0.031103749 -0.055674203 -0.008421086 0.084339775 -0.13397467 0.13395631
0.25168455 -0.0378316 -0.020592175 0.05328108 -0.20068273 0.16483073 0.24323057 0.0064782347
-0.014639206 -0.16840136 -0.35125375 -0.85057884 -0.35774446 -0.19079609 -0.08474276 -0.426292
-0.30450934 0.43794075 -0.36682212 -0.20765771 -0.120440684 0.040477484 -0.05681342 0.00887752
-0.026334846 0.02105182 -0.056059845 -0.031985473 0.012960369 -0.008498214 -0.0070407973 -0.025780728
-0.09475512 -0.05286161 0.056671288 0.00795985 0.007074378 0.9751577 0.5307079 -0.48359323
0.14560087 0.11195925 0.12865408 0.19353184 -0.48615673 0.12894225 0.18431205 -0.36498803
-0.43394408 -0.018268185 0.07959163 -0.0030800859 0.12043078 -0.1972234 0.16907014 -0.16537996
0.1928052 0.019249713 0.19728132 -0.035210762 0.08661049 -0.18902643 0.1701843 -0.116251424
0.0028768093 -0.07251165 0.19536394 -0.013424073 0.16639026 0.108336285 -0.4030389 -0.381872

fc1.bias f4 [256]
00000000: 82f9 8bbf 1a51 84bf 6897 67be db1e 55be
00000010: d49e 4dbf 0248 85bf 0a12 50bf b31b 253f
00000020: c347 c0bf bd04 69be 627a 06bf 8532 02c0
00000030: fcb2 3bbf f1d2 74bf c975 e9bf bfe8 5b3d
00000040: 3ec0 9fbf dfd0 a5bf 9682 95bf 0467 a7bf
00000050: 98a0 55bf 3cd4 84bf bb5a 10bf 546c 81be
00000060: 6a18 ff3e 1c58 49bf bf29 e8bf 3817 f4be
00000070: f5f5 6cbf 2fe6 57bf c2c7 ab3e 2641 61bf
00000080: 0bf8 303f ea01 90bf f085 2bbf b2f8 02bf
00000090: b519 eebe ab2e 86bf ed5d c8bf c524 07bf
000000a0: 20fb 90bf 61eb 94bf a99b 37bf cee1 5abf
000000b0: 903c cdbe 8b48 a8bf d0c7 83bf c4ad 40bf
000000c0: 761b e5bf 5ab2 28bf f368 e1be 6a8b 83bf
000000d0: 71f5 9bbf 5676 a3bf 2aa2 1cbf e29a 44bf
000000e0: 92fc 13bf 7e62 06c0 3c65 24bf 48d5 91bf
000000f0: dadc b53e b7fc abbf 448b 62be 44d1 a4bf
00000100: 0929 d8bf d713 23be d7d6 50bf efba a9bf
00000110: 67e7 c4be b351 c5bf 8b92 823e 13f0 26bf
00000120: 7260 f7be 8b04 1cbe 5ba1 95bf 5f0b e93e
00000130: f791 36bf 0d27 d4be bbb8 10bf eb4c b6bf
00000140: 3176 4ebf f13d e3bf 633d e33d 695a 16bf
00000150: 3493 4fbf a012 ecbe 8fc6 8fbf 2267 583f
00000160: 3e04 9ebd ff92 ff3e ba3b d9be b1a5 97bf
00000170: 86dd 57bf 67b8 4fbf 43a3 c03e e688 94bf
00000180: d64d 1dbf 9c46 423e d7ff 853d 1e0f 70bf
00000190: 466e 3dbf d98a dcbe a0d5 babf d7c1 0ebf
000001a0: ed53 93bf 29f5 c9bf a178 e8be fe53 81bf
000001b0: 83e3 8dbf 4660 04c0 4780 a3bf 2525 b8bf
000001c0: 7d88 afbf 6e59 ebbe 7283 b13d 5d85 0cbf
000001d0: f2de 6bbf b3f7 84bf 8200 16bf 82ab 0abf
000001e0: 69c0 ebbe 26f1 71bf f03a b0be 7411 78bf
000001f0: 3d62 dcbf 1d64 47bf 5aae 3cbf c0d1 cbbe
00000200: 039d 62bf ad49 7dbf 2915 0abd 95d5 0abf
00000210: 8db3 7e3f afcd fcbe e6dc 86bf 3e14 943f
00000220: 102f 37bf d663 7abf bd13 d8be af67 13be
00000230: 262d 48bf 916c 853e ba03 63bf 5991 4bbf
00000240: 559c 2abf b6b4 16bf e01d 8fbf 2bcd d6be
00000250: 53f7 77bf 8c43 82bf 22b8 653e d2f2 84bf
00000260: 3e05 8cbf 13e5 8bbe 47fd 05bf f093 c23e
00000270: a050 2fbf b4c8 14bf 739f 8bbf 3b91 c4bf
00000280: 50ba 80bf df21 263f 8b5e a8bf 63c4 9c3f
00000290: e48d cebe 27e6 7bbf 35e7 7abf bd31 533f
000002a0: 6293 13bf 383c 833e 634c bdbf c023 47be
000002b0: af05 17bf ec43 a0bf d0d5 1bbf 66a6 f6be
000002c0: 096f 0f3f 4b2a c0be c138 d5be bd26 92bf
000002d0: 9f40 f5bf c4db 3abe d3bf cf3d d6af 58bf
000002e0: 9e1d 97be 6643 9bbf d346 f7bf e702 8bbf
000002f0: 4fe6 38bf 3c3c b0bf 7c9e babf eea5 35bf
00000300: 34a5 ccbe 510b 4ebf f03b 3dbf 4568 85be
00000310: 6e48 78bf 334e a0bf c5f4 57bf 73d1 fcbe
00000320: c6e6 82bf 1144 a4be f574 96bf ce47 c8bf
00000330: ce6b 86bf 42a7 90bf 0667 9cbf eb7c 91bf
00000340: 279b ddbe e337 86be 65c1 a2bf e750 b1bf
00000350: 8af6 75bf 3efc 783d d2be c13c f070 d4bf
00000360: d361 41be ac40 73bf eddf 8abf e410 97bf
00000370: 815b 1cbf c9b8 60bf b2c5 f63d 80c5 aabe
00000380: 92d4 3dbf 9734 9abf f686 823e 001e 003f
00000390: 38a7 3d3e 3ce1 6cbf eb44 dcbe 79db d5bf
000003a0: 5804 b6bc 6ab8 4fbf 1845 5f3f 0d3b c0bf
000003b0: d1ae 33be 5bf9 76bf 4eb8 08bf 47f6 31bf
000003c0: 040a 32bf d81e cdbe 3713 cc3d fc8f 9fbf
000003d0: c044 f6bf b982 debf 4340 54bf 2aba a0be
000003e0: 0599 b0bf e11f bdbf 2bf4 15bc c4d1 4fbf
000003f0: f533 89bf 65cb 48be 5b9f df3e b1ba 30bf
-1.0935519 -1.033725 -0.2261635 -0.20812552 -0.8032048 -1.04126 -0.81277525 0.6449539
-1.50219 -0.22755714 -0.5253049 -2.0343335 -0.73319983 -0.9563437 -1.823907 0.05368876
-1.2480543 -1.2954367 -1.1680477 -1.3078313 -0.8344817 -1.0377269 -0.56388444 -0.2527796
0.49823314 -0.7865007 -1.813774 -0.47673965 -0.925628 -0.8433561 0.3355084 -0.87990034
0.69128484 -1.1250584 -0.6700125 -0.5116073 -0.46503988 -1.0482992 -1.5653664 -0.5279048
-1.1326637 -1.1634332 -0.71721894 -0.855008 -0.40085268 -1.3147138 -1.0295353 -0.75265145
-1.7899005 -0.6589714 -0.44025382 -1.0276921 -1.2184278 -1.2770488 -0.6118494 -0.7679883
-0.57807267 -2.0997615 -0.6421697 -1.1393213 0.3552006 -1.3436497 -0.22123438 -1.2876363
-1.6887523 -0.15925537 -0.8157782 -1.3260173 -0.38457796 -1.5415558 0.25502428 -0.65210074
-0.4831577 -0.15236108 -1.1689867 0.45516488 -0.71316475 -0.41436043 -0.56531876 -1.4242224
-0.80649096 -1.7753278 0.11095693 -0.58731705 -0.8108399 -0.4610796 -1.123247 0.8453237
-0.07715653 0.49916837 -0.4242838 -1.184744 -0.8432239 -0.8114075 0.3762456 -1.1604278
-0.61446893 0.18972248 0.06542938 -0.93773067 -0.7399639 -0.43074682 -1.4596443 -0.55764526
-1.1509987 -1.5777942 -0.45404533 -1.0103757 -1.1085056 -2.068376 -1.2773522 -1.4386336
-1.3713528 -0.45966667 0.08667649 -0.54890996 -0.9213706 -1.0388092 -0.58594525 -0.5416795
-0.46045235 -0.9450859 -0.34419966 -0.9690163 -1.721748 -0.77887136 -0.7370354 -0.39808464
-0.8852083 -0.98940545 -0.033711586 -0.5423215 0.9949272 -0.49375674 -1.0536163 1.1568677
-0.71556187 -0.9780859 -0.4220256 -0.14395021 -0.7819389 0.26059392 -0.8867756 -0.7951866
-0.66644794 -0.58869493 -1.1180992 -0.41953406 -0.9686176 -1.0176864 0.22433522 -1.0386603
-1.09391 -0.27323207 -0.52339596 0.38003492 -0.684824 -0.5811875 -1.0908035 -1.5356821
-1.0056858 0.64895433 -1.3153852 1.2247432 -0.4034263 -0.9839806 -0.98009044 0.8249777
-0.57646763 0.2563188 -1.4788936 -0.19447231 -0.5899305 -1.2520728 -0.60873127 -0.48173827
0.560288 -0.37532267 -0.41644862 -1.1418072 -1.9160346 -0.18247896 0.101440094 -0.84643304
-0.29514784 -1.2129943 -1.9318489 -1.0860261 -0.72226423 -1.3768382 -1.4579616 -0.70956314
-0.3996979 -0.8048602 -0.7391958 -0.26056114 -0.9698552 -1.2523865 -0.84357864 -0.49378547
-1.0226676 -0.3208318 -1.1754442 -1.5646913 -1.0501649 -1.1301043 -1.221894 -1.1366247
-0.43282434 -0.26214513 -1.2715269 -1.3852814 -0.96079314 0.060787432 0.02365056 -1.6596966
-0.18884973 -0.95020556 -1.0849587 -1.180203 -0.61077124 -0.8778196 0.12049426 -0.33353806
-0.7415248 -1.2047299 0.25493592 0.50045776 0.1852082 -0.9253118 -0.4302133 -1.6707603
-0.022218868 -0.8114077 0.87214804 -1.5018021 -0.17547156 -0.96474236 -0.53406227 -0.69516414
-0.6954653 -0.40062594 0.099646024 -1.2465816 -1.9239731 -1.7383643 -0.82910556 -0.31392032
-1.3796698 -1.4775354 -0.009152452 -0.8117945 -1.0718981 -0.19608839 0.43676266 -0.6903487

fc2.weight f4 [256, 256]
00000000: bf87 13bd 4aec 30bc e361 57bc 3170 b2bd
00000010: 3c0c ac3b 784c 943c c5cf e3ba 5ac3 d13b
00000020: 3c38 8dbc e063 8abd 1512 ddbd 2d8b 193d
00000030: be0b 9abd 1940 a0bd 9262 d13c 8839 bebd
00000040: b437 29bc b94c 513d a607 43bd 10ee b3bc
00000050: 7433 34bd db3b 8cbd 60e2 7bbd 604f 0bbd
00000060: 26d4 34bc 2b5a 9abd 6fc4 b6bd 4f22 bd3b
00000070: 2078 c9bd 9aa2 d1bd 31a8 86bb c017 80bd
00000080: 4c3e 6abd 5cbb 81bd 006c 6b3c 9e30 03bc
00000090: 89e2 593c 9eec 9bbd 88fa 253c 970c 98bd
000000a0: fab2 373a 6468 cabb 8de5 14bd 3458 bd3b
000000b0: 7d60 7abd ef26 a8bd 30a6 c9bd d9bf 41bd
000000c0: 4a60 77bd b2c6 e73b c067 b3bd fb39 f2bc
000000d0: f03f 863d afd3 74bd cec9 c6bd a0a9 523d
000000e0: 3076 7bbd 3c38 75bd c64e 09ba 1505 b1bc
000000f0: 0d78 93bd 8f08 caba 3af1 ab3c 3831 f6bc
00000100: bacc 003b 365f 9eb8 e7d8 f4bc 473c 52bd
00000110: ad77 1b3b ded4 bc3c 07bf c7bc 9385 5ebc
00000120: 20b6 bbbd 3f17 c8bc 926c 563a 55c8 a63b
00000130: 16f5 96bd e9c9 1ebd c9eb 12bd 9942 3abc
00000140: 93c5 6cbd a29d 223d e9fc cbbd e8c6 a8bc
00000150: f065 a3bd 4e49 afbc a38f 9fbd 96b5 b2bc
00000160: fbc2 9abc 1328 8ebd 27e7 89bd 6c43 a6bd
00000170: c7d1 853c ea05 7bbd 3bf1 4b3c 9dda 9abc
00000180: 2609 62bc 8005 123c 7e9b 4bbd 7896 a8bd
00000190: 7fca d4bc 441f 9abc c5c7 4a3c 9129 e9bb
000001a0: 968e d63a 609a 27bc b290 bdbc 3295 92bd
000001b0: 8596 47b8 4e81 8bbd 29c0 47bd 023d 5abd
000001c0: b4c3 7fbd daf9 35bd 87ed 4ebd 0a7c 6eba
000001d0: 77bb a83c c70e f8bd f80b 013d 2160 bbbd
000001e0: 2c63 4abd cfb9 3c3c a157 0cbd b836 15bd
000001f0: ffcd 1dbd 20b6 8dbd 9ca7 95bd 1b31 abbd
00000200: 4771 33bd 80b4 c9bc 7e17 e63c be9f 5bbd
00000210: 76ff f93c fd62 103b caf2 98bd 2d3f 803c
00000220: bcb5 7fbd a9e8 6dbb ffcc 5738 b17a d1bc
00000230: 7c6e acbd 1c1a aebd 1a36 a7bd 2ba2 b7bd
00000240: abba 9abd 716d a83c 0dbd 5abd 1b88 30bd
00000250: 19fc 7c3b 8825 ab3b f0e4 ff3c 8487 23bc
00000260: 3c74 2fbd fa21 bcbb b3b0 2bbd fc27 3cbd
00000270: b3d5 a2bc 2c84 b4bd e695 3a3d 1c6a 10bd
00000280: 066d 193c 3610 3a3b 9158 74bd 8c9d acbb
00000290: 1724 82bd 8fa3 00bd 22d1 113c 4a0e 493c
000002a0: b831 82bd 09df a9bd 5277 173d 078f 0cbd
000002b0: 2daa e1bd 3f8f e9bd 9596 9fbb 4982 ab3c
000002c0: 4658 fc3c d873 b4bd 83fd 83bd 7a78 22bc
000002d0: b6d4 07bd 86d0 4abb e961 86bd 8a98 aabd
000002e0: 5726 a6bd 32ce e3bc a320 2e3c 3027 98bd
000002f0: 1657 cbbd b5b2 e33c e5fa 47bd ce0d fabc
00000300: 4ab3 b5bd c53e 0d3c 1ed1 313c 1a9b 93bd
00000310: 86bd 6c3d d0d8 a2bd fefd eebd 420a dfbc
00000320: 8b1c 58bd d73f 8cbc d6ad 09b9 d9ab 0ebd
00000330: 0d80 acbd ad0c e2bc 0a50 39bd a233 6c3c
00000340: a9ad b5bd e78f 4b3c a22e 35bd 8855 21bd
00000350: d37e eabb 7653 62bd 39ee 87bd 63b7 73bb
00000360: 3ed7 a9bd c305 91bc 6086 76bd 781d afbc
00000370: 8add 7ebd fa38 bcbd fbd3 8bbd 23a2 aabd
00000380: 2f92 a6bd 2814 bebc e788 98bd b141 6ebd
00000390: b4eb 40bd dc75 edbc c80e 9cbc 90d2 553d
000003a0: 616f 65bc 2c64 d7bd f853 6abb 8c55 b5bd
000003b0: ca16 083d e6f5 54bd fef8 74bd 287b ac3c
000003c0: 335f 10bd 89ff dfbd b00b cdbd 40c8 91bd
000003d0: 02cd 1bbd 4952 1abc df84 57bd 2011 d6bc
000003e0: bdf7 cbbd 33c2 f0bc df99 503c 7a30 b83b
000003f0: 307e 8cbd 2612 59bd 3038 123d c021 80bb
-0.03601813 -0.010798523 -0.013145897 -0.08712805 0.005250482 0.01810287 -0.0017380646 0.0064014615
-0.017238729 -0.06757331 -0.107944645 0.037486244 -0.07521771 -0.07824726 0.025559697 -0.09288317
-0.010328222 0.05109856 -0.047614716 -0.021964103 -0.043994382 -0.06847354 -0.061495185 -0.034011245
-0.011036908 -0.075367294 -0.089241855 0.005771912 -0.09837365 -0.10236092 -0.0041094054 -0.0625453
-0.057188317 -0.06334564 0.014369011 -0.008007197 0.013298639 -0.076134905 0.010130532 -0.07424276
0.00070075656 -0.006176995 -0.03635173 0.005778337 -0.061127175 -0.08210551 -0.09846151 -0.0473021
-0.060394563 0.007073247 -0.08760023 -0.029568663 0.06555164 -0.05977219 -0.0970646 0.0514313
-0.06139201 -0.059868082 -0.00052378734 -0.021608869 -0.07200632 -0.0015413928 0.02098905 -0.030052766
0.0019653277 -7.5517615e-05 -0.029888583 -0.051327016 0.0023722455 0.023050722 -0.024383081 -0.013581651
-0.09165597 -0.024425147 0.00081796304 0.0050897994 -0.07370965 -0.038766775 -0.035869393 -0.011368417
-0.05780561 0.03970111 -0.09960348 -0.020602658 -0.079784274 -0.02139726 -0.077910684 -0.021815103
-0.018891802 -0.06941237 -0.06733542 -0.081183285 0.016335381 -0.061284937 0.012447651 -0.018903071
-0.0137961265 0.008912444 -0.049708836 -0.08231825 -0.025975464 -0.018813737 0.01237673 -0.007115551
0.0016369398 -0.010229677 -0.023140285 -0.07157363 -4.758548e-05 -0.06811772 -0.048767243 -0.053280838
-0.062442496 -0.04442773 -0.050519492 -0.0009097463 0.020597203 -0.121121936 0.031505555 -0.091491945
-0.049410984 0.01151891 -0.034263257 -0.036429137 -0.03852653 -0.06919503 -0.073073596 -0.083589755
-0.0438092 -0.024622202 0.028087374 -0.05361914 0.030517321 0.0022031658 -0.07468183 0.015655125
-0.062429175 -0.0036302006 5.1450912e-05 -0.0255712 -0.08419511 -0.08501074 -0.08164616 -0.08966478
-0.07555135 0.020559998 -0.05340295 -0.04309855 0.003860241 0.00522298 0.031237096 -0.00998104
-0.04283546 -0.005741355 -0.04191656 -0.04593657 -0.01987729 -0.08814272 0.04555311 -0.035257444
0.009364372 0.002839101 -0.059654776 -0.0052678045 -0.0635454 -0.03140598 0.008899959 0.012271473
-0.06357139 -0.08294494 0.036979027 -0.03431609 -0.110187866 -0.11404275 -0.0048702457 0.020936148
0.03080381 -0.08811158 -0.06444838 -0.009916419 -0.03316184 -0.0030947044 -0.06561644 -0.08329876
-0.081127815 -0.027808283 0.010627898 -0.074293494 -0.0992872 0.027795175 -0.048823256 -0.03052416
-0.08872087 0.008620922 0.01085308 -0.07207318 0.05779793 -0.0795151 -0.11669539 -0.027226571
-0.052761596 -0.017120285 -0.00013130097 -0.034831855 -0.08422861 -0.027593935 -0.045242347 0.014416607
-0.08871014 0.012424446 -0.044233926 -0.03938821 -0.007156232 -0.055255376 -0.06637234 -0.0037188164
-0.08293007 -0.017702943 -0.060186744 -0.021376356 -0.062222995 -0.09190555 -0.068275414 -0.083317064
-0.08133351 -0.02320297 -0.07447987 -0.058168117 -0.047099784 -0.028986864 -0.019050017 0.05220276
-0.014003606 -0.10517153 -0.0035755616 -0.088542074 0.03322486 -0.05199232 -0.05980777 0.02105482
-0.03524704 -0.10937411 -0.10011995 -0.07118273 -0.038037308 -0.009419032 -0.05261695 -0.026131213
-0.09959362 -0.029389476 0.012731998 0.005621013 -0.06860006 -0.052995823 0.035698116 -0.0039102733

fc2.bias f4 [256]
00000000: 87ac d1bd d37b 463f 74cf c33e 2604 793d
00000010: f43f b5bf a740 153f 9fae f4be 4521 43bf
00000020: 91b3 a33e 302e c8bc fa89 ea3c 4508 3cbe
00000030: 92b3 163f f032 f23d 6124 25be 1b10 8c3e
00000040: 82c6 bb3e 8d85 9abf 11be 83bd 16a6 a73d
00000050: c872 37be c348 63bc c2e7 9d3d e027 47be
00000060: 69c3 e0bd 54a4 9bbc 4a3f 1f3f 221e 3dbd
00000070: 19d6 723e d65b 09be c2e2 3ebe 1818 2cbe
00000080: 497d 61be 9b87 21be 3a0a 813d cc76 813e
00000090: 4b23 03bd fac4 7c3e 8b8c 833e 8a0c 2e3e
000000a0: 5392 083f 0dba debe 213d b43d b220 b23e
000000b0: 04ce e63e 725d a33e 2b45 aabe 0c8a b23d
000000c0: c5ad 8dbe 260f a7bc a1d6 b73e f957 d83e
000000d0: aeba d33d 09d8 7a3c 3f4b b43c 36f2 95be
000000e0: 0799 d1bd 32ce 05bf 7443 6bbd 48ff 2b3e
000000f0: 7470 86be c2ba 033f 7fa9 893e 68f1 213e
00000100: 6def 62bf 21c0 15bd a3d5 5dbe d3f8 e6bd
00000110: 12d9 923e db69 d6be bd80 a1bf 877c 6a3e
00000120: 4a5e b2bc dbcf 403e 61df c53e b300 133e
00000130: 1ebd 9fbe b7df 8e3e 944f 9a3c 1158 d03e
00000140: 4c5b 11bf 2e70 f3bd bd83 fe3c 9bee b6bc
00000150: a4d6 3a3e f75e 3fbe 89b1 cfbd d557 b13e
00000160: cebb b93e 2ac5 b03d 66f8 ca3e cf32 983d
00000170: 7f7e 503e c1d0 823e e5c7 463f 6cb5 d73e
00000180: 5abc 59bd 77ab 46bc 6401 6cbe 922f 4cbe
00000190: f838 bd3e 4e14 fb3d 346f c13e 3978 093e
000001a0: b4d2 643d a80c 37bf afed 61bb 9853 4a3f
000001b0: 7c82 7c3d 832f 7d3e 51ac b3bc b878 aebf
000001c0: 6cd2 73bd 0c5a 123e 897d 103f baf5 98bf
000001d0: 2f23 65bd 442f eabe e2d2 9abe 1db8 d53d
000001e0: 1450 123c 671d b238 5412 0c3e 69d7 8dbf
000001f0: e0e4 e03d 0266 943e 26f8 83be 0e04 33be
00000200: 7238 d03d 4b20 83be c0f9 213c ce04 153e
00000210: ff58 8fbe ebcb 05bf c026 a53c a626 c8be
00000220: 4481 953e 6e75 db3e c30e 14bc 773e 813e
00000230: 25b5 c03b 2c22 743d d297 4ebe d4aa 0f3f
00000240: d821 d5bd 4bb1 04bf 9bf7 23bd f0d0 013e
00000250: 5d53 293e 53a6 5bbd a1fd ef3c f57d 3e3f
00000260: 70a7 63be 2ffc 0c3f 07b4 c4bd 313d 053e
00000270: 7950 78bf fbde b5be 8269 913e 683e 893e
00000280: 55b1 57bf 7669 64bd f748 73bd 0eb1 6b3e
00000290: 9c9a a23e 4fd4 b3bd 3929 903e d129 debd
000002a0: 9337 fd3e 6f24 bebd ee67 eabf 816d fb3e
000002b0: 014f 6d3e 6679 d63e 19d5 193e 539d fabe
000002c0: 07f1 75be b3f6 0a3e 3c3d fcbc 6fe4 aa3e
000002d0: fdac 233e b568 d8be 1c54 d0be e471 0dbd
000002e0: ac2b 2dbf b09e 20be e8dc 80be a986 83bf
000002f0: 73a3 2d3e 348f 47be 0c48 563e 1a97 a1bd
00000300: 103c c4bc 3830 efbb a023 243f 350d b8bc
00000310: 7888 7abe e29a 0abd 9769 a9be 6b36 92be
00000320: d986 8d3e ffd3 0a3d e817 fe3e 5d57 5c3d
00000330: 9266 ff3e 2aef ffbb f0c8 32be 3d49 5f3e
00000340: 3887 3f3f 75f4 d33d e4de 82be 33b7 623e
00000350: ae41 a0be 5e6c aa3e cbe1 253e 93d5 64bd
00000360: 2777 173d dcb9 33be 6e6d fabd f5d9 d33e
00000370: bd98 c63d 16e3 df3e e292 103f e8ff 90be
00000380: c00e b1bf bd05 cfbc 8ed5 3cbe 3165 98bf
00000390: bdaa ea3e 8541 40bd faf9 1abd b5e9 43be
000003a0: 6106 cdbb 32bb 6a3e 753f 0f3e 6741 3bbd
000003b0: 23bc 493f e43c 47be 3bdb 41bf 09d4 45be
000003c0: 4683 e03e 6a4d 3a3e 7286 bcbd 4e85 cb3e
000003d0: 4a77 9ebd 2e22 f0bc c3b7 073d 8ab9 f13e
000003e0: c3f5 50bf b5c2 863e 9c1a e4be 4f49 e33e
000003f0: a8ac cebe f7ac 2ebf 917d ecbf 0711 903d
-0.10237985 0.7753269 0.38244212 0.060794972 -1.4160142 0.58301777 -0.47789475 -0.7622264
0.31972936 -0.024436086 0.028630245 -0.1836253 0.5886775 0.11826122 -0.16127159 0.27356037
0.36674887 -1.2072006 -0.06432737 0.08185975 -0.1791488 -0.013872328 0.0771022 -0.19448805
-0.109747715 -0.018999256 0.62205946 -0.046171315 0.23714484 -0.13413939 -0.18641189 -0.16806066
-0.22020449 -0.15774386 0.06300779 0.25285947 -0.03201608 0.24684516 0.25693163 0.16996971
0.53348273 -0.4350132 0.08800722 0.3479057 0.45079052 0.3190723 -0.33255896 0.087177366
-0.27671638 -0.020392966 0.35905936 0.42254618 0.10338341 0.015310296 0.022008536 -0.29286355
-0.10234266 -0.52267754 -0.057437375 0.16796601 -0.2625767 0.51456845 0.26887128 0.15814745
-0.88646585 -0.03656018 -0.21663527 -0.11277928 0.28681237 -0.41877636 -1.2617413 0.22899066
-0.021773476 0.1882929 0.38646987 0.14355735 -0.31198972 0.27905056 0.018836774 0.4069219
-0.5677993 -0.11886631 0.031068677 -0.022330573 0.18245941 -0.1868857 -0.10141284 0.34637323
0.36276096 0.08631356 0.39642638 0.07431566 0.20360754 0.25549892 0.77648765 0.421306
-0.05315814 -0.012125841 -0.23047405 -0.19940022 0.36957526 0.12259732 0.37780154 0.13424768
0.055865005 -0.71503687 -0.0034473946 0.79033804 0.061647877 0.24725156 -0.021932753 -1.363059
-0.059526846 0.14292163 0.5644155 -1.194999 -0.055941757 -0.45739186 -0.30239016 0.104355074
0.008930225 8.493178e-05 0.13678867 -1.1081363 0.109811544 0.28984076 -0.2577526 -0.17482015
0.10167016 -0.25610575 0.009886205 0.14552614 -0.27997586 -0.5226428 0.020160079 -0.39091986
0.29200184 0.4286303 -0.009036723 0.2524297 0.005880969 0.0596029 -0.20175102 0.5612004
-0.10406846 -0.5183303 -0.040031057 0.1267736 0.16535707 -0.053625416 0.029295744 0.74410945
-0.22231841 0.550723 -0.0960465 0.13011624 -0.9699779 -0.35521683 0.2840081 0.26805425
-0.8425496 -0.055764638 -0.059395757 0.2301676 0.31758583 -0.08780729 0.2815645 -0.108478196
0.49456462 -0.09284293 -1.8312967 0.49106982 0.23174669 0.41889495 0.15022697 -0.48948154
-0.24017726 0.13570671 -0.030790918 0.33377406 0.15983959 -0.42267385 -0.4068917 -0.034532443
-0.67644763 -0.15685534 -0.25168538 -1.027547 0.16956882 -0.19488221 0.20925921 -0.078901485
-0.023954421 -0.0072994493 0.6411686 -0.022467235 -0.24466121 -0.033839114 -0.3308837 -0.28557143
0.27641943 0.03389358 0.49627614 0.053794254 0.49882942 -0.007810493 -0.17459464 0.21805282
0.748157 0.10349361 -0.25560677 0.22140197 -0.3130011 0.33285803 0.16199414 -0.055867743
0.036978867 -0.17551368 -0.12227903 0.41377226 0.09697101 0.4372794 0.56474125 -0.2832024
-1.3832626 -0.02527129 -0.1844084 -1.1905881 0.45833388 -0.046937484 -0.037836052 -0.19132121
-0.006256864 0.22922972 0.1398905 -0.04571667 0.788027 -0.19456822 -0.75725144 -0.19319166
0.43850154 0.18193594 -0.09205331 0.3975014 -0.07737596 -0.029313173 0.033134233 0.47211868
-0.81625 0.26320425 -0.4455155 0.44391868 -0.403661 -0.68232673 -1.847582 0.07034498

fc3.weight f4 [256, 256]
00000000: 2c18 5c3c a3c9 2cbe 1d67 0bbe a475 af3d
00000010: d585 9cbe 0395 afbd 9efe 32bf 075f 87bd
00000020: f832 58be 6a67 a33c 59a7 9e3c e603 76be
00000030: 9a8e ef3d 265b 19be 89db 953c 8a98 473d
00000040: f47d 413e f668 323d b32c 1bbe f0da c53d
00000050: b36d 20be ac1d 053e e61e 2b3e 9d17 60be
00000060: 152a b33d 08d7 6dbd 108b 783e beb6 c1bd
00000070: cc67 7f3d f603 4abc 401c 00be 63d4 903d
00000080: 4f73 52bd ee1a dc3d 69f7 12be 0910 65be
00000090: 9558 a73d 047c 0abf 6f46 ab3b 12aa eabe
000000a0: bafe 553e 2809 9bbd 0415 12be 58f6 93bd
000000b0: 403f df3d a16b aebe 92e1 a8bd e1d3 4ebd
000000c0: 7d3f 903d d0fb 58be 731e 8dbe 3e13 b9bd
000000d0: 1451 a23d 1640 d6bd 5c6e 3ebe a811 03bf
000000e0: 9b5d 0a3f 1fa9 cfbe 6db0 7bbd fd0d 8c3c
000000f0: a3f1 d4be 1bf0 b0bf a8bc b0bd 82cd 9bbe
00000100: 204a 853e fe11 8fbd faf2 48be 9ddd f7bc
00000110: 91ae 85bf d904 01bf c39c 1bbf ad35 323d
00000120: 42aa c23e 938f 02be 81f6 833e 6df8 543c
00000130: fd23 af3e ff3c 213e 962d 633e b8bb 88be
00000140: 6937 18be 7f81 3abe 3fda 74be bbd0 53be
00000150: a351 14be fd93 2bbf 5dd9 9a3d be25 aebe
00000160: 29a1 823e e4a2 cbbb 0a72 80ba a111 ddbd
00000170: cd2d 0c3e aeea 19be 6122 453d a43f dfbf
00000180: 6641 d9bd b0c3 2cbe 82c6 0ebe 9c6c a3bb
00000190: dee2 953d c14d 87be 6b5e fb3d 0c1a 293e
000001a0: 2706 43bd 47b6 d2be 701e 483d c375 de3b
000001b0: 609a 5cbd 9be7 663c 18d3 ce3d 3a49 01be
000001c0: cd3a 80bd fc0a d6bb c2d2 3fbe 50d8 90bc
000001d0: ded8 d73d 66f1 1cbf 06b4 aabc f7ba 5abd
000001e0: f9fc 5b3c c5e7 613b f227 3f3d 6255 b1be
000001f0: 1c9a fdbe 16b7 4fbe 607b 553d 18e0 e0be
00000200: 4328 8dbe cd32 b13e 596a cf3c b119 69be
00000210: bc7f e2bd 9ebb 853e 1b5c 96bd 9ad3 3bbf
00000220: 7006 90be 4a5c c43e a9fd 55bd e05d 583d
00000230: 4029 e7bd 8e02 08be 8acb e3be 7f01 c43d
00000240: 62cc ad3c 315d 3e3d 1c4c a5bb 84a0 b2be
00000250: 077d 3bbe 4616 1ebd c19e 89bf 1118 583e
00000260: 331f 92bc d5a0 823e 9af9 1dbd 6900 d1bc
00000270: 26a1 cdbc 7da2 7abe 4ac3 0f3e bc50 ccbe
00000280: 149a 0f3e 8e95 63bd fcc5 b8bc 7c0c 433e
00000290: 92ab efbe f5ea d0bc 7491 513d 6d00 4b3d
000002a0: c71a 353d 2efe 6abd 2b4d f9be 8604 f1bd
000002b0: 21a9 2f3d 13b2 c9be f482 ab3d 422e 84be
000002c0: d84e d53e 05b9 a13e 227b 8f3c 57ca f63d
000002d0: 938b 383e b9d9 10bd 6f6c 13bf 5976 eabd
000002e0: 2fb5 aabc f7c7 df3d b2b6 bb3e e27d 96be
000002f0: d5e9 013d 506d 8abe dd04 81be 118a b93c
00000300: 0236 b1bb a869 493d 113d 16bf 1ef1 0dbb
00000310: d401 bc3d 0bbf fc3c 6ff2 e43d 23b5 52bd
00000320: 8e27 083e 7f3f 99be 78f4 443e d7ba cf3e
00000330: bdaa 1ebe 33c6 003e c968 17bf 4772 15be
00000340: e05e 9abe a0e2 17be 220d 52bc 790b 91bc
00000350: 5e5c b6bc d9d2 d63d 80f0 31be a33c 313d
00000360: 8092 edbe 8e74 4fbe 11bd 31be c771 bebd
00000370: c22f b03e 7d84 5ebc 847e d53d ddad 80bd
00000380: 7698 27bf 55de 03be 9e44 b2be b4aa 1fbe
00000390: 9c0a aebb 82bf 093d 6b7a 643d 1e25 6cbe
000003a0: 997d 18bd 034c 413d 062c f7bc 755f f43e
000003b0: f1cb 8ebf 666f 58bd a3ba 1cbe 280b 9d3b
000003c0: 49e9 45be f6b1 0e3e 3f53 653e 2dfc 6d3e
000003d0: 1ad6 ccba c311 bebc bd3a 843c fdae 01bf
000003e0: ba0b a7bd 477f 313e ef22 babe 47a5 f63d
000003f0: 2f31 03bf bf5f 3dbe df75 cdbe 5ddd 013d
0.013433497 -0.16873793 -0.13613553 0.0856736 -0.30570856 -0.085733436 -0.69919765 -0.06609922
-0.21113193 0.019946773 0.019366907 -0.24024925 0.11697121 -0.14976177 0.01829316 0.048729457
0.18895704 0.04355713 -0.1515377 0.096609 -0.15666847 0.129996 0.16711006 -0.21884008
0.08748261 -0.058066398 0.24271798 -0.094586834 0.062354848 -0.012330046 -0.12510777 0.070717596
-0.051379498 0.10747324 -0.14352192 -0.22369398 0.081711926 -0.5409548 0.005226902 -0.45832878
0.20897952 -0.07570106 -0.1426583 -0.07224721 0.10900736 -0.3406649 -0.08246149 -0.050495032
0.070433594 -0.21189809 -0.27562293 -0.09036873 0.07925621 -0.10461442 -0.18596786 -0.51198816
0.5404908 -0.40558717 -0.06144755 0.017096514 -0.41590604 -1.3823274 -0.08629733 -0.30430228
0.26033115 -0.069858536 -0.19623938 -0.03025704 -1.0443898 -0.5039802 -0.60786074 0.04350822
0.3802052 -0.12750082 0.25774005 0.012998682 0.34207144 0.15745924 0.22185358 -0.26705718
-0.14864887 -0.18213461 -0.2391138 -0.20685093 -0.14484267 -0.6702269 0.0756099 -0.3401317
0.2551358 -0.0062144864 -0.0009799611 -0.10794378 0.13689347 -0.1503093 0.04812849 -1.7441297
-0.10608177 -0.16871524 -0.13942912 -0.0049873125 0.07318662 -0.2642651 0.12273868 0.16513842
-0.04761329 -0.41154692 0.048857152 0.0067889406 -0.05385816 0.014093305 0.10098857 -0.1262559
-0.06261215 -0.006532071 -0.18732741 -0.01768127 0.10539411 -0.61305845 -0.020837795 -0.05340096
0.013427013 0.003447042 0.046668954 -0.34635454 -0.4953164 -0.20284685 0.052119613 -0.4392097
-0.2756978 0.3460907 0.025319265 -0.22763707 -0.1105952 0.26119703 -0.073417865 -0.73369753
-0.2812991 0.3835166 -0.052243862 0.0528239 -0.11287165 -0.13282225 -0.44491225 0.09570598
0.021215621 0.046475593 -0.0050444733 -0.3488809 -0.18309413 -0.03859546 -1.0751573 0.2110293
-0.017837143 0.2551333 -0.038568117 -0.02551289 -0.025101256 -0.24476047 0.1403934 -0.39905345
0.1402362 -0.05556255 -0.022555344 0.19047731 -0.46810585 -0.025502661 0.051164106 0.049560953
0.04421499 -0.05737131 -0.48691687 -0.11768441 0.042885903 -0.39393672 0.08374587 -0.25816542
0.41661716 0.3158647 0.017514769 0.12050312 0.18021993 -0.035363887 -0.5758733 -0.11448354
-0.020838348 0.10926812 0.36662823 -0.29392916 0.03171714 -0.27036524 -0.25199023 0.022648843
-0.0054080496 0.049173027 -0.5868693 -0.002165861 0.09180036 0.030852815 0.11179053 -0.051442277
0.13296339 -0.29931256 0.19233882 0.40572235 -0.15494819 0.12575607 -0.59144264 -0.14594375
-0.3015051 -0.14832544 -0.012820514 -0.017705666 -0.022260841 0.10489435 -0.173769 0.04327072
-0.46400833 -0.20259306 -0.1735728 -0.09299045 0.34411436 -0.013581392 0.104245216 -0.06283162
-0.6546701 -0.12877782 -0.34817976 -0.15592462 -0.0053113233 0.0336299 0.05578081 -0.23061034
-0.037229154 0.04719163 -0.03017236 0.47729078 -1.1155988 -0.052840613 -0.15305571 0.0047925897
-0.19327272 0.13935074 0.22395037 0.23240729 -0.0015627772 -0.023201829 0.01614129 -0.50657636
-0.081565335 0.17333709 -0.36354777 0.12043243 -0.51246923 -0.18493555 -0.4012899 0.03170525

fc3.bias f4 [256]
00000000: 4098 ce3e c1de 62be 95b7 873e 269e 043f
00000010: 1b47 373e cba3 6fbc 0a2d 79be e12c a8be
00000020: 108b d13d 0c31 de3e 672f 00bf 69b6 7b3e
00000030: 9d09 bebe a269 753e ee7f 89be 7644 95be
00000040: 55dc c9bd 8498 95be 1d04 d43e 04dd eabe
00000050: 66b4 0ebe e7f3 163e 794b 063e 4fae 123f
00000060: 080e a4bd 5abe c5be b442 873d 8e69 df3d
00000070: fbb0 073e d8a6 043e 6c92 85be ca50 0bbe
00000080: 2c2b abbd 51a2 75bc 663d a1be e907 0f3f
00000090: a615 643f 9406 d6bc 8436 c33e 015a 70be
000000a0: 0006 fe3e b52f ffbd 76b6 ff3e 843f a3be
000000b0: f6f9 143c 4001 213f 1ac4 16be 3a33 fbbd
000000c0: de25 dc3e a763 533e 3b05 f73e 7d27 82be
000000d0: aaab a43e 9176 69bf dfd6 96be 4e9d ae3e
000000e0: ee2d ebbe a5ba 923e 0412 00be d8c1 9abe
000000f0: 8278 fb3e 815c 45be 5ab9 4ebc d234 e63d
00000100: 903c 263e 3ad2 2bbe caa2 013e 5e12 963f
00000110: cda3 113f 10cd 7c3e 25d5 fdbe 6f1d 90be
00000120: 5eb8 53bc 79f3 683e fb41 51be 2cfe c73d
00000130: 703c 4ebc bd86 6cbe fd39 d2be f7f4 003d
00000140: 1e8d 55bd 38d3 b9be 7e67 84bd 22e2 91be
00000150: 4207 f4be 80c1 41be c424 a13e 903a 94be
00000160: 44de 213f f47f abbd 51f4 d1bd 1bb9 f03c
00000170: e9ee 3d3e b5a9 6d3e 4393 173f 04bf 8bbe
00000180: f723 2e3e 01cf dcbc 0abd c8bd c291 943e
00000190: bd77 f63e 40a1 44be cfe9 cdbe 7426 503f
000001a0: 46ad 653d 4df0 48be 2fa8 f0be 60f8 ef3e
000001b0: a532 db3d 2b3c 62bd 58ac 333b 740c cb3d
000001c0: e6ff d7bd f8b0 46bd 0785 3a3f 94ac e2bd
000001d0: d2f3 3dbe 9847 87be c656 0dbe 5f90 2d3e
000001e0: 1504 363f 5fb4 2bbe 056c 21bd ae24 86bd
000001f0: a413 d73c f7a8 643c 05c3 343e 039a b13e
00000200: b5bc 4fbe 2387 e6bc 402c 1c3d b438 fabd
00000210: 86d4 debe 5645 39bc 9309 00be 2663 e3be
00000220: 97e4 8abc d7a7 3cbe dc28 dbbd e5cb 58bf
00000230: 1c31 d7be eb1d 303e d267 fc3e c655 643f
00000240: 8270 6bbe 6d08 49be d7f0 31bf e393 96be
00000250: fdae cfbe 61f6 6ebd ec22 22bd 0614 90be
00000260: 714e f3bd d403 90be 0bff 6e3e 82d5 4fbe
00000270: f177 dfbe 880a b83e d664 033e 3a8d 96be
00000280: 64db 063e b2cd 2bbe b4dd b2be 5ddd 1b3e
00000290: fb57 813d 260f 0bbf e95a e8be c3e6 75be
000002a0: b6a6 69be fa29 473e 730e e2bd ae3e 87bd
000002b0: 6028 20be 47c6 f73e 78a6 e93d 01a1 883e
000002c0: cabe db3d b75d 39bd 066b 8b3e 4f15 8abe
000002d0: c29a cb3e 08dc 043e 3bec f1bd 10f1 743e
000002e0: b732 ab3e d4eb b23e af4e 0dbf 9c44 b9bd
000002f0: 8d66 963e b233 bc3e 9143 94be a8e1 163e
00000300: 798b b5be e075 a53e 2999 c43e 9936 b2be
00000310: 845d 42bf 41ce 6d3d 7057 a4bd 3be1 83be
00000320: 977e 48bf c4f5 7e3e f2e4 f63e ca92 023f
00000330: 108c a3be 5345 24be cd64 d93c 5db5 413f
00000340: 97e9 de3e f0d6 a8bd aeef 6bbe efd5 57be
00000350: d38d 44bd f10a 033f 8112 8c3e 8cfb 263f
00000360: 9396 fabe 6fb8 84be adce 4e3d c667 98be
00000370: 5dcc 143f eae3 83be 57d9 163f da0d d3be
00000380: 057c 3d3e d238 94be b5f3 6d3e e02f 0bbf
00000390: ac55 f6be 18b6 d7be 53dd c0be fed9 6fbe
000003a0: fbc7 40bd 40ff 22be 0379 f3be ae77 b23e
000003b0: 8d06 21bf 20d4 9b3d 562a 4c3e 32c2 aabc
000003c0: d732 42be 0a06 01be 8b1a aabe 01b2 c2bc
000003d0: b303 253e e478 d1be d824 5c3d 645a b4be
000003e0: 430a 2cbe bb90 acbe 27e1 b6be 5e34 fdbd
000003f0: aa87 61be 456c 0fbf a54e 66be 4604 473e
0.40350533 -0.22155286 0.2650725 0.51803815 0.17898218 -0.014626454 -0.24333587 -0.3284674
0.10231602 0.43396795 -0.5007233 0.24581303 -0.3711671 0.23966077 -0.26855415 -0.29153794
-0.09856478 -0.29217923 0.41409388 -0.45871747 -0.13936004 0.14741479 0.13114728 0.57297224
-0.08010489 -0.3862179 0.066045195 0.10908805 0.13251106 0.12954271 -0.26088274 -0.13605037
-0.08357844 -0.0149923125 -0.31492156 0.55871445 0.8909553 -0.026126184 0.3812753 -0.23471834
0.49613953 -0.12460271 0.49943894 -0.31884396 0.009092798 0.6289253 -0.14723244 -0.1226563
0.4299764 0.20643483 0.48246178 -0.25420752 0.3216222 -0.9119654 -0.2946081 0.3410439
-0.4593348 0.28658023 -0.12506872 -0.30226016 0.49115378 -0.19273569 -0.012617433 0.112405434
0.1623404 -0.16779414 0.12659755 1.1724355 0.56890565 0.246876 -0.4957668 -0.28147456
-0.0129223745 0.22749127 -0.20435326 0.09765276 -0.012587652 -0.23098274 -0.41059867 0.031483617
-0.052136533 -0.3629396 -0.06465052 -0.28492838 -0.47661787 -0.1892147 0.31473362 -0.2895093
0.63229775 -0.083740145 -0.10251678 0.02938514 0.18548168 0.2320927 0.5920908 -0.2729417
0.17005907 -0.026954176 -0.09801681 0.29017454 0.48138228 -0.19202137 -0.40217444 0.81308675
0.05607345 -0.19622917 -0.47003314 0.46869183 0.10703019 -0.055233162 0.0027415957 0.099144846
-0.10546856 -0.048508614 0.72859234 -0.11068073 -0.18550041 -0.2642181 -0.13802633 0.16949604
0.7109998 -0.16768025 -0.039409656 -0.06549965 0.026254483 0.0139563 0.17652519 0.34687814
-0.2028683 -0.02814061 0.038128138 -0.122178465 -0.43521518 -0.011308035 -0.12503652 -0.44411582
-0.016954703 -0.18423401 -0.10701153 -0.8468612 -0.42029655 0.17198913 0.4929796 0.8919338
-0.22992137 -0.1963212 -0.6950812 -0.29409704 -0.40563193 -0.058340434 -0.039584085 -0.28140277
-0.11880196 -0.2812792 0.23339479 -0.2029629 -0.43646196 0.35945535 0.12831435 -0.29404622
0.13169628 -0.16777685 -0.3493477 0.15221162 0.06315609 -0.5431999 -0.4538186 -0.2401381
-0.22817501 0.19449607 -0.11037912 -0.06603752 -0.15640402 0.4839346 0.114087045 0.26685336
0.107297495 -0.04525539 0.2723009 -0.26969382 0.39766508 0.1297456 -0.118126355 0.23920083
0.3343713 0.34945548 -0.55198187 -0.09046289 0.29375115 0.3675819 -0.289578 0.14734519
-0.35457972 0.32316494 0.38398102 -0.3480728 -0.75923944 0.058058027 -0.0802449 -0.25757775
-0.7831816 0.2489844 0.48221546 0.5100523 -0.31942797 -0.1604207 0.026537323 0.75667363
0.4353759 -0.08244121 -0.2304065 -0.21077703 -0.047986817 0.5118857 0.27357867 0.6522758
-0.48943004 -0.25921962 0.05049007 -0.29766673 0.58124334 -0.25759822 0.58925384 -0.41221505
0.18504341 -0.289496 0.23237498 -0.54369926 -0.48112237 -0.42131114 -0.37668857 -0.23423001
-0.047065716 -0.15917683 -0.47553262 0.34856933 -0.6290062 0.07608819 0.19938025 -0.020844553
-0.18964706 -0.1259996 -0.33223376 -0.02376652 0.16114692 -0.40912545 0.053746074 -0.35225213
-0.1680079 -0.3370417 -0.35718653 -0.12363504 -0.22024408 -0.5602458 -0.22490938 0.19435224

output.weight f4 [4, 256]
00000000: 3a16 123c 8bab 3d3c 8502 703d 472f 563c
00000010: f5bc 003e 80c8 84bd 4d7a 093f 19af efbc
00000020: 9be6 3ebd 2ce5 e23b 4933 223c b8a5 ee3c
00000030: 9ea4 24bd 79df 74bc 0e2c 72bc 8186 ef3e
00000040: 406f a43d 738c 7d3c aca4 96bc 3a8a ddbc
00000050: acd0 8bbd 6f58 76bb 9366 94bd a814 debb
00000060: 48de 023e 88c9 e73c a7f0 1abd 2b5e 8bbd
00000070: 6270 acbd 1322 b0bc 2df9 d83d 4bfc aa3d
00000080: 42d6 943e 417a 16bd 9552 8cbc 468a 86bd
00000090: daec 753d e428 bb3d f12b 033b 2bdd ed3e
000000a0: 58b9 923d a257 b93c a072 c83c 7892 6f3c
000000b0: 50b4 6abd b0ba f2bb 96f3 523d 858b 62bd
000000c0: fc67 00bc bacb 8fbd e24a 793d 705c 8c3e
000000d0: 7ee3 dbbc 50b5 10bc a3d7 173f 2aaa 64bc
000000e0: f3d1 5cbe a446 293c 23e9 11bd 4b64 013d
000000f0: eb5a d8bc 5323 4b3e 02f9 24bd 6771 ad3c
00000100: 50aa 8fbd 5742 193e 83be 43be 02ff 29bb
00000110: 5630 ee3b 5ed5 bcbb 623c d03e d1e2 e63d
00000120: 5f16 383d 7939 193d d0dd a33b 6493 7dba
00000130: f431 ac3d 3a68 cb3b 6358 5cbd 4b5d 4ebd
00000140: b209 9d3c 3eb0 6f3b ab20 25bc 6542 93bf
00000150: 4c21 a8bc 5bc3 bbbd c1d3 0d3e 8e6b 25bd
00000160: 15af 19bc cacc c8be 26aa 583e d0d7 9dbd
00000170: a47f a83d 2b1b f83c 90b5 363c 318d 29be
00000180: 2867 573c 5919 50be 6879 acbc 0658 07bc
00000190: 8e90 2f3b dfa2 c23d 55ef 07be f733 cd3c
000001a0: 0fcd 20bd c8a3 2b3b 73c2 aebe 1f13 39bd
000001b0: 8ffa 93bd bb89 2a3c e8aa 21be 5e21 f8bc
000001c0: 5cc4 2d3e 8b86 3d3d 13db 213c 6fcb abbc
000001d0: 2c1a e7bd 3c9b 5a3e c462 14be 1581 89bd
000001e0: d29e 1e3c 43e5 c93d 8c04 64bd e1bf bebe
000001f0: 3727 c4bd 96f0 903d b3ef af3d 38da 123b
00000200: 934f 103d a6d9 203d 7989 b5bd 2823 193f
00000210: 8b30 3c3d 951f de3c d083 ec3c 0781 76bc
00000220: d3d1 42be 12f2 303e 2a5f 51bd 4641 0b3d
00000230: 4203 303b 6f6a 8a3d 8e4e 363a 7c12 7a3c
00000240: 87dd 293e 1c94 dcbd af77 233b df20 623d
00000250: 8532 b6bf bd04 a1be cfdc 97bd 895b 8f3d
00000260: b47c 5cbe 8474 84be 9ad5 d1bb f78f d03c
00000270: 7e97 3abf fd6b efbc d942 ea3d 78d2 b0bd
00000280: 65c0 d4bb 4886 293c d2cc 86bd 090e 07bc
00000290: 521c 1dbd d0a6 51bf d908 2a3f 5d25 61bc
000002a0: bb53 a8be 4c26 803d 44e7 0bbd 16f3 843e
000002b0: dc76 0cbc 8e6c 56bd a6d4 babd 4fe1 1b3c
000002c0: 2bf1 9b3c f3da 6bbd dbaf 0e3d ee2e 80bf
000002d0: 26bf 1abc a9f6 ae3d b328 83bc 45bc 093c
000002e0: 612a b13c d52d eaba e118 67bc 78e6 4b3c
000002f0: 9e68 f93c 5353 84bd 5503 b83e cc88 353d
00000300: dcdc c8bd 6c16 7d3c 078b 4e3d 6503 853b
00000310: 995d e03b 8de6 4b3d f31b 363e bc37 45be
00000320: 6f83 c3bb 4b6e cc3c 1705 733d 5f95 b0bd
00000330: 4a55 e53c bb5b 95bc d2a5 06bd a3f0 4e3c
00000340: 61b1 633d f937 ee3c 630a fb3e bfb0 fa3e
00000350: a134 2bba e88c 193d 8879 303c dddb 66bc
00000360: a14d 6a3f de5f 6cbd fce0 e93d 8e94 2c3f
00000370: a537 f03c 7bb2 e7bc b6c3 57bd b6d3 12be
00000380: 75b2 113d 22a0 113d 4811 683c 4002 f5b5
00000390: 79cc d23c d3bb ecba 916c 6f3d 59e8 a03d
000003a0: 086f 60bd 0082 eebd bcbe 293f cf76 a8bd
000003b0: e5fd 1a3f 4e90 c03b 558c 91bb 82e8 b9bd
000003c0: a5cc 8dbe 9e40 44bd 6d3b 743e 313d e0bc
000003d0: 922a fc3b a89b 25bf 24ab 8ebc d662 4e3c
000003e0: ffe8 23bd fb69 423e 5561 e3bc 68c6 d7bc
000003f0: 37ab c1bd d6ae 8dbe 0236 a03c 05bf 0fbc
0.008916432 0.011576544 0.058596153 0.013072795 0.12572081 -0.06483555 0.5370224 -0.029258298
-0.04660664 0.006924292 0.009899923 0.029131755 -0.040196054 -0.014945858 -0.014781011 0.46782306
0.08029032 0.01547538 -0.018389069 -0.02704345 -0.068269104 -0.0037589332 -0.07246127 -0.0067773648
0.12780106 0.02829434 -0.03782716 -0.068050705 -0.08419873 -0.021500623 0.105944015 0.08348902
0.29069716 -0.036737684 -0.017129222 -0.06569342 0.060040332 0.09138659 0.0020015205 0.464578
0.07164258 0.022624794 0.02446872 0.014622323 -0.057300866 -0.007407509 0.051501833 -0.055308837
-0.007837292 -0.0702128 0.06086243 0.27414274 -0.026841875 -0.008832291 0.5931341 -0.013956586
-0.21564464 0.010331783 -0.035622727 0.031589787 -0.02641054 0.19837694 -0.040276535 0.021172239
-0.070149064 0.14966713 -0.19115643 -0.002593935 0.0072689457 -0.00576274 0.40671068 0.112737305
0.04494321 0.037408326 0.0050008073 -0.0009673147 0.08407965 0.006207493 -0.05379523 -0.05038194
0.019169662 0.0036573554 -0.010078589 -1.1504637 -0.02052369 -0.091681205 0.13850309 -0.040385775
-0.009380122 -0.39218742 0.21158656 -0.077071786 0.082274705 0.030286392 0.011151686 -0.16557766
0.013147153 -0.2032217 -0.021053985 -0.0082607325 0.0026789042 0.095037214 -0.13274892 0.025049193
-0.03925806 0.002619015 -0.34132728 -0.04518425 -0.07225525 0.010408814 -0.15787852 -0.030289348
0.16969436 0.04627089 0.0098788915 -0.020971028 -0.11284289 0.2134828 -0.14490801 -0.067140736
0.00968142 0.09858181 -0.0556684 -0.37255767 -0.09577792 0.07077138 0.08590641 0.00224079
0.035232138 0.039270066 -0.088641115 0.5981927 0.04594473 0.027114669 0.028871447 -0.015045411
-0.19025354 0.17279842 -0.051116146 0.033997796 0.002685741 0.06758582 0.00069544546 0.015263196
0.16588412 -0.10770437 0.0024943163 0.05520713 -1.4234167 -0.31448928 -0.07415163 0.06999881
-0.21531945 -0.25870144 -0.006403637 0.025459273 -0.7288741 -0.029226298 0.114385314 -0.08633894
-0.006492662 0.010346957 -0.06582035 -0.008243092 -0.038357086 -0.8189516 0.6641975 -0.013741818
-0.3287638 0.062573045 -0.0341561 0.2596671 -0.00857326 -0.05234962 -0.09122591 0.009514167
0.019035896 -0.057581853 0.034835678 -1.0014322 -0.009444987 0.085431404 -0.016010618 0.008406703
0.021626653 -0.0017866442 -0.014105053 0.012445085 0.030445393 -0.06461205 0.35940042 0.044319913
-0.098077506 0.01544724 0.050425556 0.0040592426 0.006847095 0.049780417 0.177841 -0.19259542
-0.005966596 0.024954936 0.059331026 -0.0862224 0.02799477 -0.018232217 -0.032872982 0.012630614
0.055589084 0.029079424 0.49031362 0.48962972 -0.00065309746 0.037487894 0.010771163 -0.014090505
0.915247 -0.057708614 0.114198655 0.67414176 0.029323408 -0.028283348 -0.05267688 -0.14338574
0.03557058 0.035553105 0.014164276 -1.8254577e-06 0.025732266 -0.0018061347 0.058453146 0.07856817
-0.054793388 -0.11645889 0.6630666 -0.08225786 0.6054366 0.0058765775 -0.0044417777 -0.090775505
-0.27695194 -0.047913186 0.23850794 -0.027372928 0.0076955045 -0.6469064 -0.01741559 0.0125968065
-0.040017124 0.18985741 -0.027756372 -0.026339725 -0.09456485 -0.27672452 0.019557003 -0.00877357

output.bias f4 [4]
00000000: a535 9bbb f075 b2bb 6a66 ae3a bbcb 61bc
-0.0047366195 -0.005446188 0.0013305668 -0.013781483
