DDPG-HER/Pre-trained models/FetchPickAndPlace-v2_final.pth (torch, 563917 bytes, 8 tensors)

fc1.weight f4 [256, 28]
-0.050590377 -0.27083308 -0.057408392 -0.19649662 -0.22597289 0.31174037 -0.13891324 0.3964598
0.07577214 0.095840916 -0.042835727 0.082990505 -0.057466518 -0.14071953 -0.19570008 0.18267034
0.074301146 0.02849435 -0.016580276 0.0018026421 -0.11529328 0.1796814 0.05907366 -0.03805224
0.045359332 0.20067917 0.64988685 -0.81396496 -0.37647742 0.0581878 -0.2655382 0.43086728
-0.38129908 0.37881756 0.73328394 -0.6943042 0.18799429 0.15478043 -0.06875481 0.028904254
-0.005970956 -0.02325197 0.02120336 -0.09215532 0.03652727 0.015607624 -0.059411354 -0.03389931
0.0780114 -0.030632934 0.0880546 -0.094102114 -0.12159452 0.043985896 0.38408944 -0.5001018
-0.29302585 -0.09328154 0.09345731 -0.46069562 -0.14512335 0.027269032 -0.28181294 -0.18599147
-0.09504021 0.057997942 -0.062952794 -0.00475292 -0.0016481506 0.019482214 -0.18001479 -0.051574685
0.020014033 0.015496542 -0.01057399 -0.022218993 -0.15979815 -0.07188968 0.00159129 -0.012350725
0.047397513 0.801581 0.2963418 -1.8017377 -0.27839184 0.107698925 0.22130018 -0.56959736
0.1654022 -0.18695353 -0.54526186 0.04941195 -0.11353457 -0.017802227 0.14977755 0.016114194
0.02551927 -0.02090471 -0.28539148 -0.018678017 0.116497904 0.031897992 0.029418971 -0.0765687
-0.37551618 0.04045465 0.04929576 0.028680608 0.030237436 -0.024962578 -0.27875757 -0.024844231
-0.18014862 0.37577012 0.17800707 0.25755692 -0.4378504 -0.19881329 1.0151894 -1.1061256
-0.41246772 0.10591276 0.03723541 -0.003361135 0.046138406 0.046529166 0.13509668 -0.11990298
-0.08204858 -0.027100345 -0.039200805 0.034094457 0.16411604 -0.11247995 -0.094811045 0.09743683
0.058870733 -0.079475574 0.033088814 0.04103616 0.5788507 0.10167508 0.13677295 0.5800057
-0.057115775 -0.13580191 0.75472224 0.162858 0.07491287 -0.005072007 0.1131859 -0.01351545
0.042481944 0.0047991686 0.17929757 -0.07976556 -0.04424356 -0.0039856164 -0.010451292 0.010934214
0.16132523 -0.04503036 -0.116092704 -0.06653929 0.022001164 -0.054064095 -0.027249552 0.010703158
-0.1132917 -0.18374212 -0.09172104 -0.0061278054 0.22914863 0.39014003 -0.0725221 0.4367576
0.13182616 0.40597463 0.34608305 0.0063686105 -0.05243922 -0.02551724 -0.050129075 0.24415971
0.14577052 0.05434462 0.013381121 0.01851314 -0.10049513 0.25568086 0.20365421 0.11274937
0.21309912 0.046646386 -0.018580688 0.032884654 -0.37166718 -0.042487092 -0.063485295 -0.41469678
-0.013805201 -0.05505371 -0.2631167 -0.02946993 -0.103088506 0.039929442 0.05158841 0.02232029
0.029747477 0.007638165 -0.1859196 -0.06430887 0.0063291173 0.036774334 -0.007235606 -0.0059205787
-0.26029447 -0.033989538 0.057735626 0.034826804 0.05046076 0.8977969 0.13127545 -0.08658068
0.1571864 0.22954643 -0.12191386 0.2936844 0.03389671 0.15563124 0.29126188 0.18889089
0.07615331 -0.06749975 -0.09623573 0.024890285 -0.0006946455 -0.09623666 0.039618645 0.1095004
-0.034916587 0.09362108 0.06733216 -0.04213769 0.08463279 0.13377532 0.03923097 -0.06751832
0.027000822 0.49058396 -0.30934963 -0.10845306 0.50450146 0.40837547 0.06391942 -0.6129079
00000000: db37 4fbd a2aa 8abe 1025 6bbd 6936 49be
00000010: 7065 67be 6f9c 9f3e 463f 0ebe c7fc ca3e
00000020: 6c2e 9b3d 3e48 c43d 8474 2fbd edf6 a93d
00000030: 0362 6bbd c818 10be 9a65 48be ef0d 3b3e
00000040: 332b 983d fc6c e93c 5cd3 87bc a246 ec3a
00000050: e21e ecbd 67fe 373e 39f7 713d aadc 1bbd
00000060: b5ca 393d d77e 4d3e fc5e 263f 0260 50bf
00000070: a6c1 c0be 5556 6e3d 9ff4 87be a39a dc3e
00000080: a239 c3be 60f4 c13e 7fb8 3b3f ecbd 31bf
00000090: 9381 403e c37e 1e3e 52cf 8cbd 9dc8 ec3c
000000a0: 02a8 c3bb ea7a bebc abb2 ad3c eebb bcbd
000000b0: 9e9d 153d 1fb7 7f3c 5259 73bd 01da 0abd
000000c0: 71c4 9f3d ebf1 fabc f855 b43d 9cb8 c0bd
000000d0: 8c06 f9bd 8e2a 343d 5fa7 c43e ac06 00bf
000000e0: 7c07 96be 640a bfbd 8c66 bf3d 4ce0 ebbe
000000f0: 379b 14be 4e63 df3c c949 90be 8c74 3ebe
00000100: 71a4 c2bd 408f 6d3d 65ed 80bd 62be 9bbb
00000110: c206 d8ba 2a99 9f3c cc55 38be fa3f 53bd
00000120: 78f4 a33c 35e5 7d3c 873e 2dbc 9b04 b6bc
00000130: 20a2 23be e63a 93bd d592 d03a b25a 4abc
00000140: e523 423d 6a34 4d3f 1dba 973e 579f e6bf
00000150: 6089 8ebe 4191 dc3d 849c 623e 22d1 11bf
00000160: 325f 293e bf70 3fbe 4896 0bbf 2f64 4a3d
00000170: d084 e8bd fad5 91bc 495f 193e ea01 843c
00000180: ca0d d13c 5b40 abbc d51e 92be a402 99bc
00000190: 7496 ee3d 78a7 023d 0e00 f13c 0dd0 9cbd
000001a0: a843 c0be c6b3 253d 5aea 493d 98f3 ea3c
000001b0: 80b4 f73c 527e ccbc 50b9 8ebe 2186 cbbc
000001c0: e178 38be f164 c03e 7c47 363e 80de 833e
000001d0: ed2d e0be b695 4bbe baf1 813f 8695 8dbf
000001e0: f82e d3be cae8 d83d 2884 183d 7d46 5cbb
000001f0: a0fb 3c3d 5e95 3e3d c956 0a3e b28f f5bd
00000200: 1609 a8bd 8b01 debc 0691 20bd a1a6 0b3d
00000210: 090e 283e e35b e6bd 4b2c c2bd f68c c73d
00000220: 7022 713d 17c4 a2bd 2388 073d 8815 283d
00000230: 8f2f 143f 063b d03d 350e 0c3e 417b 143f
00000240: 3bf2 69bd a80f 0bbe 7a35 413f 3fc4 263e
00000250: eb6b 993d 1433 a6bb 02ce e73d e86f 5dbc
00000260: 8c01 2e3d 5842 9d3b c899 373e 205c a3bd
00000270: bc38 35bd c699 82bb e53b 2bbc 6b25 333c
00000280: 7132 253e c171 38bd 03c2 edbd c045 88bd
00000290: c93b b43c 5072 5dbd 743a dfbc 4c5c 2f3c
000002a0: 7b05 e8bd e526 3cbe 3ed8 bbbd c2cb c8bb
000002b0: f0a5 6a3e 6fc0 c73e 7786 94bd b19e df3e
000002c0: 70fd 063e e8db cf3e cc31 b13e c7af d03b
000002d0: 82ca 56bd 8809 d1bc 2554 4dbd 0105 7a3e
000002e0: de44 153e 7798 5e3d 7d3c 5b3c dea8 973c
000002f0: 64d0 cdbd 9ae8 823e bb8a 503e 24e9 e63d
00000300: a836 5a3e 4810 3f3d 8736 98bc 0fb2 063d
00000310: 294b bebe f206 2ebd 9404 82bd 2353 d4be
00000320: 362f 62bc 0080 61bd 3bb7 86be ec6a f1bc
00000330: 1120 d3bd 0e8d 233d 5e4e 533d 0ad9 b63c
00000340: fbb0 f33c 9249 fa3b b561 3ebe 5eb4 83bd
00000350: 7c64 cf3b afa0 163d aa18 edbb 6a01 c2bb
00000360: 5145 85be 9d38 0bbd 317c 6c3d 8da6 0e3d
00000370: f1af 4e3d 05d6 653f 126d 063e 3651 b1bd
00000380: 79f5 203e 380e 6b3e f9ad f9bd cd5d 963e
00000390: 47d7 0a3d cc5d 1f3e 4720 953e 9d6c 413e
000003a0: 44f6 9b3d 4f3d 8abd 3d17 c5bd b6e6 cb3c
000003b0: df18 36ba ba17 c5bd 2947 223d bf41 e03d
000003c0: b204 0fbd 69bc bf3d 72e5 893d 9298 2cbd
000003d0: f553 ad3d 66fc 083e a7b0 203d 0c47 8abd
000003e0: d430 dd3c d22d fb3e 1363 9ebe a31c debd
000003f0: 0227 013f 9716 d13e 2fe8 823d 88e7 1cbf

fc1.bias f4 [256]
-0.8503222 -0.9965726 0.2845262 -1.7607412 0.07815252 -1.9482836 -0.78055036 0.5327761
-1.4238428 -0.43324286 -0.42274562 -0.6823623 -0.9041677 -1.0000927 -0.9838831 -0.55640167
-1.1029173 -0.84348327 -1.1820506 -0.77257746 -1.2317337 -1.1372254 -0.87724686 0.09375242
-0.75013983 -0.47456837 -1.7732388 0.1575783 -0.6160766 -0.55888045 0.767862 -1.2508537
0.8393773 -0.9639472 -0.6281949 0.27936393 -1.2752886 0.33721468 -0.32226437 -0.26030815
-0.07085382 -0.93357736 -0.74611163 1.1087871 -1.3292726 -0.47224337 -0.96616656 -0.92223746
-0.278819 -0.87776685 -0.94372785 -0.30264747 -0.5481064 -0.7930475 -1.0054822 -0.6350287
-0.9535284 -1.1745533 -1.030098 -0.6921802 -0.48965216 -0.6253717 -0.70311475 -1.1899475
-0.37265185 -0.6265967 -0.95720464 -1.008909 -0.46183118 -1.0469698 -0.6677078 -0.5799675
-0.25311667 -0.0965483 -0.5346752 -0.48359078 -0.58633935 -0.74145323 -1.5224276 -1.0644923
-1.0161701 -0.6250053 -0.024882775 -0.68436337 -0.5708271 -0.6428384 -1.128381 -0.78221613
-0.8397574 -0.623705 -1.478682 -0.7504135 -1.4255457 -1.0937293 0.2449084 -1.8955213
-0.32263154 -0.016197503 -0.50470704 -0.046524893 -0.56159323 -0.40153807 -0.65608275 -1.3437839
-1.0352396 -0.8206243 -1.129484 -1.248174 -1.1366227 -1.3417525 -1.0204853 -0.41935205
-1.4474912 -1.062649 -2.391261 -0.15997721 -1.55342 -0.4526014 -1.4901599 -0.87184995
-0.41941044 -1.2930068 -1.1333218 0.1300543 -0.75541157 -0.3513144 -1.3368286 -1.2350222
-1.7392837 -0.54335743 -0.6944529 0.48377275 0.30990443 0.48029146 -1.1360233 0.5699383
-1.1532631 -0.11895545 -0.6658176 -0.5253318 -0.63758945 -1.6221437 -0.7067279 -0.48637643
0.28578576 -0.73315334 -1.5040488 0.6135701 -0.4629098 -0.6156064 -0.4673883 -1.6089813
-1.2581701 -1.2848588 0.54631484 -1.2037176 -1.1061074 -0.3935447 -0.9047448 -0.54320014
-0.6106495 -0.9803193 -0.9991403 0.28913602 -2.2766185 -1.379642 -1.8315579 -0.32622132
-0.5951684 0.6052075 -1.0764503 -0.5673018 -1.013676 -1.5058742 -0.031316534 0.40910497
-0.040035293 -0.05042504 -1.5299135 -0.7404674 -1.1584326 -1.4442787 -0.2191916 -0.67383385
-0.97402906 -1.1648633 -2.3328173 -1.2002238 -0.6887963 -1.0526268 -1.2828162 -1.2290697
-0.6314082 0.09232549 -0.30746627 -0.5679434 -1.0743101 -0.31257746 -0.4521525 -0.18454197
-1.1317309 -1.0075606 -0.95406455 -0.5721812 -0.6444331 -0.72484577 -1.2842023 -1.5533205
-0.377701 -0.840413 0.17747043 -0.39410678 -1.224362 -0.1470321 -0.50631595 -0.85310584
-1.7777231 -1.9031864 -0.83585966 0.24619555 -1.3339767 -0.7673342 0.9177555 -0.44341314
-0.31970564 -1.9829357 0.043080706 0.22643209 0.056102496 -0.5077903 -1.4223331 -0.8251458
0.80665106 -0.9358541 0.11210732 -1.2039738 -1.2456555 -0.27068284 -0.6942462 -0.51630306
-0.6644849 -1.3633373 0.032662183 -2.1390078 -0.89288074 -1.0866216 0.51244825 -1.2981876
-1.580233 -0.12075048 0.3654956 -0.5686932 -0.9994838 -0.98254645 -0.9553995 -0.5897056
00000000: b7ae 59bf 621f 7fbf 6bad 913e f85f e1bf
00000010: 6e0e a03d 5b61 f9bf 26d2 47bf 0464 083f
00000020: 7b40 b6bf 02d2 ddbe 1d72 d8be 4caf 2ebf
00000030: 8977 67bf 0a03 80bf c3df 7bbf 5770 0ebf
00000040: 652c 8dbf 85ee 57bf 6f4d 97bf a3c7 45bf
00000050: 73a9 9dbf 9a90 91bf 4093 60bf 4501 c03d
00000060: 2a09 40bf a0fa f2be 7df9 e2bf 355c 213e
00000070: 32b7 1dbf ca12 0fbf 9b92 443f f91b a0bf
00000080: 6ee1 563f 3ec5 76bf 62d1 20bf ca08 8f3e
00000090: a83c a3bf 67a7 ac3e d6ff a4be 1c47 85be
000000a0: cf1b 91bd edfe 6ebf 2c01 3fbf bcec 8d3f
000000b0: 9b25 aabf e2c9 f1be b156 77bf c117 6cbf
000000c0: 5dc1 8ebe 54b5 60bf 2698 71bf 9cf4 9abe
000000d0: b350 0cbf 2905 4bbf a4b3 80bf 3e91 22bf
000000e0: 701a 74bf c357 96bf 40da 83bf b932 31bf
000000f0: b0b3 fabe 5c18 20bf 54ff 33bf 3350 98bf
00000100: 39cc bebe a468 20bf 5d0b 75bf ee23 81bf
00000110: 2375 ecbe 1b03 86bf e6ee 2abf c078 14bf
00000120: 8298 81be 1dbb c5bd 79e0 08bf 3699 f7be
00000130: 561a 16bf e1cf 3dbf e8de c2bf 4941 88bf
00000140: dd11 82bf 5900 20bf f6d6 cbbc 7032 2fbf
00000150: ba21 12bf 0f91 24bf ca6e 90bf 513f 48bf
00000160: 57fa 56bf 22ab 1fbf 7445 bdbf 191b 40bf
00000170: 4878 b6bf 52ff 8bbf 45c9 7a3e 71a0 f2bf
00000180: f62f a5be a0b0 84bc 7b34 01bf e390 3ebd
00000190: 93c4 0fbf 6696 cdbe 0af5 27bf 1c01 acbf
000001a0: bb82 84bf 6f14 52bf ef92 90bf 2ac4 9fbf
000001b0: da7c 91bf 8cbe abbf 439f 82bf 50b5 d6be
000001c0: 6447 b9bf e204 88bf 6c0a 19c0 11d1 23be
000001d0: 77d6 c6bf 5fbb e7be 8fbd bebf 8f31 5fbf
000001e0: f7bc d6be 3f81 a5bf b010 91bf f42c 053e
000001f0: a762 41bf 7bdf b3be 331d abbf 3515 9ebf
00000200: d9a0 debf 7919 0bbf aac7 31bf 10b1 f73e
00000210: cbab 9e3e c3e8 f53e 3669 91bf 7ae7 113f
00000220: 209e 93bf ea9e f3bd 0673 2abf 257c 06bf
00000230: 1039 23bf 68a2 cfbf 1fec 34bf 5506 f9be
00000240: 8352 923e f0af 3bbf ac84 c0bf ee12 1d3f
00000250: 8302 edbe 6298 1dbf 854d efbe 19f3 cdbf
00000260: b80b a1bf 4176 a4bf 4adb 0b3f 6b13 9abf
00000270: ed94 8dbf b17e c9be 5b9d 67bf 2a0f 0bbf
00000280: 8753 1cbf 35f6 7abf a9c7 7fbf a309 943e
00000290: 1eb4 11c0 1c98 b0bf 7d70 eabf 7b06 a7be
000002a0: f55c 18bf e1ee 1a3f 20c9 89bf b13a 11bf
000002b0: 23c0 81bf 7cc0 c0bf c445 00bd 3576 d13e
000002c0: 0cfc 23bd 7d8a 4ebd 35d4 c3bf 468f 3dbf
000002d0: 8547 94bf 20de b8bf c373 60be 6080 2cbf
000002e0: f859 79bf 3e1a 95bf e14c 15c0 efa0 99bf
000002f0: f454 30bf 7abc 86bf 5233 a4bf 2852 9dbf
00000300: f8a3 21bf 2615 bd3d 386c 9dbe bd64 11bf
00000310: fe82 89bf 270a a0be 8880 e7be 92f8 3cbe
00000320: 8fdc 90bf bff7 80bf 933d 74bf 787a 12bf
00000330: 91f9 24bf 7e8f 39bf be60 a4bf 35d3 c6bf
00000340: 0762 c1be 4e25 57bf cfba 353e 5dc8 c9be
00000350: e5b7 9cbf 958f 16be ec9d 01bf 2565 5abf
00000360: 6e8c e3bf 9d9b f3bf e6fa 55bf b01a 7c3e
00000370: c0bf aabf 0470 44bf 06f2 6a3f 0c07 e3be
00000380: 75b0 a3be d6d0 fdbf 6575 303d d0dd 673e
00000390: bbcb 653d 8cfe 01bf 030f b6bf c13c 53bf
000003a0: af80 4e3f 2294 6fbf 8698 e53d d01b 9abf
000003b0: a471 9fbf f196 8abe 1eba 31bf 702c 04bf
000003c0: af1b 2abf d681 aebf c8c8 053d 81e5 08c0
000003d0: d593 64bf 6b16 8bbf cf2f 033f 032b a6bf
000003e0: 1345 cabf 074c f7bd 3d22 bb3e e195 11bf
000003f0: 2cde 7fbf 2a88 7bbf 1095 74bf f2f6 16bf

fc2.weight f4 [256, 256]
-0.47082123 -0.071442366 0.018174058 0.08532613 0.18740205 -0.44462627 0.082183145 0.11857214
-0.4633853 0.27891198 -0.29392886 0.36305702 -0.21610975 -0.1751437 -0.02207105 -0.2944546
-0.42365253 0.43748352 0.44011396 0.16407104 -0.052483425 0.25273848 -0.4511743 -0.37973726
-0.38972136 -0.70153403 -0.42871684 0.37784943 0.09591974 0.03257818 -0.008392265 -0.4077759
0.0017642432 -0.15379295 0.38085535 -0.18980974 -0.05115895 -0.045222215 -0.50422305 -0.45408258
-0.24338564 -0.2822754 0.19418782 -0.3103836 0.37303644 0.20718846 0.015437947 -0.5231641
0.08187654 -0.4262461 -0.5263769 -0.3742261 0.038584556 -0.057026036 -0.30526015 0.023461545
-0.2251474 0.20129254 0.30448827 -0.3316414 -0.21896818 -0.37059835 -0.92715067 -0.18766181
0.11912798 -0.41243535 -0.3992988 -0.34321046 -0.5725994 0.14609869 -0.70257694 -0.17272209
-0.58328813 0.36264616 0.36273915 0.022159433 0.18016988 -0.29084256 0.18378247 0.15252131
-0.3750743 0.11938121 -0.1854752 0.11945349 0.14454325 0.5914466 -0.51342404 -1.4395744
0.30340734 -0.21301821 0.52581614 -0.043446727 0.18587498 -0.05367333 -0.2507718 0.6338271
-0.4100867 -0.480593 0.28931662 -0.43628654 -0.5659204 0.33158395 0.08397629 -0.30201456
-0.74256 0.0123088835 -0.013621922 0.099679746 0.4212175 -0.13251017 0.19089915 0.20784867
-0.093558215 -0.34347874 -1.1166843 -1.0152631 0.4910181 -0.11693998 -0.02574197 -0.2051642
-0.46373245 -0.051811263 -0.42934173 -0.45798028 0.39505315 0.24670951 0.085739605 -0.11908789
0.17166325 0.022655293 -0.17366979 -0.13033436 0.30270275 -0.119189925 0.5846499 -0.018884808
-0.10141424 0.1480387 -0.11373188 -0.19773757 -0.52859807 -0.22742736 0.03678497 -0.30847546
-0.09136701 0.7810238 -0.087575845 -0.4839966 0.40690148 -1.0510228 0.38179433 -0.06761076
-0.24331842 0.41569334 -0.21643056 -0.15355964 -0.29933265 -0.20561744 0.22036298 0.7247641
-0.29921982 -0.21260342 -0.38876292 -0.3095567 -0.7202901 -0.12547605 -0.22712496 0.24225867
-0.21092556 -0.07436858 -0.34765542 -0.28172925 -0.59999543 -0.08537069 0.27068493 -0.2768454
-0.1005301 -0.09840332 -0.243419 -0.8730629 0.38378713 0.32180288 -0.21591792 -0.50153345
-0.21344832 -0.05311557 -1.3498505 0.45646024 -1.5187594 -0.27020007 0.11356849 -0.008292347
0.2939982 0.19958162 -0.50449055 -0.18044156 -0.27477124 -0.14455692 -0.3407208 0.0741205
-0.4591873 -0.39600873 0.3402554 0.05541215 0.16288725 -0.037301417 0.49774978 -0.013303466
-0.16883054 -0.20266497 0.13676552 -0.9500972 0.34052393 -0.5346735 0.00538112 0.03735846
0.2144176 -0.5845449 -0.80568737 0.5662273 -0.4777145 -0.228386 0.17236264 -0.16960919
0.10996312 0.021402903 0.06332018 -0.029375225 -0.93465936 0.1586697 0.14755407 0.15179403
0.13268992 0.15025078 0.37523 0.15359056 0.35272005 0.09688282 -0.028172772 0.22975782
0.019779665 -0.020874724 -0.33575803 0.17950352 -0.4681478 -0.7086859 0.53721774 -0.29187253
-0.31509173 -0.0017617204 -0.32372156 -0.1603544 0.32896006 -0.34926355 -0.16136844 -0.1514489
00000000: 7b0f f1be 6050 92bd c3e1 943c 77bf ae3d
00000010: 53e6 3f3e 0ea6 e3be a34f a83d f3d5 f23d
00000020: d740 edbe 8dcd 8e3e d87d 96be 9ce2 b93e
00000030: e04b 5dbe df58 33be 59ce b4bc c1c2 96be
00000040: fce8 d8be d7fd df3e 9e56 e13e 3d02 283e
00000050: dcf8 56bd f066 813e 5100 e7be ec6c c2be
00000060: 8f89 c7be bc97 33bf c680 dbbe 7b75 c13e
00000070: 9271 c43d b370 053d b67f 09bc 01c8 d0be
00000080: 2e3e e73a e67b 1dbe 79ff c23e 7c5d 42be
00000090: 0c8c 51bd ee3a 39bd c314 01bf 837d e8be
000000a0: 163a 79be 6786 90be 2cd9 463e 99ea 9ebe
000000b0: a2fe be3e 3629 543e 71ef 7c3c 15ee 05bf
000000c0: e3ae a73d ee3c dabe a3c0 06bf 909a bfbe
000000d0: d70a 1e3d 2294 69bd 0f4b 9cbe 6d32 c03c
000000e0: 0a8d 66be a21f 4e3e e3e5 9b3e e7cc a9be
000000f0: 3239 60be 11bf bdbe bf59 6dbf 6b2a 40be
00000100: 5ff9 f33d ba2a d3be e470 ccbe 48b9 afbe
00000110: e095 12bf e59a 153e 15dc 33bf 0fde 30be
00000120: 5f52 15bf c2ac b93e f2b8 b93e b387 b53c
00000130: 747e 383e 51e9 94be 7931 3c3e 8c2e 1c3e
00000140: bd09 c0be 237e f43d 36ed 3dbe 08a4 f43d
00000150: 2503 143e 0b69 173f c26f 03bf f943 b8bf
00000160: 3558 9b3e 7221 5abe e39b 063f 32f5 31bd
00000170: 0356 3e3e 91d8 5bbd 2965 80be 7e42 223f
00000180: e2f6 d1be 4910 f6be 4f21 943e f360 dfbe
00000190: 29e0 10bf 5fc5 a93e c3fb ab3d a7a1 9abe
000001a0: 6a18 3ebf 33ab 493c 7b2e 5fbc e524 cc3d
000001b0: d2a9 d73e bfb0 07be 117b 433e 48d6 543e
000001c0: 739b bfbd 72dc afbe 83ef 8ebf 24f4 81bf
000001d0: b966 fb3e 3a7e efbd d3e0 d2bc 9016 52be
000001e0: 576e edbe 0c38 54bd aed2 dbbe 647c eabe
000001f0: 6844 ca3e 6ba1 7c3e 3f98 af3d 5ae4 f3bd
00000200: 7ec8 2f3e 9897 b93c 7ed6 31be 5f76 05be
00000210: dbfb 9a3e d919 f4bd 9eab 153f 50b4 9abc
00000220: 45b2 cfbd 7597 173e 43ec e8bd b87b 4abe
00000230: 3452 07bf b8e2 68be d6ab 163d 7ff0 9dbe
00000240: a01e bbbd 2df1 473f f75a b3bd 67ce f7be
00000250: 6455 d03e ea87 86bf 8c7a c33e 8377 8abd
00000260: 7728 79be c2d5 d43e f99f 5dbe bd3e 1dbe
00000270: 2142 99be 618d 52be d5a6 613e 248a 393f
00000280: 5733 99be b6b4 59be ef0b c7be 377e 9ebe
00000290: ef64 38bf cb7c 00be 7293 68be a812 783e
000002a0: dffc 57be 8e4e 98bd e4ff b1be d13e 90be
000002b0: 4d99 19bf d4d6 aebd 3797 8a3e aebe 8dbe
000002c0: bae2 cdbd ae87 c9bd d542 79be 0d81 5fbf
000002d0: bf7f c43e 59c3 a43e 9619 5dbe 7f64 00bf
000002e0: 3292 5abe b68f 59bd e7c7 acbf 28b5 e93e
000002f0: b566 c2bf aa57 8abe 9996 e83d a0dc 07bc
00000300: ef86 963e 205f 4c3e 4b26 01bf acc5 38be
00000310: d1ae 8cbe bb06 14be f572 aebe 7dcc 973d
00000320: 991a ebbe a8c1 cabe f535 ae3e daf7 623d
00000330: eacb 263e 5fc9 18bd 0fd9 fe3e c8f6 59bc
00000340: eae1 2cbe 6887 4fbe 430c 0c3e 9239 73bf
00000350: 2759 ae3e 5de0 08bf 1b54 b03b 2f05 193d
00000360: 4a90 5b3e bca4 15bf 8741 4ebf 46f4 103f
00000370: ff96 f4be 05de 69be d57f 303e 08ae 2dbe
00000380: 5834 e13d 2455 af3c 03ae 813d 50a4 f0bc
00000390: d645 6fbf 4f7a 223e 6a18 173e e56f 1b3e
000003a0: dedf 073e 57db 193e 261e c03e d846 1d3e
000003b0: b997 b43e 806a c63d 96ca e6bc a245 6b3e
000003c0: f708 a23c 7801 abbc 7ae8 abbe c5cf 373e
000003d0: 12b1 efbe 706c 35bf 1a87 093f 5170 95be
000003e0: b453 a1be 87e9 e6ba d5be a5be f233 24be
000003f0: 746d a83e acd2 b2be c53d 25be 6c15 1bbe

fc2.bias f4 [256]
0.30505913 -0.55665505 0.03376521 0.0216103 0.56715965 0.11806025 -0.11234994 0.34362862
0.057757024 -0.06056598 -0.005473214 -1.2441145 0.486143 -1.1987047 0.28268263 0.2464342
0.4088402 0.06947747 -0.16138564 -0.037801683 -0.024803117 -0.035288174 0.6141368 -0.15614374
0.35550275 0.3164236 0.72509795 -0.53798836 -0.119592376 -0.100559026 0.111202925 -0.04976371
-1.1024517 0.5198697 -0.098997325 0.3972712 -0.054251596 0.6550446 0.04820795 0.2802833
-0.04429648 -0.46801263 -0.07759487 0.040317014 0.014431535 -0.037451766 0.11956215 -0.0771866
0.19627225 -0.08122454 0.17338471 -0.10150158 0.006675214 0.44025812 0.5847257 -0.37526107
0.55069894 -0.24745895 0.32791537 0.20000923 0.2669475 -0.7817505 -0.17277431 0.30989587
-0.49725425 0.30133992 -0.048150912 0.2686452 -0.10578022 0.0650365 -0.50038415 0.21984738
0.5607354 0.68447536 -0.7398331 0.39678213 -0.18590452 0.2619175 -0.26150078 0.37788576
-0.049853478 -0.057095096 -0.2627443 -0.9076161 -0.21234265 -0.38909754 0.16338065 -0.09843421
-1.339434 -0.3480333 0.5815706 0.66052955 0.049786568 -0.24121134 -0.019778444 0.5604438
0.09909158 0.045665134 -0.6349218 0.006353131 0.00048770322 -0.047963772 -0.14009413 0.22301999
0.038019333 -0.13865285 -0.077650726 -0.5650334 0.0050881836 -0.072010845 0.07353583 -0.28463203
-0.13350631 0.33428928 -0.26824477 -1.1758368 0.3261509 -0.59388 -0.39579797 -1.2003443
0.7472975 0.5849464 0.7200424 -0.090641215 -0.17253007 0.047065623 0.016725508 -0.022634007
0.44020876 0.17951186 -0.11169545 -0.32942122 0.007443903 0.40202278 0.26504612 0.5819414
0.39021435 -0.05234918 0.0006492598 0.64442295 -0.86138827 0.30770555 -0.3998242 0.79085606
-0.095559336 0.0555103 -0.34353584 -0.30982935 -0.18659015 0.049999963 0.3002734 0.2671844
0.42677063 -0.03614111 0.0048536826 -0.07046308 -0.17883182 0.5757226 -0.054327656 -0.19794908
-0.4107735 -0.2522764 0.19260524 -0.07383467 0.2826822 -0.23657773 -1.6655669 -0.30872187
-0.0835094 -0.66565883 0.14082208 0.15833883 0.013118841 0.71124744 -0.028584573 -0.010753987
0.5558198 0.6123435 -0.034332775 -0.10185873 0.34559092 0.03367314 -0.4090918 -0.051991194
-0.08981596 -0.3251389 -0.11923071 -0.02920441 -0.10067212 -1.9459382 0.023714725 -0.25189903
0.38211936 -0.009298584 -0.105671786 -1.8577462 0.39726567 -0.06138207 -0.016714888 0.2778118
-0.20425996 -1.2794913 -0.0575813 0.61795247 -0.06738249 0.5567479 0.22906028 -0.08394901
0.63195634 -0.058276244 0.009069045 -0.13932925 -0.043307293 -0.036379736 0.5460065 0.7851443
-0.08459304 -0.87442034 0.1595808 0.5994009 0.6725127 0.10286679 -0.059278388 -0.052440412
0.08199457 0.25500816 -0.27230802 0.16195214 0.46679568 0.023328358 -0.025179379 -0.22483455
-1.0104795 -0.3558985 1.0040172 0.41149074 0.020519475 -0.18456364 -0.20066066 0.5797831
0.33142495 -0.059271835 -0.0102548385 0.21766827 0.23123087 0.0006606277 0.57885194 -0.08254821
-0.3286788 -0.025878556 0.298717 0.6549791 0.058917727 0.10683626 0.17150106 0.025770301
00000000: b630 9c3e f280 0ebf 644d 0a3d 1508 b13c
00000010: 6031 113f 93c9 f13d ba17 e6bd 17f0 af3e
00000020: a192 6c3d 0814 78bd a658 b3bb 253f 9fbf
00000030: bce7 f83e 286f 99bf c7bb 903e 3f59 7c3e
00000040: 8153 d13e 344a 8e3d 4742 25be f0d5 1abd
00000050: e82f cbbc 558a 10bd 1238 1d3f 25e4 1fbe
00000060: 7504 b63e 4602 a23e 05a0 393f 9bb9 09bf
00000070: d9ec f4bd e4f1 cdbd 5cbe e33d 08d5 4bbd
00000080: 231d 8dbf 2e16 053f 1cbf cabd 2167 cb3e
00000090: ec36 5ebd 01b1 273f b375 453d 4b81 8f3e
000000a0: 3a70 35bd 5a9f efbe 0fea 9ebd 7423 253d
000000b0: 3f72 6c3c 0667 19bd 00dd f43d 0214 9ebd
000000c0: 98fb 483e 0d59 a6bd c38b 313e 0fe0 cfbd
000000d0: c1bb da3b 8369 e13e 95b0 153f 3822 c0be
000000e0: 9bfa 0c3f e165 7dbe 86e4 a73e 38cf 4c3e
000000f0: 58ad 883e cd20 48bf c0eb 30be acaa 9e3e
00000100: 1c98 febe 3a49 9a3e e439 45bd dd8b 893e
00000110: 4da3 d8bd db31 853d 2d19 00bf ac1f 613e
00000120: 5b8c 0f3f c739 2f3f b465 3dbf 0727 cb3e
00000130: c15d 3ebe 0d1a 863e 6ee3 85be 3e7a c13e
00000140: 2933 4cbd 8cdc 69bd 6c86 86be 8759 68bf
00000150: 5a70 59be cb37 c7be 424d 273e e097 c9bd
00000160: 9372 abbf 6c31 b2be d0e1 143f 7718 293f
00000170: 00ed 4b3d 1b00 77be 6706 a2bc 3f79 0f3f
00000180: 87f0 ca3d 5d0b 3b3d 3c8a 22bf ed2d d03b
00000190: 6bb2 ff39 a975 44bd d674 0fbe 5a5f 643e
000001a0: 29ba 1b3d 03fb 0dbe 5807 9fbd 07a6 10bf
000001b0: c7ba a63b 6c7a 93bd f499 963d 4abb 91be
000001c0: e1b5 08be f727 ab3e 6157 89be d281 96bf
000001d0: 40fd a63e 8508 18bf 08a6 cabe e2a4 99bf
000001e0: e44e 3f3f 0cbf 153f b354 383f 1aa2 b9bd
000001f0: b9ab 30be e2c7 403d ef03 893c f46a b9bc
00000200: 0b63 e13e f5d1 373e 96c0 e4bd e6a9 a8be
00000210: fceb f33b eed5 cd3e 20b4 873e 1dfa 143f
00000220: 2dca c73e 186c 56bd 1633 2a3a e7f8 243f
00000230: f183 5cbf 958b 9d3e c2b5 ccbe 8b75 4a3f
00000240: 9db4 c3bd c55e 633d eee3 afbe f4a1 9ebe
00000250: 7d11 3fbe c3cc 4c3d 6fbd 993e 65cc 883e
00000260: ae81 da3e b308 14bd a40b 9f3b f34e 90bd
00000270: b01f 37be 8e62 133f ad86 5ebd 2ab3 4abe
00000280: e750 d2be 5f2a 81be 4f3a 453e a236 97bd
00000290: b9bb 903e 6f41 72be 4c31 d5bf cb10 9ebe
000002a0: fa06 abbd 9e68 2abf aa33 103e 9323 223e
000002b0: 68f0 563c 5014 363f 322a eabc 7e31 30bc
000002c0: 354a 0e3f 8bc2 1c3f 86a0 0cbd 4f9b d0bd
000002d0: 4bf1 b03e d9ec 093d 7b74 d1be b8f4 54bd
000002e0: 6ef1 b7bd 9b78 a6be 3b2f f4bd 163e efbc
000002f0: 2f2d cebd 8114 f9bf 6245 c23c e9f8 80be
00000300: 26a5 c33e 1759 18bc 736a d8bd a1ca edbf
00000310: 6866 cb3e c46b 7bbd a9ed 88bc 593d 8e3e
00000320: 8629 51be 5fc6 a3bf 5fda 6bbd 2232 1e3f
00000330: d5ff 89bd 0887 0e3f c78e 6a3e 75ed abbd
00000340: e4c7 213f 12b3 6ebd 5596 143c 54ac 0ebe
00000350: fd62 31bd eb02 15bd 15c7 0b3f 38ff 483f
00000360: 1e3f adbd 03da 5fbf 2669 233e 5672 193f
00000370: cb29 2c3f d3ab d23d e5cd 72bd c2cb 56bd
00000380: c5ec a73d 6e90 823e f56b 8bbe c8d6 253e
00000390: d8ff ee3e 1d1b bf3c fc44 cebc 073b 66be
000003a0: 6457 81bf 5438 b6be a383 803f eaae d23e
000003b0: 7518 a83c 40fe 3cbe fd79 4dbe aa6c 143f
000003c0: 88b0 a93e 06c7 72bd e903 28bc 6ee4 5e3e
000003d0: c9c7 6c3e f92d 2d3a a42f 143f 090f a9bd
000003e0: 9648 a8be 44ff d3bc 6ff1 983e b6ac 273f
000003f0: b753 713d f8cc da3d f99d 2f3e 3d1c d33c

fc3.weight f4 [256, 256]
-0.13658012 0.0703624 -0.2772491 -0.027863244 -0.07570294 0.04218761 -0.008875654 0.049864236
-0.02701175 -0.035170276 -0.107729904 -0.2639653 -0.4384355 -0.33437914 0.16903473 0.20373216
-0.22772022 0.060621828 0.13797761 0.35102424 0.123752095 0.011040066 -0.12522931 -0.17982033
-1.2667599 -0.0703677 0.09936449 0.11553579 -0.021270487 -0.0110384375 0.2839157 0.30869356
-0.3776216 -0.20214403 0.018875092 -0.26786175 0.0118679525 0.0047829854 0.09632812 -0.18339282
-0.25998396 -0.108883105 0.17646517 -0.30794564 0.22000088 -0.11623865 -0.25073686 0.03603275
-0.0035507346 -0.058659412 -0.048580814 -0.034330167 -0.55062133 -0.15398963 -0.28717953 0.22246164
0.120627984 0.16135009 -0.09714822 -0.1970632 -0.043192256 -0.51137084 0.19271438 0.046033103
0.29152402 -0.17451634 -0.09433018 -0.30351287 -0.171238 0.2449963 0.014461186 -0.12477867
0.06352589 0.103006445 0.32333684 -0.39901307 -0.26976532 -0.17332265 -0.049282633 -0.08536322
-0.077386424 -0.21525739 -0.09660703 -0.30587876 -0.627687 0.39552107 -0.36556926 0.2883343
0.045799494 -0.29366457 0.055141132 0.023440959 -0.33567977 0.21663973 0.0014604409 0.40925637
-0.29861042 -0.5427908 -0.036655664 0.26934332 0.0125364605 -0.10791522 -0.49411657 0.064389914
0.20763679 0.047191326 -0.20255342 -0.03623699 0.037448205 -0.047985334 -0.48162147 -0.41450098
-0.2016067 -0.24885723 -0.1814726 0.08787307 -0.32393453 -0.032174498 0.15963453 -0.36289155
-0.13596582 0.27921185 -0.07450868 -0.06649073 0.22297487 0.042118534 -0.12589808 0.011754428
-0.34275365 0.30122033 0.1622187 0.037117984 0.034412194 -0.5151273 -0.03503827 0.30410165
-0.16181184 0.010078635 -0.33606467 -0.060321935 -0.06379061 0.13557467 -0.15828983 -0.022560587
0.008841431 -0.14984135 -0.42899948 0.17658857 -0.18516761 0.12921494 -0.15334485 -0.31153628
0.004543031 0.049981534 -0.09132782 0.017021112 -0.21920696 0.3539474 0.06365244 -0.13486381
-0.5400621 -0.5220925 0.12752292 -0.111517206 -0.46500695 0.06708836 -0.27554783 -0.08194823
-0.036304247 0.07464965 -0.09876535 -0.05415793 0.105423704 0.23574632 -0.14883652 -0.0030397149
-0.2744719 -0.24527758 0.018485596 0.064460814 -0.3043743 -0.24509382 -0.016046684 -0.10272405
-0.052408133 -0.15253833 -0.13072911 -0.24748524 -0.035007946 -0.6547714 0.015014907 -0.028658781
-0.1237584 0.039858833 0.04884855 -1.1974455 0.21964985 0.07100752 0.015015626 0.045992676
-0.20894465 -0.68460155 -0.0305243 0.22414993 0.04389316 -1.8995274 0.028374426 -0.094859764
0.027813833 0.09520571 0.30651292 0.10022968 0.048539896 -0.051000904 -0.0037906927 0.30635095
-0.44370925 -0.07605956 0.084548764 -0.019821009 -0.13230135 0.024494056 0.1582795 0.16925114
-0.114370406 0.12744908 0.4754445 0.056981925 0.008326608 0.13468851 0.040937647 0.49922803
-0.11234943 -0.21998018 0.07402906 0.011376205 -1.1628156 0.18883078 -0.76336086 0.057317354
0.092219286 -0.10254305 0.035166703 -0.5300576 0.1468131 0.07857509 0.20956281 -0.030285569
-0.102268115 0.008143679 -0.11435327 0.17067593 -0.34614152 -0.2970256 0.36716038 -0.05347247
00000000: a9db 0bbe 291a 903d 98f3 8dbe 7541 e4bc
00000010: 250a 9bbd eacc 2c3d 316b 11bc 713e 4c3d
00000020: bf47 ddbc b50e 10bd 7fa1 dcbd 7626 87be
00000030: 9e7a e0be be33 abbe 7117 2d3e 2a9f 503e
00000040: 7d2f 69be 984e 783d 014a 0d3e 73b9 b33e
00000050: bd71 fd3d 65e1 343c 1d3c 00be d222 38be
00000060: 3025 a2bf f11c 90bd 9c7f cb3d 079e ec3d
00000070: 723f aebc 90da 34bc 665d 913e 150d 9e3e
00000080: 9e57 c1be d8fe 4ebe f09f 9a3c 2d25 89be
00000090: cd71 423c 97ba 9c3b ad47 c53d 54cb 3bbe
000000a0: 9e1c 85be 1bfe debd 49b3 343e 0dab 9dbe
000000b0: e947 613e 880e eebd 9560 80be 1497 133d
000000c0: 71b3 68bb da44 70bd adfc 46bd ca9d 0cbd
000000d0: 85f5 0cbf 75af 1dbe 3209 93be fccc 633e
000000e0: ce0b f73d f538 253e a5f5 c6bd efca 49be
000000f0: 5dea 30bd 33e9 02bf eb56 453e 358d 3c3d
00000100: a342 953e 69b4 32be 2e30 c1bd 0a66 9bbe
00000110: 0459 2fbe 4fe0 7a3e 9cee 6c3c f68b ffbd
00000120: dd19 823d 0bf5 d23d 688c a53e 714b ccbe
00000130: ae1e 8abe 7e7b 31be 96dc 49bd e9d2 aebd
00000140: c67c 9ebd 6f6c 5cbe e8d9 c5bd 249c 9cbe
00000150: 18b0 20bf bd81 ca3e e52b bbbe 8ea0 933e
00000160: 4098 3b3d 345b 96be abdb 613d 4107 c03c
00000170: 38de abbe ced6 5d3e 446c bf3a 0d8a d13e
00000180: 77e3 98be 56f4 0abf 4024 16bd 5ee7 893e
00000190: ba65 4d3c a802 ddbd d9fc fcbe dcde 833d
000001a0: bd9e 543e b14b 413d 2a6a 4fbe 3d6d 14bd
000001b0: 4a63 193d 458c 44bd 1797 f6be 7939 d4be
000001c0: fd71 4ebe 6ed4 7ebe f4d3 39be ccf6 b33d
000001d0: bfda a5be 68c9 03bd 3c77 233e eccc b9be
000001e0: a03a 0bbe dbf4 8e3e 0298 98bd 4b2c 88bd
000001f0: 8653 643e 7c84 2c3d 6deb 00be a595 403c
00000200: 687d afbe 8d39 9a3e a91c 263e 0709 183d
00000210: cdf3 0c3d 62df 03bf 4a84 0fbd 36b3 9b3e
00000220: 01b2 25be dc20 253c ab10 acbe 2214 77bd
00000230: a7a4 82bd 16d4 0a3e bb16 22be fbd0 b8bc
00000240: a6db 103c 0370 19be d2a5 dbbe a2d3 343e
00000250: 949c 3dbe ec50 043e 6f06 1dbe af81 9fbe
00000260: b5dd 943b 70b9 4c3d 150a bbbd dc6f 8b3c
00000270: ca77 60be 9838 b53e 365c 823d bd19 0abe
00000280: 8341 0abf dba7 05bf 5e95 023e 2263 e4bd
00000290: 6415 eebe 9f65 893d 9b14 8dbe 79d4 a7bd
000002a0: c3b3 14bd eae1 983d 7d45 cabd b5d4 5dbd
000002b0: 62e8 d73d 7c67 713e 9a68 18be f435 47bb
000002c0: 9587 8cbe 0c2a 7bbe 1b6f 973c 0804 843d
000002d0: f3d6 9bbe e0f9 7abe 5674 83bc fd60 d2bd
000002e0: e9a9 56bd 0233 1cbe dadd 05be c56c 7dbe
000002f0: 7e64 0fbd 199f 27bf 1601 763c d2c5 eabc
00000300: 0b75 fdbd 0443 233d 6b15 483d e545 99bf
00000310: e4eb 603e 646c 913d 1a04 763c d162 3c3d
00000320: 96f5 55be 0c42 2fbf 190e fabc 8f87 653e
00000330: 50c9 333d b723 f3bf 7c71 e83c d645 c2bd
00000340: d6d9 e33c 36fb c23d 43ef 9c3e 3845 cd3d
00000350: c5d1 463d 53e6 50bd 456d 78bb 08da 9c3e
00000360: dc2d e3be 1dc5 9bbd e727 ad3d ab5f a2bc
00000370: 017a 07be c2a7 c83c 0514 223e 2c50 2d3e
00000380: 083b eabd 0382 023e 766d f33e e165 693d
00000390: 536c 083c c9eb 093e 3cae 273d d19a ff3e
000003a0: 7517 e6bd 7c42 61be 8c9c 973d 4363 3a3c
000003b0: 24d7 94bf db5c 413e 9e6b 43bf 9ac5 6a3d
000003c0: 77dd bc3d 1702 d2bd f60a 103d dbb1 07bf
000003d0: 2c56 163e faeb a03d a297 563e 7119 f8bc
000003e0: f271 d1bd 116d 053c 0c32 eabd acc5 2e3e
000003f0: 7639 b1be bd13 98be 72fc bb3e f305 5bbd

fc3.bias f4 [256]
0.22593185 0.049830746 -0.21426871 -0.20406434 0.17637533 -0.23151591 0.12792276 0.6748792
0.024552157 -0.44854242 -0.1064351 -0.0031957843 -0.02235336 0.06301949 0.028441846 -0.032391027
-0.34982944 0.5122078 0.058357503 -0.61623144 -0.0014352094 0.1319033 -0.30636594 0.16977638
0.25866926 0.01508261 -0.30315414 0.6248112 0.4197964 -0.3713388 0.27371415 -0.15941216
0.39624676 -0.47058207 0.36389044 0.19403702 0.10085014 -0.1853293 -0.098262556 0.99168843
0.15183964 -0.3147383 -0.25992456 0.072479285 -0.15891096 -0.00447296 -0.10464159 0.48899218
-0.1532205 -0.05737032 0.34420472 -0.12031128 -0.055905204 -0.14604557 0.20434424 0.26007497
-0.19889908 0.06736811 -0.25413704 -0.03431716 0.63076717 -0.21392258 -0.22533934 0.16798711
-0.20348771 0.3939931 -0.20211935 -0.15434754 0.014156714 -0.15581015 -0.38141072 0.0058172215
-0.17769556 -0.07109348 0.39519435 0.69301397 -0.3546107 -0.014378684 0.10402386 -0.15363868
-0.09173681 -0.17701508 0.07947539 -0.08116524 -0.30886376 0.26334196 -0.074335426 -0.16922176
0.03650111 0.13694389 -0.33994636 -0.1717968 0.45687962 0.36627352 0.20495293 -0.29394475
-0.47337696 0.046393167 0.59510523 -0.31085545 0.33251786 -0.049493562 -0.25329006 -0.05371957
-0.10193831 0.744653 -0.07928544 -0.24692328 -0.06816755 0.60208476 -0.15657829 0.000467074
-0.4489094 -0.264381 0.6005656 -0.36808398 0.17754576 0.15263626 -0.18881316 0.5091033
-0.28261614 0.38716772 0.11412297 0.15900862 0.45244098 -0.2052572 0.050446507 -0.0073998286
-0.43994063 0.04134086 0.32866406 -0.12630764 0.0014672623 0.86713165 -0.1500128 -0.4343258
-0.5098569 -0.05058869 -0.24728693 0.15369152 0.026950616 -0.11810696 0.9624591 0.4517208
-0.30918223 -0.44003874 0.30388516 -0.15743941 -0.4914458 -0.061256785 -0.36739585 -0.5246456
-0.15624627 0.18035956 0.12366632 -0.04067504 -0.4498853 0.09013291 0.3123091 0.005445035
-0.024256846 0.51550406 -0.20061812 -0.29583716 0.32034674 -0.07397814 0.16294222 0.7379429
-0.7649826 -0.17520651 -0.097558215 -0.113665506 -0.26889753 0.2586563 -0.6013261 0.446371
-0.41325018 -0.15330297 0.36163393 -0.40100113 -0.11176569 0.13524184 -0.37236032 0.04311671
0.22640418 -0.02998118 0.50015306 0.0474389 -0.0335716 -0.14161444 -0.26937485 0.17136654
0.12630448 -0.08523439 0.29957774 -0.60780406 -0.22017913 0.17174384 0.21782355 -0.42586693
-0.06999328 -0.2043694 -0.2658671 -0.009716342 0.86671335 -0.2996023 -0.083244525 0.6025903
-0.34980205 -0.09845637 -0.16119646 -0.08346906 0.673018 0.2629314 0.70641804 -0.057197873
0.76925397 0.078705184 -0.36505103 0.09638889 0.02352258 0.27654144 0.23450527 -0.008059289
-0.13082607 0.67436874 0.41543445 -0.21340172 -0.309786 -0.7683576 -0.14807749 -0.29172152
0.22841251 -0.21169408 0.23388036 0.654587 -0.49327007 0.9284654 -0.5089554 -0.40460923
0.4472001 0.8170214 -0.09947971 -0.3523758 -0.15297455 -0.676376 -0.0936348 -0.10340928
-0.09054522 0.76422995 0.2737641 0.037869312 -0.068347685 -0.45232075 0.29822618 -0.440542
00000000: ae5a 673e 531b 4c3d 4269 5bbe 3ef6 50be
00000010: bc9b 343e 8212 6dbe 2ffe 023e e2c4 2c3f
00000020: 9b21 c93c 5aa7 e5be a5fa d9bd 5d70 51bb
00000030: 651e b7bc 5d10 813d e0fe e83c 74ac 04bd
00000040: d81c b3be 0d20 033f 4708 6f3d 58c1 1dbf
00000050: a31d bcba a911 073e ffdb 9cbe dcd9 2d3e
00000060: 4c70 843e 0d1d 773c 0537 9bbe a0f3 1f3f
00000070: 8eef d63e 1f20 bebe 4324 8c3e f13c 23be
00000080: dbe0 ca3e 22f0 f0be d94f ba3e a4b1 463e
00000090: 858a ce3d f7c6 3dbe e13d c9bd 4bdf 7d3f
000000a0: da7b 1b3e 6125 a1be d514 85be 0570 943d
000000b0: 8eb9 22be e891 92bb 544e d6bd 2f5d fa3e
000000c0: d6e5 1cbe 24fd 6abd 9a3b b03e c365 f6bd
000000d0: dbfc 64bd f88c 15be 9e3f 513e 8c28 853e
000000e0: 33ac 4bbe 4bf8 893d 401e 82be 2690 0cbd
000000f0: f579 213f 850e 5bbe 5bbf 66be d004 2c3e
00000100: 155f 50be 77b9 c93e 60f8 4ebe 480d 1ebe
00000110: 90f1 673c b28c 1fbe 4448 c3be 649e be3b
00000120: d3f5 35be 7599 91bd ea56 ca3e 5d69 313f
00000130: 898f b5be 9294 6bbc 760a d53d 7553 1dbe
00000140: 82e0 bbbd 7143 35be fec3 a23d f639 a6bd
00000150: 6423 9ebe c2d4 863e 2c3d 98bd 7848 2dbe
00000160: 3082 153d 053b 0c3e 730d aebe 80eb 2fbe
00000170: 20ec e93e 3488 bb3e 2edf 513e ed7f 96be
00000180: 775e f2be c306 3e3d d158 183f 7228 9fbe
00000190: c83f aa3e c3b9 4abd 3caf 81be 0d09 5cbd
000001a0: 08c5 d0bd 94a1 3e3f 6860 a2bd 75d9 7cbe
000001b0: 6e9b 8bbd 3a22 1a3f 0f56 20be 9ce1 f439
000001c0: 74d7 e5be f25c 87be abbe 193f 8175 bcbe
000001d0: 8ece 353e ae4c 1c3e 3d58 41be 9854 023f
000001e0: 10b3 90be d93a c63e 4eb9 e93d 28d3 223e
000001f0: 58a6 e73e f22e 52be ffa0 4e3d 437a f2bb
00000200: e63f e1be 0955 293d a846 a83e ca56 01be
00000210: 2751 c03a 57fc 5d3f f59c 19be f45f debe
00000220: fb85 02bf 1636 4fbd c938 7dbe 4f61 1d3e
00000230: 8ac7 dc3c 10e2 f1bd b863 763f f347 e73e
00000240: 224d 9ebe c24c e1be d696 9b3e cc37 21be
00000250: c99e fbbe 65e8 7abd 4f1b bcbe 2d4f 06bf
00000260: 06ff 1fbe 2db0 383e c544 fd3d df9a 26bd
00000270: 5e57 e6be 9a97 b83d fae6 9f3e 446c b23b
00000280: 4bb6 c6bc 13f8 033f d66e 4dbe f877 97be
00000290: 7d04 a43e da81 97bd 53da 263e d3e9 3c3f
000002a0: e6d5 43bf 5669 33be 9acc c7bd 76c9 e8bd
000002b0: f0ac 89be 996e 843e 82f0 19bf bd8a e43e
000002c0: 8795 d3be 74fb 1cbe 1528 b93e 0550 cdbe
000002d0: 69e5 e4bd d67c 0a3e 03a6 bebe 269b 303d
000002e0: 7fd6 673e 179b f5bc 080a 003f 4b4f 423d
000002f0: 6082 09bd 6003 11be 80eb 89be b67a 2f3e
00000300: f655 013e 5e8f aebd 4162 993e 0c99 1bbf
00000310: a376 61be 9edd 2f3e 230d 5f3e 3b0b dabe
00000320: a358 8fbd 3646 51be bc1f 88be 4b31 1fbc
00000330: ede0 5d3f 7965 99be 1b7c aabd 5c43 1a3f
00000340: 4119 b3be 7ea3 c9bd af10 25be d4f1 aabd
00000350: e84a 2c3f f29e 863e d0d7 343f 5148 6abd
00000360: d4ed 443f 2f30 a13d f8e7 babe 8a67 c53d
00000370: 6db2 c03c d796 8d3e 2622 703e 1c0b 04bc
00000380: 45f7 05be 6ea3 2c3f d3b3 d43e fb85 5abe
00000390: 459c 9ebe 15b3 44bf a0a1 17be 865c 95be
000003a0: f8e4 693e 55c6 58be 557e 6f3e 0393 273f
000003b0: e58d fcbe e9af 6d3f e74a 02bf f128 cfbe
000003c0: 69f7 e43e 5128 513f 05bc cbbd 9a6a b4be
000003d0: 5ca5 1cbe fa26 2dbf 9ac3 bfbd 3fc8 d3bd
000003e0: c66f b9bd 93a4 433f cf2a 8c3e da1c 1b3d
000003f0: dff9 8bbd 9696 e7be 1ab1 983e b98e e1be

output.weight f4 [4, 256]
-0.09162289 -0.026193896 0.027075887 0.106249034 -0.045414813 -0.19155766 -0.104960024 -0.020977069
-0.09766439 -0.28815103 0.08910943 -0.10339079 0.04079462 -0.02808105 0.1350132 0.01257573
0.40730336 0.015218434 -0.44265652 -0.7219063 -0.035786565 -0.06468894 0.043367874 -0.070316635
-0.044453558 -0.06716045 -0.00151789 -0.036885265 0.00031002105 -0.0087114815 -0.065042466 0.07340736
-0.061737444 0.0084757665 0.030784827 0.056745794 -0.047750995 0.035957318 -0.5200562 0.07794131
-0.10867457 0.006609187 0.10980494 0.010525654 0.3018058 0.040304296 0.026952649 -0.014883439
-0.15058042 0.0027471595 0.03553486 0.011830174 -0.11300252 0.07628797 0.037291847 0.033669036
-0.057232227 0.0669644 0.25521904 -0.14375603 0.0008437034 0.014697377 0.09009981 0.08141405
-0.027198212 0.024170695 -0.40784812 0.032479033 0.011538494 0.025218407 -0.13009943 -0.033478063
-0.073551096 -0.21024415 0.060770106 -0.006408454 -0.043248642 0.06920474 -0.018862655 0.56859726
0.44760346 0.03941089 0.020683212 -0.028638184 -0.020719422 -0.03579566 0.05930428 -1.1376615
0.056123104 0.060022324 -0.027905863 -0.008882931 0.004006774 0.047507655 -0.04982163 -0.025032448
-0.14870737 0.03234638 0.007193553 -0.07418632 0.0064536505 -0.07775402 0.016668154 0.05803853
0.55625594 0.0006273707 -0.014099305 0.07783172 0.020338291 0.045673393 0.31444457 -0.51040035
-0.090461224 -0.015296681 0.06872156 0.28557467 0.025898058 0.05553667 -0.067051314 -0.000939153
-0.11257896 -0.070552945 -0.075325094 -0.014683189 0.010853429 0.06751093 -0.016883623 -0.052961085
-0.051156282 -0.00041478162 0.033881534 0.52132404 -0.43416765 0.0075804093 -0.0768429 -0.0019770442
0.0051223477 0.05639847 -0.16372782 -0.010578879 0.0038211562 -0.016391614 0.004462363 -0.0505008
0.025709525 0.02184207 -0.0034618934 -0.012651406 0.0050167567 -0.0683095 0.4495974 0.6299921
-0.010325716 0.0706142 -0.0043705553 -0.0034964695 -0.06793881 0.05064425 0.020832527 -0.18344003
-0.0015675897 0.027242504 0.039488688 0.017481908 0.05524134 -0.12435393 0.057269104 -0.01386241
0.0047680293 -0.057775345 0.01360379 0.11543303 0.021643225 -0.07878141 -0.00010107528 0.008598403
-0.1472642 -0.07605338 -0.06306799 -0.035720177 0.6104075 0.07563446 -0.1745077 0.005873273
-0.019955704 -0.02599131 0.042322308 -0.06556176 -0.031606242 -0.026218195 0.09966418 -0.018447999
-0.124679305 0.06125011 -0.029544434 -0.0890474 -0.05155347 0.05303861 0.005695138 0.38159332
-0.07288458 0.049723115 -0.045169834 -0.025393246 0.0027389103 -0.017473044 -0.056182746 -0.058860265
0.046465833 -0.14571106 0.19965735 -0.35241172 0.007500309 0.08687029 0.021437213 -1.070632
-0.066586986 -0.022793336 0.027927501 0.06682748 -0.006802748 0.019006286 -0.029670209 0.10277385
0.104061805 0.038789995 0.002154134 -0.10087049 -0.04491735 0.001860858 -0.048476767 0.006022759
0.010211393 -0.016883342 -0.074445024 -0.011506141 0.742765 0.04918036 -0.0023926422 -0.93268675
-0.036156192 -0.0091623245 0.20950022 0.0039009107 0.016846418 -0.13673364 0.10953293 -0.19825177
0.072211675 -0.03682111 0.07183703 -0.0022680282 -0.21637817 0.0024320823 0.10444387 -0.0075891605
00000000: c8a4 bbbd 9594 d6bc 40ce dd3c 1899 d93d
00000010: e204 3abd b127 44be 48f5 d6bd 1ad8 abbc
00000020: 4504 c8bd 8888 93be 017f b63d 8dbe d3bd
00000030: 4218 273d 3b0a e6bc e640 0a3e 6f0a 4e3c
00000040: 118a d03e bd56 793c e0a3 e2be dace 38bf
00000050: ef94 12bd a37b 84bd 83a2 313d 2b02 90bd
00000060: ef14 36bd 6b8b 89bd f0f3 c6ba 0115 17bd
00000070: 528a a239 9aba 0ebc fc34 85bd 9956 963d
00000080: 67e0 7cbd f1dd 0a3c 7630 fc3c 476e 683d
00000090: 8c96 43bd fb47 133d 6722 05bf b29f 9f3d
000000a0: c690 debd e191 d83b 6ae1 e03d cb73 2c3c
000000b0: 4a86 9a3e 1e16 253d cdcb dc3c abd9 73bc
000000c0: c131 1abe b009 343b 008d 113d 59d3 413c
000000d0: dd6d e7bd de3c 9c3d 56bf 183d 8be8 093d
000000e0: 576c 6abd a224 893d 12ac 823e c834 13be
000000f0: fa2b 5d3a 44cd 703c 4086 b83d 69bc a63d
00000100: c9ce debc 9f01 c63c 78d1 d0be bc08 053d
00000110: f40b 3d3c d596 ce3c c938 05be 4b20 09bd
00000120: f5a1 96bd 3e4a 57be 13ea 783d 02fe d1bb
00000130: 7d25 31bd 37bb 8d3d db85 9abc 978f 113f
00000140: 482c e53e 506d 213d d76f a93c a09a eabc
00000150: c7bb a9bc 789e 12bd 0be9 723d e49e 91bf
00000160: 57e1 653d f8d9 753d d69a e4bc b789 11bc
00000170: 424b 833b 6397 423d c411 4cbd d910 cdbc
00000180: bf46 18be a37d 043d e5b7 eb3b ffee 97bd
00000190: 2579 d33b 803d 9fbd a78b 883c cfb9 6d3d
000001a0: ca66 0e3f 2376 243a c500 67bc 3d66 9f3d
000001b0: 7d9c a63c 0614 3b3d e1fe a03e 99a9 02bf
000001c0: bc43 b9bd ee9e 7abc e4bd 8c3d d836 923e
000001d0: 2a28 d43c 6b7a 633d 3352 89bd 7e31 76ba
000001e0: cc8f e6bd 107e 90bd 0b44 9abd c291 70bc
000001f0: 95d2 313c 2c43 8a3d 864f 8abc b9ed 58bd
00000200: 4089 51bd 0c77 d9b9 5dc7 0a3d 7e75 053f
00000210: 394b debe 1565 f83b cf5f 9dbd 4c91 01bb
00000220: 5ed9 a73b 1502 673d 44a8 27be 0953 2dbc
00000230: 5d6c 7a3b b547 86bc 0439 923b edd9 4ebd
00000240: c89c d23c 24ee b23c efe0 62bb d847 4fbc
00000250: 9b63 a43b dae5 8bbd a131 e63e 2a47 213f
00000260: 312d 29bc 2d9e 903d e036 8fbb 0625 65bb
00000270: 8123 8bbd 5870 4f3d faa8 aa3c b4d7 3bbe
00000280: 9577 cdba ac2b df3c e4be 213d 3836 8f3c
00000290: be44 623d 46ad febd 0293 6a3d 291f 63bc
000002a0: 213d 9c3b d7a5 6cbd 6ee2 5e3c 2768 ec3d
000002b0: 224d b13c 2658 a1bd 61f8 d3b8 51e0 0c3c
000002c0: 6dcc 16be e0c1 9bbd ca29 81bd 524f 12bd
000002d0: aa43 1c3f 3de6 9a3d 26b2 32be 9674 c03b
000002e0: 257a a3bc baeb d4bc 285a 2d3d 3e45 86bd
000002f0: 8c75 01bd 8ac7 d6bc bc1c cc3d 4220 97bc
00000300: dd57 ffbd 65e1 7a3d 2b07 f2bc 7c5e b6bd
00000310: bb29 53bd 033f 593d 489e ba3b 3360 c33e
00000320: 8344 95bd 77aa 4b3d 0104 39bd 7f05 d0bc
00000330: 4a7f 333b a123 8fbc e11f 66bd 7617 71bd
00000340: f552 3e3d 4835 15be fa72 4c3e 4f6f b4be
00000350: 27c5 f53b 0de9 b13d 189d af3c 780a 89bf
00000360: c25e 88bd 17b9 babc 37c8 e43c d9dc 883d
00000370: 96e9 debb 12b3 9b3c f00e f3bc 197b d23d
00000380: 5b1e d53d 42e2 1e3d 5f2c 0d3b 3095 cebd
00000390: 41fb 37bd 09e8 f33a 938f 46bd 905a c53b
000003a0: b04d 273c ef4e 8abc a276 98bd 4184 3cbc
000003b0: d925 3e3f 5871 493d e0cd 1cbb 8fc4 6ebf
000003c0: 8418 14bd 931d 16bc 3a87 563e 6ca6 7f3b
000003d0: 8001 8a3c e703 0cbe cd52 e03d 8302 4bbe
000003e0: b7e3 933d bbd1 16bd 4b1f 933d 33a3 14bb
000003f0: 3d92 5dbe 9263 1f3b abe6 d53d 7eae f8bb

output.bias f4 [4]
-0.0014388554 0.0032707497 -0.0013316509 -0.0014522644
00000000: fa97 bcba 135a 563b ca8a aeba e859 beba
